AE_model.pkl (torch, 25423 bytes, 16 tensors)

weight f4 [32, 40]
0	0x3e13c8c6	0.14432058
1	0x3baffba6	0.005370575
2	0x3c5258ed	0.012838584
3	0x3e4238e0	0.18967009
4	0xbdaa1b62	-0.08306004
5	0x3e4b65d2	0.1986306
6	0xbd3762b6	-0.044771872
7	0xbdb5f90d	-0.08885393
8	0xbd748dfb	-0.059705716
9	0xbdf35890	-0.11882126
10	0x3bc71820	0.006075874
11	0x3e217465	0.15767057
12	0x3d143750	0.036185563
13	0xbbaa6e63	-0.0052011474
14	0xbd37c07d	-0.044861306
15	0xbd339057	-0.043838825
16	0xbbcfbc57	-0.0063395905
17	0x3ba1a164	0.0049325693
18	0xbc451bc3	-0.012030545
19	0xbc35197b	-0.011053438
20	0x3b2da34a	0.0026495033
21	0xbad986ea	-0.0016595994
22	0xbc298d98	-0.0103487
23	0xbc52a222	-0.012856038
24	0xbc8318fa	-0.01600312
25	0xbca7d5e4	-0.020487733
26	0xbc671d30	-0.01410608
27	0x3cc04ecf	0.023475079
28	0x3cb4546f	0.022012917
29	0x3cca82d7	0.024720592
30	0x3dd0c4ab	0.101937614
31	0x3bbcee14	0.005765686
32	0xbdd845d9	-0.105601974
33	0x80382512	-5.156086e-39
34	0x002d5986	4.164712e-39
35	0x3d14fa7b	0.03637169
36	0x3da84148	0.082155764
37	0x3bffa4ca	0.007801627
38	0x3c4087d2	0.011751132
39	0x3c05afc6	0.008159583
40	0x3e00ae56	0.12566504
41	0x3c91d8c3	0.017803555
42	0x3c18bc77	0.009322277
43	0x3e0c52af	0.13703416
44	0xbbc00014	-0.0058593843
45	0x3e1ea266	0.15491638
46	0x3aa9c532	0.0012952446
47	0xbd28337e	-0.04106473
48	0x3be33962	0.006934331
49	0xbdd3a2d4	-0.103337914
50	0x3e0029f0	0.12515998
51	0x3b119365	0.0022213098
52	0xbbe68867	-0.0070353034
53	0xbc873cdf	-0.016508518
54	0xbcc5df81	-0.024154427
55	0xbd1aff8b	-0.03784136
56	0xbc85ef11	-0.016349347
57	0x3b222a17	0.0024744326
58	0xbbf5a742	-0.0074967453
59	0xbb1a556b	-0.0023549448
60	0xbbf4b80e	-0.00746823
61	0xbcd53101	-0.026024343
62	0xbcf6b0fe	-0.030113693
63	0xbc951526	-0.01819856
64	0xbc16c55b	-0.009202327
65	0xbcbd5e34	-0.023116209
66	0xbb5ecaea	-0.0033995458
67	0x3cedef2d	0.029044712
68	0x3e0cd77c	0.13754076
69	0x3d2aa9ce	0.041665845
70	0x3dbd2df6	0.09237282
71	0x3cab7ec0	0.020934463
72	0xbe37fa9f	-0.17966698
73	0x8022e1e7	-3.203445e-39
74	0x000ed200	1.361031e-39
75	0x3c9aa5e1	0.018877925
76	0x3e0e5c8d	0.13902493
77	0x3bfdedfb	0.0077493167
78	0x3c52d170	0.012867317
79	0xbac41e96	-0.0014962729
80	0x3cdb9050	0.026802212
81	0xbd8fb507	-0.0701695
82	0xbc6cb25b	-0.01444682
83	0x3d7c6c9a	0.061627008
84	0x3e974f5a	0.29552728
85	0x3d5387f0	0.051643312
86	0xbc43d319	-0.011952185
87	0x3ea2ad29	0.31772736
88	0xbc3bf700	-0.011472464
89	0x3d8ae1d4	0.067813545
90	0x3cbbe74f	0.022937445
91	0x3c75f1d1	0.015011267
92	0xbb84744d	-0.0040421844
93	0xbce442ab	-0.027863821
94	0xbd03b166	-0.032151602
95	0xbd0903a9	-0.033450756
96	0xbd61566d	-0.055014063
97	0xbd2fe5a7	-0.042943623
98	0xbc9936ed	-0.018702948
99	0xbca90c82	-0.020635847
100	0x3be3d354	0.0069526825
101	0xbc9d8e98	-0.019233033
102	0xbbf0241e	-0.0073285243
103	0xbd14638c	-0.036227748
104	0xbcedd4a0	-0.029032052
105	0x3aeb57b3	0.0017955214
106	0xbc4fe39a	-0.012688542
107	0xbb249936	-0.0025115735
108	0x001b1e61	2.490456e-39
109	0xbda3e2ed	-0.08002267
110	0x3b8f5a61	0.0043747877
111	0x80109d3d	-1.525774e-39
112	0xbd1637e6	-0.036674403
113	0x803b6f44	-5.458209e-39
114	0x802a30f8	-3.874658e-39
115	0x3e01a6e2	0.12661317
116	0xbe5a841d	-0.2133946
117	0xbabf4585	-0.0014592862
118	0xbc57dbe9	-0.013174989
119	0xbc9a9482	-0.018869642
120	0x3da65230	0.08121145
121	0x3bb84776	0.005623753
122	0x3bda6ebb	0.006666032
123	0x3da0483d	0.07826278
124	0x3dc3ac3c	0.095543355
125	0x3d9e37f1	0.07725514
126	0x3d2e4eac	0.042555496
127	0xbe91f02f	-0.28503558
128	0xbe92157e	-0.28532022
129	0xbe07ede0	-0.13274336
130	0xbeff4cd7	-0.49863312
131	0xbe6a2708	-0.22866452
132	0xbc37162e	-0.011174722
133	0xbd65571f	-0.05599129
134	0xbe19e2dd	-0.15027948
135	0xbe256de9	-0.16155209
136	0x3d5acd6b	0.053418558
137	0x3d2f9206	0.04286387
138	0x3cc7cf50	0.024390846
139	0x3c9526ae	0.01820692
140	0xbb0f20b3	-0.0021839559
141	0xbdfc51b9	-0.12320275
142	0xbde6ee8d	-0.11275969
143	0xbd3004ba	-0.042973258
144	0xbd449b0b	-0.047999423
145	0xbd409f12	-0.0470267
146	0xbd4956fc	-0.04915522
147	0xbcc79b05	-0.024365911
148	0x3c17242f	0.009224935
149	0xbd2d428d	-0.042299796
150	0x3e7cfceb	0.24705856
151	0xbcc06db6	-0.023489814
152	0x3e12fddb	0.1435465
153	0x80180ef8	-2.209422e-39
154	0x801593ed	-1.981611e-39
155	0x3ea6058b	0.32426104
156	0x3d5cb39e	0.053882234
157	0x3b570b71	0.0032813216
158	0xbd0d0cf2	-0.034436174
159	0xbc378a35	-0.011202385
160	0x2dce1c75	2.3432126e-11
161	0x2cc3ac9d	5.5613973e-12
162	0xab4dce36	-7.3116806e-13
163	0xacfa828e	-7.119922e-12
164	0x2dc5bf9b	2.2481397e-11
165	0xad17cb18	-8.628452e-12
166	0xad7fe10f	-1.4545045e-11
167	0x2cf1bf12	6.870845e-12
168	0xad1b35e2	-8.822694e-12
169	0xac8f0be5	-4.065625e-12
170	0xad7f937f	-1.45278225e-11
171	0x2cae32fa	4.951037e-12
172	0xad5e2eaf	-1.2629605e-11
173	0x2c88097e	3.8664063e-12
174	0xad05a2df	-7.596339e-12
175	0xad7b1c89	-1.4274034e-11
176	0xad7ae253	-1.4261109e-11
177	0x2cfcef52	7.1888407e-12
178	0x2d7cdefd	1.4374055e-11
179	0x2d8392c3	1.4958151e-11
180	0x12c6d13a	1.2547135e-27
181	0xaceac622	-6.672677e-12
182	0xad541d70	-1.2057341e-11
183	0xac99ee8a	-4.3750047e-12
184	0x2d349e22	1.0266928e-11
185	0xad2e19f0	-9.896514e-12
186	0x2cd081cb	5.9261255e-12
187	0x975c576f	-7.119619e-25
188	0x17aed0f4	1.1297234e-24
189	0x15620050	4.5640583e-26
190	0x9811fda4	-1.8868867e-24
191	0x9644eabe	-1.5906825e-25
192	0xae9e8dcc	-7.210196e-11
193	0x003c4a76	5.536841e-39
194	0x0048fb67	6.702342e-39
195	0x17fc8fdf	1.6321436e-24
196	0xae9af2d5	-7.046245e-11
197	0x8d315680	-5.4646457e-31
198	0x8ee63840	-5.6753544e-30
199	0x1606bb19	1.0883471e-25
200	0x3db9abd3	0.09065976
201	0x3d22ca4a	0.0397437
202	0x3c450206	0.012024408
203	0x3dcbd989	0.09953601
204	0xbdcaa1fe	-0.09894179
205	0x3df92108	0.12164503
206	0x3d543e7d	0.051817406
207	0xbb6c753a	-0.0036080615
208	0x3da4e003	0.08050539
209	0x3dc05df8	0.09392923
210	0x3e025e16	0.12731203
211	0x3d4953eb	0.049152296
212	0x3c4a63db	0.012352909
213	0xbb5a841c	-0.0033342903
214	0x3d1c8433	0.038212012
215	0x3cb0607e	0.021530386
216	0x3c5b12a0	0.01337114
217	0x3c03e13f	0.008049308
218	0x3bf8509c	0.0075779688
219	0x3c3e77ed	0.011625272
220	0xbbcd0987	-0.0062572393
221	0x3ca6faee	0.020383324
222	0x3d69ae86	0.057051204
223	0x3d004e2c	0.03132455
224	0x3d044883	0.032295715
225	0x3cef4c01	0.029211046
226	0x3d00312a	0.031296887
227	0x3d344d5c	0.04401909
228	0xbbfcd8d9	-0.00771628
229	0x3e3631f9	0.177925
230	0x3bd553bd	0.0065102265
231	0x3ce8d146	0.028420102
232	0xbe442e2a	-0.19158235
233	0x82041b6c	-9.705698e-38
234	0x000b8d90	1.060974e-39
235	0xbde7d42a	-0.11319764
236	0x3ea8ed01	0.3299332
237	0xbc4f0460	-0.01263532
238	0x3c9682f0	0.018372983
239	0xbc09225a	-0.008370006
240	0x3d40e556	0.04709371
241	0xbb395805	-0.0028281223
242	0x3ab51502	0.0013815465
243	0x3d7fe66a	0.0624756
244	0x3cee2a9e	0.029073056
245	0x3d83c330	0.064337134
246	0x3c00f53f	0.007870971
247	0x3c1440fa	0.009048695
248	0xbc86fff5	-0.016479472
249	0x3cf3bce7	0.029753162
250	0x3b535a00	0.003224969
251	0x3e041483	0.1289845
252	0x3c30d882	0.010793807
253	0xbbe61679	-0.007021722
254	0x3b6b7370	0.003592696
255	0x3974ce1a	0.00023346432

bias f4 [32]
0	0x3deb7bb6	0.11498205
1	0x3e535188	0.2063657
2	0xbe037f7b	-0.12841599
3	0x3e9952f1	0.29946092
4	0xaea15bdc	-7.33775e-11
5	0x3dc26dca	0.09493597
6	0x3dab4ba7	0.08364039
7	0xbb257160	-0.0025244579
8	0x3d2d12f2	0.042254396
9	0xa090e0af	-2.4543232e-19
10	0x3e0d1283	0.13776593
11	0x3cf7eb0e	0.03026345
12	0x3dff2ec6	0.12460093
13	0x3d8ade9c	0.067807406
14	0xbe182a56	-0.148599
15	0x3ceb1779	0.028697716
16	0x91881f5c	-2.1476343e-28
17	0xbcfb375e	-0.03066605
18	0xbe05ab64	-0.13053662
19	0xbd5cc139	-0.05389521
20	0x3dc6d80d	0.09709177
21	0x3e098b53	0.13432054
22	0xbe0875df	-0.13326214
23	0xbcfc5b16	-0.030805152
24	0x3cee4dfa	0.029089916
25	0x3dab3449	0.08359582
26	0xbd0c25f7	-0.034215894
27	0xbd7ca390	-0.061679423
28	0xb5cd7647	-1.5308113e-06
29	0xbe01b066	-0.12664947
30	0x3d8b5f40	0.06805277
31	0xbdd807c1	-0.10548354

weight f4 [16, 32]
0	0x3e91fffc	0.28515613
1	0x3ed6104e	0.41809314
2	0xbee5659f	-0.44804093
3	0xbd23d240	-0.039995432
4	0xae7e7dc3	-5.7864612e-11
5	0x3ed441e9	0.41456535
6	0x3d8b7cb2	0.06810893
7	0x3eff8233	0.49904022
8	0x3e2720e0	0.16321135
9	0x20133267	1.2468061e-19
10	0xbdb29649	-0.08720071
11	0x3e648d7f	0.22319601
12	0xbe5cf59e	-0.2157807
13	0x3e962e00	0.2933197
14	0xbf00f2db	-0.5037057
15	0x3de30adf	0.11086058
16	0x910faa48	-1.1333183e-28
17	0xbec97a4d	-0.3935112
18	0xbc8bfb7d	-0.017087692
19	0xbcd077dc	-0.025447778
20	0x3d98fa21	0.07469583
21	0x3f39a2fe	0.7251433
22	0xbe9311ea	-0.28724605
23	0xbe1ff5b0	-0.15621066
24	0x3e5a6a46	0.21329603
25	0x3ed10c67	0.40829775
26	0xbd798dbd	-0.060926188
27	0x3e3a6b67	0.18205033
28	0x3800a803	3.067405e-05
29	0xbed84ef7	-0.42247745
30	0x3f0c4e5f	0.54807085
31	0xbd15ee20	-0.036604047
32	0x3db10739	0.08643956
33	0xbd48e70f	-0.04904848
34	0xbdf1c723	-0.118055604
35	0xbeca3565	-0.39493862
36	0x289a12bf	1.7105564e-14
37	0x3e87ccde	0.2652349
38	0x3e520537	0.20509802
39	0x3e02dd26	0.12779674
40	0x3d987b92	0.07445444
41	0x9e6314f8	-1.2021616e-20
42	0x3e49b125	0.19696482
43	0x3e0dfe4b	0.13866536
44	0x3f257f87	0.64647716
45	0x3de3b82a	0.11119111
46	0xbdde7466	-0.10862045
47	0x3e83bd44	0.25730336
48	0x91fb102b	-3.9610782e-28
49	0xbdf8aae9	-0.121419735
50	0x3e8f7557	0.2801921
51	0x3f11c53a	0.5694157
52	0x3cfbed94	0.030752935
53	0x3e311ca0	0.17296076
54	0x3e8a4aa5	0.27010074
55	0x3e17931e	0.14802215
56	0x3f078721	0.52940565
57	0x3ba7b60f	0.0051181386
58	0x3dc38b71	0.09548081
59	0x3e9e18ce	0.308783
60	0xb2d35f17	-2.4606875e-08
61	0xbe46d2c0	-0.19416332
62	0xbee712c2	-0.451315
63	0x3f0c1f04	0.54734826
64	0x3d6fff53	0.058593106
65	0x3cf20a05	0.029545793
66	0x3e6ad458	0.22932565
67	0x3eaf6723	0.34258375
68	0x2059a8ee	1.8436509e-19
69	0xbd87ea07	-0.06636434
70	0x3dcadce6	0.09905414
71	0xbe60bf65	-0.21948011
72	0xba609a57	-0.00085679203
73	0xa02cd2ee	-1.4638757e-19
74	0x3e1707e9	0.14749111
75	0x3a8a928b	0.0010572238
76	0x3e6d0297	0.23145519
77	0xbc88cd96	-0.016699594
78	0x3e8b3b9a	0.2719391
79	0xbd9e5849	-0.07731683
80	0x1128243a	1.3264026e-28
81	0x3e6a9c5b	0.22911207
82	0x3df2f240	0.11862612
83	0xbca79821	-0.020458283
84	0x3e1526d3	0.14565592
85	0xbea8b496	-0.32950276
86	0x3e140911	0.14456584
87	0x3e52200b	0.20520036
88	0xbd816ad1	-0.06319202
89	0xbd91e03e	-0.07122849
90	0x3ced368b	0.028956672
91	0xbd215306	-0.039385818
92	0xb50acf4d	-5.171067e-07
93	0x3df2c470	0.11853874
94	0xbb701590	-0.0036633946
95	0xbda06197	-0.07831114
96	0x3e3b48d1	0.18289496
97	0x3df9b8c2	0.12193443
98	0xbca3f149	-0.020012515
99	0x3ee902ba	0.45509893
100	0x9d933dd2	-3.8974497e-21
101	0xbd27dd1a	-0.040982343
102	0x3d4d0a47	0.05005863
103	0x3cac9f96	0.02107219
104	0xbc998b8f	-0.018743305
105	0x1f01567c	2.738835e-20
106	0x3e7dde75	0.24791892
107	0x3e4798c2	0.19491866
108	0x3dedd140	0.11612177
109	0x3e278c22	0.1636205
110	0xbcef389e	-0.029201802
111	0xbdf51857	-0.11967533
112	0x10349978	3.561697e-29
113	0x3cdc3e49	0.026885169
114	0x3e565a93	0.20932989
115	0xbdcc8fff	-0.099884026
116	0x3e5bf88a	0.21481529
117	0xbdb88998	-0.09010619
118	0xbc109ef1	-0.008826957
119	0x3e5a84ef	0.21339773
120	0xbdb66800	-0.08906555
121	0x3df753d0	0.12076533
122	0xbc04a5a8	-0.008096136
123	0x3dbb3134	0.09140244
124	0x3106f9ae	1.9641493e-09
125	0xbe508a2b	-0.20365207
126	0x3dbab566	0.0911663
127	0xbe8a82eb	-0.27053007
128	0x3e4deefb	0.20110695
129	0x3d828df8	0.06374735
130	0x3d75a417	0.05997094
131	0x3f00bd6a	0.5028902
132	0x1fb50b64	7.6675326e-20
133	0xbd9c5054	-0.07632509
134	0x3dbf19fc	0.09331128
135	0xbdb39b0f	-0.087698095
136	0xbd19a201	-0.037508015
137	0x9e41483a	-1.0232271e-20
138	0x3ec7e26c	0.39039934
139	0x3e72558b	0.23665445
140	0x3ec46d5a	0.3836468
141	0x3e2dc774	0.16970617
142	0x3d89d9e9	0.06731016
143	0xbe03ccf0	-0.12871146
144	0x8e042bea	-1.62914e-30
145	0x3de9a7a9	0.11408932
146	0x3eb2712b	0.34851965
147	0x3bfd7243	0.0077345683
148	0x3e867579	0.262615
149	0xbe748d03	-0.23881917
150	0x3db3e46e	0.08783804
151	0x3eac467c	0.33647525
152	0xbd1b6a0e	-0.03794294
153	0x3d43a9f7	0.047769513
154	0x3c839800	0.01606369
155	0x3e1155f2	0.14192942
156	0xb1328cae	-2.5982376e-09
157	0xbe545313	-0.20734815
158	0xbdf5308e	-0.11972152
159	0xbe8e5f94	-0.27807295
160	0x3ddd599f	0.108081095
161	0x3dd67e6f	0.10473334
162	0x3cbdbeef	0.023162333
163	0x3eb71b56	0.35763043
164	0x9d2904d0	-2.2369452e-21
165	0xbcded177	-0.02719949
166	0x3ca7187a	0.020397414
167	0x3d132f64	0.035933867
168	0xbc1575f9	-0.009122365
169	0x1e927d55	1.5510187e-20
170	0x3d89f7ae	0.06736694
171	0x3d3d8c27	0.046276238
172	0xbd5cb868	-0.0538868
173	0x3dccab98	0.099936664
174	0xbc248650	-0.010041788
175	0xbdba3cdd	-0.0909364
176	0x10fb9808	9.9236285e-29
177	0x3d8fd9a9	0.07023937
178	0xbb6fb91e	-0.0036578844
179	0xbe2ed793	-0.17074423
180	0x3e241a5b	0.16025679
181	0xbd9cda10	-0.076587796
182	0xbc6a9683	-0.014318111
183	0x3d95db42	0.07317211
184	0xbdfac0df	-0.122438185
185	0x3e127b40	0.14304829
186	0xbcb1f96d	-0.02172538
187	0xbd50c2be	-0.05096697
188	0xb29c5f77	-1.8204203e-08
189	0xbdf80f54	-0.121122986
190	0x3e440667	0.19143067
191	0x3b9243d6	0.004463653
192	0x000204c8	1.85386e-40
193	0x8004adea	-4.2973e-40
194	0x802cd317	-4.116487e-39
195	0x801a3fc5	-2.410599e-39
196	0x81462730	-3.6394972e-38
197	0x8011117f	-1.56748e-39
198	0x8033b6a7	-4.749134e-39
199	0x80089129	-7.86758e-40
200	0x80316cda	-4.538988e-39
201	0x800c0f80	-1.107586e-39
202	0x801da1d5	-2.721284e-39
203	0x0030a97a	4.4689e-39
204	0x8011f18a	-1.647851e-39
205	0x80225451	-3.152654e-39
206	0x001b4e69	2.507687e-39
207	0x801cebf1	-2.656034e-39
208	0x81882f3a	-5.0026277e-38
209	0x0009f979	9.16013e-40
210	0x8008d827	-8.12225e-40
211	0x8009e824	-9.09796e-40
212	0x803f3789	-5.805559e-39
213	0x001c6615	2.608014e-39
214	0x0003efdb	3.6155e-40
215	0x803aaf53	-5.389353e-39
216	0x8019882d	-2.344738e-39
217	0x8001dfc9	-1.72114e-40
218	0x803942f5	-5.258643e-39
219	0x801ab68f	-2.453213e-39
220	0x81ee6278	-8.756869e-38
221	0x002ed71b	4.301598e-39
222	0x80148829	-1.885555e-39
223	0x80483497	-6.631021e-39
224	0x804b3e4d	-6.910012e-39
225	0x802d5968	-4.16467e-39
226	0x802fd2f0	-4.391938e-39
227	0x800265d3	-2.20199e-40
228	0x01b16b1a	6.5173214e-38
229	0x804b447e	-6.912233e-39
230	0x800c5c6b	-1.135179e-39
231	0x800832ac	-7.52862e-40
232	0x80348363	-4.822578e-39
233	0x80488513	-6.659894e-39
234	0x803a563b	-5.357392e-39
235	0x802ff84b	-4.405339e-39
236	0x8024a31b	-3.364589e-39
237	0x802f1344	-4.32318e-39
238	0x000dd8c2	1.27162e-39
239	0x8033e579	-4.76593e-39
240	0x816b16e4	-4.3179106e-38
241	0x801db517	-2.728192e-39
242	0x0034a606	4.835004e-39
243	0x801ecbf5	-2.828231e-39
244	0x8044f40f	-6.332365e-39
245	0x8000a379	-5.8643e-41
246	0x801055f1	-1.500198e-39
247	0x002ae0b0	3.937694e-39
248	0x801dcc5b	-2.736538e-39
249	0x8031eb73	-4.584403e-39
250	0x803bf2a7	-5.505342e-39
251	0x80010a35	-9.5497e-41
252	0x818cb696	-5.1689876e-38
253	0x801e2591	-2.768541e-39
254	0x002b1ef3	3.960029e-39
255	0x00298ffe	3.81691e-39

bias f4 [16]
0	0x3e50b9db	0.20383398
1	0x3db084c4	0.08619073
2	0x3df43b6e	0.11925398
3	0x3deb3cf1	0.11486233
4	0x3e01fa74	0.12693197
5	0x3e14da1d	0.14536329
6	0x801e6b1c	-2.793488e-39
7	0x8028c562	-3.744227e-39
8	0x3d994dd4	0.07485548
9	0xbb36de6c	-0.002790357
10	0x80312ec0	-4.51671e-39
11	0x800c891f	-1.151216e-39
12	0x000075cb	4.2256e-41
13	0xba01e4ca	-0.00049550517
14	0xb342a802	-4.5321947e-08
15	0x3d086344	0.033297792

weight f4 [8, 16]
0	0x3fd0caab	1.6311849
1	0x3ea823a5	0.32839695
2	0xbf31575c	-0.69273925
3	0x3de71362	0.11282994
4	0xbe427e3c	-0.18993467
5	0x3d79e50d	0.061009455
6	0x00232d86	3.230573e-39
7	0x8028b519	-3.738385e-39
8	0xbe245935	-0.16049655
9	0xbe79c360	-0.24390936
10	0x001a1157	2.393943e-39
11	0x8025b9cc	-3.464565e-39
12	0x000ad16f	9.93486e-40
13	0xbd7e3489	-0.06206182
14	0x33b6a8f6	8.505769e-08
15	0x3e1bb31b	0.15205042
16	0xbe1d613c	-0.15369123
17	0x3f7195b5	0.9436906
18	0x3d659ed3	0.05605967
19	0xbe3fde49	-0.18737139
20	0x3ce32f8b	0.027732631
21	0xbe3dc4e8	-0.18532145
22	0x003b01c4	5.418928e-39
23	0x8014b7ac	-1.902599e-39
24	0x3e95230b	0.29128298
25	0x3dd6ad8f	0.104823224
26	0x8012bf44	-1.721652e-39
27	0x802040e2	-2.962011e-39
28	0x0004be9f	4.35724e-40
29	0x3cbfc246	0.023408066
30	0xb2e87281	-2.7060425e-08
31	0xbc329459	-0.010899627
32	0x3cf13514	0.029444255
33	0x3f63a75a	0.88927233
34	0xbdb48bba	-0.08815713
35	0xbe34f6f1	-0.17672326
36	0xbd754446	-0.059879564
37	0xbe53cc3e	-0.20683381
38	0x8028e8e6	-3.756968e-39
39	0x0039dfe6	5.314943e-39
40	0x3e5c9401	0.21540834
41	0x3d6d678f	0.05796009
42	0x003209b0	4.59525e-39
43	0x8009c818	-8.983e-40
44	0x0028bfef	3.742273e-39
45	0x3c4d5cf7	0.012534372
46	0x339613f6	6.98855e-08
47	0xbba40f39	-0.0050066975
48	0x8040b2b2	-5.941576e-39
49	0x80197a0c	-2.33967e-39
50	0x80449f04	-6.301858e-39
51	0x801ede91	-2.834907e-39
52	0x80460436	-6.429995e-39
53	0x80142fc9	-1.853852e-39
54	0x803a89c0	-5.375874e-39
55	0x802c26dd	-4.054703e-39
56	0x80354a19	-4.893863e-39
57	0x8004e291	-4.48619e-40
58	0x80322dc7	-4.608197e-39
59	0x0012543a	1.683254e-39
60	0x0029262c	3.778949e-39
61	0x8009e188	-9.07425e-40
62	0x80359298	-4.919869e-39
63	0x803bbd81	-5.486275e-39
64	0x3e30c5b4	0.17262918
65	0xbea7d182	-0.3277703
66	0x3e2fced7	0.17168747
67	0x3e9290d0	0.28626108
68	0x3e75213f	0.23938464
69	0x3e93bfe9	0.28857353
70	0x00215866	3.062283e-39
71	0x0002545e	2.13936e-40
72	0xbcee39ab	-0.029080233
73	0xbcad2919	-0.021137761
74	0x00103bef	1.490868e-39
75	0x8013520f	-1.774312e-39
76	0x0038336a	5.161232e-39
77	0xbba1956f	-0.004931144
78	0xb26dd709	-1.3844109e-08
79	0x3d955bd0	0.072929025
80	0x3377999d	5.764888e-08
81	0xb4b12130	-3.2992966e-07
82	0x328bee0c	1.6289981e-08
83	0x3305f66f	3.1190606e-08
84	0x33a37d51	7.613074e-08
85	0x32d7e82b	2.5134872e-08
86	0x8036ff74	-5.050756e-39
87	0x803f60c3	-5.820348e-39
88	0x31d71ea2	6.260806e-09
89	0x2dfeae21	2.8953786e-11
90	0x001a1c62	2.397905e-39
91	0x0024bb24	3.373211e-39
92	0x003ab596	5.3916e-39
93	0x2db26b57	2.0283926e-11
94	0x294cf13f	4.5506347e-14
95	0x3257eb2f	1.2568122e-08
96	0xbe0d7fa7	-0.13818227
97	0x3ee346b0	0.44389868
98	0x3ec938d9	0.39301184
99	0x3f24078d	0.6407402
100	0x3f7fbcda	0.9989754
101	0x3e560752	0.2090123
102	0x000687f3	5.99782e-40
103	0x0038efb9	5.228784e-39
104	0x3eda9229	0.42689636
105	0xbe6f4272	-0.2336519
106	0x00263b09	3.510927e-39
107	0x0041bc11	6.036773e-39
108	0x003c3b0c	5.531312e-39
109	0xbd7b0799	-0.061286543
110	0xb43dcfcf	-1.7677597e-07
111	0x3e7b351b	0.24531977
112	0x3e6b0938	0.22952735
113	0xbed91db7	-0.42405483
114	0x3e647618	0.22310674
115	0x3ebcafd3	0.36852893
116	0x3e9cde0e	0.30638164
117	0x3ec2037d	0.37893286
118	0x80195954	-2.327932e-39
119	0x8040581b	-5.909078e-39
120	0xbd1e7a2b	-0.038690727
121	0xbcd6475f	-0.02615708
122	0x8026d28c	-3.565279e-39
123	0x80299c38	-3.821296e-39
124	0x8000a26a	-5.8263e-41
125	0xbbb297b7	-0.0054502147
126	0xb217be9a	-8.832695e-09
127	0x3dbf4822	0.0933993

bias f4 [8]
0	0x3d8518dc	0.06498882
1	0x3d8dd9f4	0.06926337
2	0x3cceee16	0.025260013
3	0x8007ebe5	-7.27471e-40
4	0x3e058baa	0.13041559
5	0x32f9d33f	2.9083479e-08
6	0x3d1aff8e	0.037841372
7	0x3e31bfcb	0.1735832

weight f4 [4, 8]
0	0x3de48d2c	0.11159739
1	0x3f1c6721	0.6109486
2	0x3f26d692	0.6517116
3	0x801e4046	-2.778122e-39
4	0xbf12dcb0	-0.5736799
5	0xb318f5d0	-3.5613823e-08
6	0xbf67f020	-0.90600777
7	0xbf3f3857	-0.7469534
8	0xbf967bfb	-1.1756586
9	0x3f3ca264	0.7368529
10	0x3ed45fcd	0.4147934
11	0x801b5e3c	-2.513363e-39
12	0xbe8d6610	-0.2761693
13	0xb348bdb6	-4.673867e-08
14	0x3f05856c	0.5215671
15	0xbeb82008	-0.35961938
16	0x3ecbe737	0.3982484
17	0xbecff98c	-0.40620077
18	0xbe9a46c3	-0.30132112
19	0x8009bb85	-8.93789e-40
20	0x3d38f791	0.045157973
21	0x32b9496e	2.1570226e-08
22	0xbf5e29c6	-0.8678249
23	0x3d73c3b1	0.059512798
24	0x3fac3bdf	1.3455771
25	0x3e94f760	0.29094982
26	0x3ef252f5	0.47328916
27	0x002df726	4.221257e-39
28	0xbdb62f59	-0.088957496
29	0x318285fa	3.7987293e-09
30	0x3ef0310b	0.46912417
31	0xbdeaf320	-0.11472154

bias f4 [4]
0	0xbe0e105e	-0.13873431
1	0xbdb2d0d2	-0.087312356
2	0x3d1edbc0	0.03878379
3	0xbd0c0ea2	-0.034193642

weight f4 [8, 4]
0	0xbe0ee14a	-0.13953128
1	0xbf080cec	-0.5314472
2	0x3e9ef5a7	0.31046793
3	0x3db1aadf	0.08675169
4	0x3e9d1673	0.3068119
5	0x3fa1ee62	1.2650874
6	0xbf4b9bea	-0.7953478
7	0xbe0c5518	-0.13704336
8	0x367d23e3	3.7720827e-06
9	0x370c139c	8.349216e-06
10	0x3676f705	3.680064e-06
11	0xb84160fb	-4.6105106e-05
12	0x000e2169	1.297682e-39
13	0x00156128	1.963399e-39
14	0x00076cbf	6.81859e-40
15	0x803fcca7	-5.859052e-39
16	0x15e64e83	9.302013e-26
17	0x16e9a230	3.7745535e-25
18	0x16978a48	2.4482633e-25
19	0x9799a4fe	-9.929043e-25
20	0x3f101604	0.56283593
21	0xbea5b187	-0.32362005
22	0xbdf08f31	-0.117460616
23	0x3fb34619	1.4005767
24	0xbe379fc9	-0.17932047
25	0xbf2f254e	-0.684163
26	0x3ecb9646	0.39763087
27	0x3de86c4f	0.11348783
28	0xbfc09fbb	-1.5048746
29	0xbe16e005	-0.14733894
30	0xbefa3f16	-0.48876256
31	0x3e66b637	0.22530447

bias f4 [8]
0	0x3c66448d	0.01405443
1	0xbd94ca8a	-0.07265194
2	0x37bc74ca	2.246573e-05
3	0x00036b99	3.14105e-40
4	0x163b4c4e	1.5129817e-25
5	0xbd35c675	-0.044378716
6	0x3c98569b	0.018595984
7	0x3d9580f5	0.07299987

weight f4 [16, 8]
0	0xb9ba2a44	-0.00035508175
1	0x3f7b9763	0.9827787
2	0x365e6881	3.3141407e-06
3	0x003ef304	5.780978e-39
4	0x14ad93ef	1.7526885e-26
5	0xbd84bfba	-0.064818814
6	0xbab8805e	-0.0014076342
7	0xbe5456a4	-0.20736176
8	0xbe7a56dc	-0.24447197
9	0x3c2e07dd	0.010621992
10	0x37cd66d1	2.4485782e-05
11	0x8020ca32	-3.01127e-39
12	0x163391b8	1.4505486e-25
13	0x3f309fcc	0.6899383
14	0xbea0b277	-0.31386158
15	0xbf0eaf91	-0.55736643
16	0x2341e913	1.0511906e-17
17	0xa5197d36	-1.3313058e-16
18	0x9d94a7f7	-3.9348945e-21
19	0x00393922	5.255119e-39
20	0x80307058	-4.448405e-39
21	0xa5158aad	-1.2970675e-16
22	0x239c5c82	1.6952732e-17
23	0xa3f5e301	-2.6659093e-17
24	0xbcaf2044	-0.02137769
25	0xbf038b7d	-0.5138472
26	0x3654f48c	3.1732807e-06
27	0x8023c1e3	-3.283796e-39
28	0x969b9f1a	-2.5142008e-25
29	0x3e449311	0.19196726
30	0xbcdea8c0	-0.027180076
31	0x3ee89f2f	0.45433947
32	0xbe1ee507	-0.15517054
33	0xbe1efe9c	-0.15526813
34	0x3684f8f2	3.9628876e-06
35	0x0033e30d	4.765061e-39
36	0x93801fe0	-3.2343174e-27
37	0x3d689c75	0.056789834
38	0xbe4dbb1c	-0.20090908
39	0x3d2bd79c	0.041953668
40	0x2c2a041d	2.4160736e-12
41	0xb8a5dcc1	-7.908932e-05
42	0xa78fabcc	-3.9876736e-15
43	0x81899080	-5.05332e-38
44	0x8123f90c	-3.0117054e-38
45	0xb720f56c	-9.593885e-06
46	0x2c41969a	2.751055e-12
47	0xada7f92b	-1.9096355e-11
48	0x3d5d8b40	0.054087877
49	0x3c888a2f	0.016667454
50	0xb6f7e2c4	-7.3875726e-06
51	0x0009bda4	8.9455e-40
52	0x96f10324	-3.8937632e-25
53	0x3ca96c8f	0.020681648
54	0x3d9133ba	0.07089944
55	0x3f3648be	0.71204746
56	0x3e0d61cd	0.1380684
57	0xbe3908db	-0.18069784
58	0xb3c70a40	-9.268524e-08
59	0x002fb45f	4.380973e-39
60	0x959e1f6e	-6.386528e-26
61	0x3f29ff19	0.66404873
62	0x3e37e96b	0.17960136
63	0xbe88f14e	-0.267466
64	0x3c1ff0c1	0.00976199
65	0x3ee33392	0.44375283
66	0xb7c39da1	-2.3319213e-05
67	0x001b6772	2.516668e-39
68	0x15b61305	7.353922e-26
69	0xbead36aa	-0.33830768
70	0x3c4bb27d	0.012432692
71	0x3e91285f	0.28351113
72	0xbdd3ed21	-0.10347963
73	0x3f0f96ba	0.56089365
74	0x377487ba	1.4575135e-05
75	0x80019398	-1.44782e-40
76	0x979eea4b	-1.0269655e-24
77	0x3e8bf4c5	0.27335182
78	0xbe0566fe	-0.1302757
79	0x3d0053e3	0.03133
80	0x3e14a654	0.14516574
81	0xbe0c8669	-0.13723148
82	0xb6a6e57a	-4.9739e-06
83	0x8018d1e1	-2.279342e-39
84	0x94f7a148	-2.500424e-26
85	0x3e07027f	0.13184546
86	0x3e3e7e42	0.18602851
87	0x3f5316c8	0.82456636
88	0x3dc43b41	0.09581614
89	0xbe8759b2	-0.2643562
90	0x372f8d7e	1.0463757e-05
91	0x8012d61d	-1.729848e-39
92	0x1705ccae	4.323296e-25
93	0x3f3a4822	0.72766316
94	0x3df43f4f	0.11926138
95	0x3d9d5029	0.07681305
96	0x1593af34	5.964925e-26
97	0x96b8f218	-2.9879586e-25
98	0x0d2c5bdc	5.3112164e-31
99	0x020c3b3d	1.0302576e-37
100	0x81e88ff2	-8.542989e-38
101	0x96bcb6b4	-3.048834e-25
102	0x154f3da7	4.1851952e-26
103	0x960e02ab	-1.147151e-25
104	0xbe3366b6	-0.1751965
105	0x3e0b2afe	0.13590619
106	0x379ecce0	1.893047e-05
107	0x80046fea	-4.07489e-40
108	0x956c7378	-4.775091e-26
109	0xbf30b63d	-0.69028074
110	0xbe687e5e	-0.22704455
111	0x3efac1a4	0.4897586
112	0xbef7d531	-0.4840484
113	0xbf1273ac	-0.5720775
114	0x36d399f4	6.3062125e-06
115	0x00318461	4.547428e-39
116	0x170aab90	4.4806747e-25
117	0x3ef8ed42	0.48618513
118	0xbf1f1e5a	-0.6215569
119	0x3eca9df7	0.39573643
120	0xbcd24fd4	-0.02567283
121	0xbe8a2094	-0.2697798
122	0x3804e8e8	3.1688163e-05
123	0x801aeda2	-2.47297e-39
124	0x1690d1b3	2.3396794e-25
125	0xbef26f39	-0.4735048
126	0xbcfc12ab	-0.03077062
127	0x3f112f72	0.5671302

bias f4 [16]
0	0x3f09f104	0.53883386
1	0xbef5d4c8	-0.48013902
2	0x2402ea66	2.83878e-17
3	0x3de9d96c	0.11418423
4	0x3c2fc70e	0.010728611
5	0xabcf8559	-1.4745246e-12
6	0xbe834120	-0.25635624
7	0x3ec02e63	0.3753539
8	0xbf0c178d	-0.54723436
9	0xbf378f6c	-0.7170322
10	0x3eb7f9a6	0.35932654
11	0xbe65c0e5	-0.22436865
12	0x15d9071c	8.765682e-26
13	0xbbefe28f	-0.007320709
14	0x3e269c5b	0.16270582
15	0xbdf7011b	-0.12060758

weight f4 [32, 16]
0	0xbc2bd02c	-0.010486644
1	0x3d026cbf	0.03184199
2	0x22a06944	4.347954e-18
3	0xbe1c31d9	-0.1525339
4	0x3d86ee68	0.06588441
5	0xab8178f4	-9.199573e-13
6	0x3e2d2824	0.16909844
7	0xbe04be04	-0.1296311
8	0x3bdb78d1	0.006697752
9	0x3e64e41f	0.22352646
10	0x3d5cf8ec	0.053948328
11	0x3d65eeb0	0.056135833
12	0x1506022a	2.7062792e-26
13	0x3db72a7b	0.089436494
14	0x3e5535df	0.20821331
15	0xbc43669c	-0.011926319
16	0xbeba7907	-0.36420462
17	0x3de8520e	0.11343776
18	0x22e66baf	6.245564e-18
19	0x3e0f6330	0.14002681
20	0x3da678ee	0.08128534
21	0xa91dccb8	-3.5038568e-14
22	0xbd10cab7	-0.035349574
23	0x3e2c0b91	0.16801287
24	0x3dc3c289	0.09558589
25	0xbe8a2f7b	-0.2698935
26	0x3c9e0615	0.01929001
27	0x39611d1a	0.00021468513
28	0x15c520c2	7.961935e-26
29	0x3e434dd6	0.19072661
30	0x3e882522	0.2659083
31	0x3e0b6f6a	0.1361672
32	0x9d386e7d	-2.4409318e-21
33	0x901ff772	-3.1547846e-29
34	0x01ab5b18	6.294619e-38
35	0x91503b6d	-1.6426619e-28
36	0x1054b42e	4.1948433e-29
37	0x8114f6e0	-2.736043e-38
38	0x10420aa8	3.8267963e-29
39	0x9109fb86	-1.0884901e-28
40	0x0e12c0dd	1.808875e-30
41	0x8fcd8334	-2.0265098e-29
42	0x91790d37	-1.9646709e-28
43	0x90cae9c2	-8.003511e-29
44	0x0217fda3	1.1166518e-37
45	0x8fb82daa	-1.816139e-29
46	0x9105ef74	-1.0565637e-28
47	0x8fb1a2a0	-1.7516188e-29
48	0x3e0b5a9a	0.1360878
49	0xbcf2b8df	-0.029629169
50	0x23d4c504	2.3068525e-17
51	0xbcb1b82e	-0.021694269
52	0x3aa45841	0.0012538509
53	0xab6f2dea	-8.4973575e-13
54	0x3df22570	0.11823547
55	0xbd94c4d0	-0.072641015
56	0x3e4fd23f	0.20295046
57	0x3db6cf52	0.08926262
58	0x3d81d4e1	0.063394316
59	0xbe4fbb66	-0.2028633
60	0x14393899	9.351275e-27
61	0x3e4ba287	0.19886218
62	0xbe948651	-0.29008725
63	0xbd39f87e	-0.045402996
64	0x3de567ad	0.11201415
65	0xbef83cab	-0.48483786
66	0xa37c858a	-1.3689225e-17
67	0x3d80f6d2	0.06297077
68	0xbd011c82	-0.031521328
69	0xab83a5ea	-9.35416e-13
70	0x3de783ef	0.11304461
71	0x3dfc675d	0.123244025
72	0xbcd87ed8	-0.026427671
73	0xbd88d415	-0.066810764
74	0x3e31f71b	0.1737942
75	0xbe32bb1a	-0.17454186
76	0x948a123c	-1.3941631e-26
77	0xbe4c3c14	-0.19944793
78	0xbe507ab6	-0.2035931
79	0x3e2ae747	0.16689788
80	0x3e1986be	0.14992806
81	0x3ea23ba7	0.31686136
82	0xa2f05f93	-6.5153323e-18
83	0x3cd75911	0.026287587
84	0x3c576f0f	0.013149037
85	0xac483eca	-2.8456564e-12
86	0xbec33f00	-0.38134003
87	0x3c63a160	0.013893455
88	0x3d67e3cc	0.05661373
89	0x3e1bbf13	0.15209608
90	0xbf169eed	-0.5883625
91	0xbdbd9b9a	-0.09258194
92	0x1390b55a	3.6529537e-27
93	0xb9dffe69	-0.00042723425
94	0x3d87bd11	0.066278584
95	0x0018afb2	2.26708e-39
96	0x3d2f3181	0.04277182
97	0xbe632ae4	-0.2218433
98	0xa2e45066	-6.188465e-18
99	0xbd8594f1	-0.06522549
100	0x39f2f7c8	0.00046342448
101	0xabe9465d	-1.6575175e-12
102	0x3cc32157	0.023819609
103	0x3dfae3e7	0.122505
104	0x3d2b3327	0.04179683
105	0x3d177c66	0.03698387
106	0x3d98bc52	0.07457794
107	0x3dcb75e6	0.09934597
108	0x938161ce	-3.266062e-27
109	0xbd07d0d7	-0.03315815
110	0xbe5a932c	-0.21345204
111	0xbe398536	-0.18117222
112	0xbe83e231	-0.25758508
113	0xbe054b3d	-0.13016982
114	0xa3869266	-1.4590311e-17
115	0x3e1e96f0	0.15487266
116	0x3da96700	0.08271599
117	0x2bdbe10f	1.5623352e-12
118	0x3d527605	0.051382083
119	0xbd83e916	-0.06440942
120	0xbcac6b03	-0.02104712
121	0xbe4da7de	-0.20083568
122	0x3e018132	0.1264694
123	0xbd29043d	-0.041263808
124	0x14f47681	2.4684445e-26
125	0x3d693de0	0.056943774
126	0x3e953590	0.29142427
127	0xbd2ca9ca	-0.04215411
128	0x3ea07779	0.3134115
129	0xbee1d78c	-0.44109762
130	0x23afe456	1.9070242e-17
131	0x3e32ca07	0.1745988
132	0xbce9d54d	-0.028544093
133	0x2b85c857	9.505824e-13
134	0x3c178c26	0.009249723
135	0x3dc75a80	0.097340584
136	0x3e867c1d	0.26266566
137	0xbc5d5c21	-0.013510735
138	0x3bd2c55c	0.0064322185
139	0xbede42c0	-0.434103
140	0x943528fb	-9.146247e-27
141	0xbcc462ee	-0.023972955
142	0xbe0c72e9	-0.1371571
143	0x3e3cdeb5	0.18444331
144	0xbeaa12e3	-0.33217534
145	0xbd7c7eb3	-0.061644267
146	0x22307566	2.3914598e-18
147	0x3e2afd1e	0.16698119
148	0x3c85651f	0.01628357
149	0x2b658b5c	8.1550543e-13
150	0x3de044a6	0.10950594
151	0xbe9bdae6	-0.30440444
152	0xbd9cfd11	-0.07665456
153	0xbe6296e3	-0.22127871
154	0x3db4c512	0.08826651
155	0xbe3b37c1	-0.18282987
156	0x953ac73a	-3.7719563e-26
157	0xbcacfd9b	-0.021117022
158	0x3e0151e5	0.12628897
159	0x3eb8dafe	0.36104578
160	0x3e3b3fa0	0.1828599
161	0xbdfb2ba4	-0.12264183
162	0x23b9c849	2.0142564e-17
163	0xb93151d0	-0.00016910513
164	0xbdb3885a	-0.08766241
165	0x2c39a8da	2.6383813e-12
166	0xbe7ddd99	-0.24791564
167	0x3e50c05d	0.20385881
168	0xbdbb822b	-0.09155687
169	0xbe9016b0	-0.2814231
170	0x3d046d4a	0.03233079
171	0xbd911268	-0.07083589
172	0x12c1f410	1.2240178e-27
173	0x3d8d6282	0.069035545
174	0x3d2ae584	0.04172279
175	0x3e09930e	0.13435003
176	0x3e5a4fb4	0.21319467
177	0xbe87198a	-0.26386672
178	0x242d69a9	3.7602893e-17
179	0x3d7fbcc4	0.06243588
180	0x3bce256e	0.006291083
181	0xab36a5e4	-6.488961e-13
182	0xbd8eb1fb	-0.06967541
183	0x3dc165ed	0.09443269
184	0xbe508955	-0.20364888
185	0xbcffd791	-0.03123072
186	0x3c9d0d48	0.019171372
187	0x3de9656b	0.11396297
188	0x94627cba	-1.1434682e-26
189	0xbefee86d	-0.49786702
190	0x3e86c100	0.26319122
191	0x3ddc1fa9	0.10748226
192	0x3d023f54	0.031798676
193	0x3b0a0a67	0.002106333
194	0xa348c57b	-1.088384e-17
195	0x3cdee173	0.027207112
196	0x3d8a4af5	0.06752578
197	0x2b160db2	5.330971e-13
198	0xbd01eee6	-0.031721972
199	0xbd83e61e	-0.06440376
200	0xbd979ba2	-0.074027315
201	0xbbbeef29	-0.00582685
202	0xbd64d167	-0.055863764
203	0xbc1c0718	-0.009523176
204	0x94d0083c	-2.100588e-26
205	0x3c64d421	0.013966591
206	0x3e6b69a9	0.22989525
207	0x3bab73c4	0.005232306
208	0xbd393a08	-0.04522136
209	0xbec6eb42	-0.38851362
210	0xa1186518	-5.16334e-19
211	0xbc6e9090	-0.014560834
212	0xb9003025	-0.00012224966
213	0x2abaff54	3.3217407e-13
214	0xba6dfacc	-0.0009078204
215	0x3e8ffa66	0.28120726
216	0xbc5f0241	-0.013611377
217	0xbdaf56d2	-0.085614815
218	0x3dc4cc76	0.0960931
219	0x3e171553	0.14754228
220	0x953e9b31	-3.849262e-26
221	0xbb46adfa	-0.00303161
222	0xbedcc420	-0.43118382
223	0xbe28d542	-0.16487601
224	0xbe105834	-0.14096147
225	0xbd6697b8	-0.056297034
226	0xa333cbf7	-9.746801e-18
227	0x3e2b2b97	0.16715847
228	0xbd26b72a	-0.040702023
229	0x2b2522c2	5.866801e-13
230	0x3dadd9da	0.084888175
231	0x3cd35cdf	0.02580112
232	0xbd8761ae	-0.06610428
233	0xbe1e4d68	-0.15459216
234	0x3e5634ec	0.20918626
235	0x3e0ebc37	0.13938986
236	0x15ee15d9	9.6161904e-26
237	0x3c8a7657	0.016902132
238	0x3e1b8cce	0.15190431
239	0xbdd8533a	-0.10562749
240	0x3e3149b9	0.17313279
241	0xbeca440d	-0.39505044
242	0x23c80f8b	2.1690626e-17
243	0x3d8f4390	0.069953084
244	0xbcf7f147	-0.030266417
245	0xab439546	-6.9485075e-13
246	0xbde43066	-0.11142044
247	0x3e24ae4e	0.16082117
248	0xbe58471d	-0.21120878
249	0x3e0d2f11	0.13787486
250	0xbd220db5	-0.039563853
251	0x3dfcb436	0.1233906
252	0x9620aee3	-1.2979882e-25
253	0xbee1f1e5	-0.44129863
254	0x3e2551ec	0.16144532
255	0xbe6cf863	-0.23141627

bias f4 [32]
0	0xbe0509ef	-0.1299207
1	0x3da656b6	0.081220075
2	0x910f8944	-1.1323009e-28
3	0xbc84f7df	-0.016231475
4	0x3dfed178	0.12442297
5	0xbe5aecdd	-0.21379419
6	0x3d1dc54b	0.03851823
7	0x3da66455	0.081246056
8	0x3e1f86ec	0.15578812
9	0xbd849b8d	-0.064749815
10	0x3f0aaa32	0.5416595
11	0x3e17b9d0	0.14816976
12	0xbbd77260	-0.006574914
13	0xbc4e323e	-0.012585221
14	0x3d74eacf	0.059794243
15	0x3e45b6cb	0.19308011
16	0x3d33dc5e	0.04391133
17	0x8040ffd5	-5.969247e-39
18	0x3db9d64f	0.09074079
19	0x3e3f1753	0.18661241
20	0xbe28c8da	-0.16482869
21	0xbf7bdd08	-0.9838414
22	0x3db61ae8	0.08891851
23	0x3de3bdb8	0.1112017
24	0x3d7ce5c2	0.06174255
25	0xbd7ed495	-0.062214453
26	0x3e054a5f	0.13016652
27	0xbd5cffe0	-0.05395496
28	0xbe20c05a	-0.15698376
29	0xbe729d5f	-0.23692845
30	0x20ceb644	3.501837e-19
31	0xba7f28b8	-0.00097335456

weight f4 [40, 32]
0	0x3c002ad5	0.007822712
1	0xbe5274c0	-0.20552349
2	0x111381ea	1.1636288e-28
3	0x3d845acd	0.064626314
4	0x3d110ecf	0.035414513
5	0xbd089403	-0.03334428
6	0xbc8448e2	-0.016148034
7	0xbdbe5c8d	-0.092949964
8	0xbcb8f67a	-0.022578467
9	0xbd8e2e99	-0.069424815
10	0x3e32a1aa	0.17444482
11	0xbb284927	-0.0025678368
12	0x3ca20fcf	0.019782929
13	0x3d5daed7	0.05412182
14	0x3d9653b6	0.07340185
15	0x3dfeee17	0.12447756
16	0x3da87537	0.08225482
17	0x8008cd05	-8.08231e-40
18	0x3c8d398a	0.01723935
19	0xbdece399	-0.11566848
20	0xbcd711b7	-0.026253564
21	0x3f2f3afe	0.6844939
22	0x3d13bc66	0.036068343
23	0xbe86b461	-0.26309493
24	0xbc3b9274	-0.011448491
25	0x3da8c93b	0.08241507
26	0xbdec33a1	-0.11533285
27	0xbb27f8ac	-0.0025630398
28	0xbe306543	-0.17226128
29	0xbd99173a	-0.07475133
30	0xa0afdb05	-2.9791088e-19
31	0xba1c39aa	-0.00059595203
32	0xbca958e2	-0.020672265
33	0x3c2fc4e9	0.010728099
34	0x90324ab6	-3.5161865e-29
35	0x3d5248c2	0.05133892
36	0xbd1dd768	-0.038535506
37	0x3b0ee392	0.0021803123
38	0x3cd6690a	0.026173133
39	0x3cbed147	0.02329315
40	0xbdc77d5f	-0.097407095
41	0xbc825b4d	-0.015912676
42	0x3e5ee356	0.2176641
43	0xbda118fe	-0.07866095
44	0x3d3cb54d	0.04607134
45	0x3df3ed08	0.119104445
46	0x3e028c88	0.12748921
47	0xbd3748bd	-0.044747103
48	0x3d9431cf	0.07236063
49	0x91ee7230	-3.7620153e-28
50	0x3d4173f3	0.04722972
51	0x3c1dbd3e	0.009627638
52	0xbcd40897	-0.025883002
53	0xbd964f57	-0.073393516
54	0x3d5ce5d5	0.053930122
55	0xbccfb57c	-0.025355093
56	0x3c8d346f	0.017236916
57	0x3ccd420c	0.025055908
58	0xbe068f08	-0.131405
59	0xbc2376b6	-0.009977033
60	0x3d16562c	0.036703274
61	0xbdbef7e2	-0.09324624
62	0x217a578d	8.4819167e-19
63	0x393aae81	0.0001780335
64	0xbc8a309a	-0.016868878
65	0x3b2eac1d	0.002665288
66	0x1026f573	3.2926815e-29
67	0x3d489ea0	0.0489794
68	0xba3069e1	-0.00067296444
69	0xbba36a89	-0.004987065
70	0x377f6c80	1.52244465e-05
71	0xb9a34448	-0.00031140656
72	0xbc93dcdd	-0.018049652
73	0x3c38dff7	0.011283866
74	0x3c16242b	0.009163897
75	0x3c3398de	0.010961739
76	0x3d2d2e34	0.04228039
77	0x3a5c6ee6	0.0008408859
78	0xbbbc79a1	-0.005751804
79	0xb9ecc054	-0.00045156723
80	0x3d2b7442	0.04185892
81	0x8022c75b	-3.193922e-39
82	0x3d3efce8	0.04662791
83	0x3ce45994	0.027874745
84	0xbd2a61ec	-0.04159729
85	0x3c081d61	0.008307786
86	0xba0f5417	-0.00054675475
87	0xbad73e7e	-0.0016421822
88	0xba3bf5fc	-0.00071701384
89	0x3cb6423c	0.02224838
90	0xbd42e1b0	-0.047578514
91	0xbc1db460	-0.009625524
92	0xbc41d6ec	-0.0118310265
93	0xbcfd45f7	-0.03091715
94	0x21b8c3f7	1.2520196e-18
95	0x3a492ba7	0.0007674046
96	0x3d2e4837	0.04254934
97	0xbe7bbc37	-0.24583517
98	0x0fcd3973	2.023669e-29
99	0xbc1d006b	-0.009582619
100	0x3d6a7dd3	0.0572489
101	0xbd46f907	-0.048577335
102	0xbce853f7	-0.02836035
103	0xbde43ce6	-0.11144428
104	0x3d3e736c	0.046496794
105	0xbd9a376f	-0.07530104
106	0x3e580374	0.21095067
107	0x3cf7b4b3	0.030237531
108	0xbc6ce2c3	-0.014458361
109	0xbcccef41	-0.025016429
110	0x3d61911d	0.05507003
111	0x3de87cf6	0.113519594
112	0xbcfe928c	-0.031075738
113	0x9a515e41	-4.3296325e-23
114	0xbcc811e2	-0.02442259
115	0xbe33ead6	-0.17570052
116	0x3c390edd	0.011295048
117	0x3f3f3238	0.74686
118	0x3927eea1	0.00016015257
119	0xbe81efe6	-0.2537834
120	0xbc94a0c9	-0.018143075
121	0x3d91453b	0.07093283
122	0xbd8a4c59	-0.067528434
123	0x3d3b06f6	0.045660935
124	0xbe0c5034	-0.1370247
125	0x3c9c9146	0.01911224
126	0xa1a692eb	-1.1287486e-18
127	0xb9e58b4c	-0.00043782068
128	0xbddbcff6	-0.10733025
129	0x3d2b86cd	0.041876603
130	0x0da9585c	1.0436701e-30
131	0x3e3130ce	0.17303774
132	0x3f08a052	0.5336963
133	0x3b7e48de	0.0038800756
134	0xbd01c6e4	-0.031683818
135	0xbd94f21e	-0.07272743
136	0x3f39d80e	0.725953
137	0xba8b74ee	-0.0010639706
138	0x3cff3561	0.031153383
139	0x3ee4a027	0.44653437
140	0xbd30959f	-0.04311144
141	0xbda2d449	-0.079506464
142	0xbdee38e4	-0.11631945
143	0x3f03d51f	0.5149707
144	0xbe9cfb8e	-0.3066067
145	0x9901f9de	-6.719604e-24
146	0xbe246654	-0.1605466
147	0xbe195211	-0.14972712
148	0x3d8fcd58	0.07021588
149	0x3d4d706c	0.050156042
150	0xbdbc79e3	-0.092029355
151	0x3e1a903d	0.15094085
152	0xbf37abcc	-0.71746516
153	0x3ddf44d7	0.10901802
154	0x3e973763	0.29534444
155	0xbe105cc5	-0.14097889
156	0xbe98e52e	-0.2986235
157	0x3d5ee5f0	0.054418504
158	0xa1ad9d24	-1.1764531e-18
159	0xba91aaaf	-0.001111349
160	0x3d4921d7	0.049104538
161	0xbe791dd8	-0.2432779
162	0x0edc63b1	5.4330187e-30
163	0xbc77c158	-0.01512178
164	0x3d6aacc8	0.057293683
165	0xbd4e86f5	-0.050421674
166	0xbceff9e3	-0.02929396
167	0xbdea6243	-0.11444523
168	0x3d378b14	0.04481037
169	0xbd8e61aa	-0.06952222
170	0x3e5fb822	0.21847585
171	0x3d016e0e	0.031599097
172	0xbbdefee9	-0.00680529
173	0xbcb4db48	-0.022077218
174	0x3d470de1	0.04859722
175	0x3de3c312	0.11121191
176	0xbd008211	-0.03137404
177	0x8bced8fa	-7.9674784e-32
178	0xbce3b2ef	-0.027795283
179	0xbe32210f	-0.17395423
180	0x3c51c9bc	0.012804445
181	0x3f3c83ef	0.73638815
182	0x3b19ebac	0.0023486419
183	0xbe7d4f20	-0.24737215
184	0xbc850c82	-0.016241316
185	0x3d8c23a8	0.068427384
186	0xbd7ece50	-0.062208474
187	0x3d2d0bd5	0.042247612
188	0xbe0ade8c	-0.13561457
189	0x3cb30b79	0.021856057
190	0xa19f9403	-1.0813437e-18
191	0xb912da2a	-0.00014004917
192	0xbd3979fa	-0.04528234
193	0x3d5823b9	0.052768443
194	0x10d367d4	8.33848e-29
195	0xbce4526c	-0.027871333
196	0xbd602d40	-0.054730654
197	0x3b3df63c	0.0028985878
198	0x3cbd5b10	0.023114711
199	0x3d9cb203	0.076511405
200	0x3ceec26f	0.029145448
201	0xbca135d1	-0.019678982
202	0x3d97cd11	0.0741216
203	0xbd9f9439	-0.07791943
204	0x3d667774	0.056266263
205	0xbcd1ddcf	-0.025618462
206	0xbcdf872c	-0.027286135
207	0x3c2c0b55	0.010500749
208	0x3a033f7e	0.00050067145
209	0xaceb95e9	-6.695745e-12
210	0xbd3217f5	-0.04347988
211	0x3c651435	0.0139818685
212	0xbd416c63	-0.047222506
213	0x3d2a5859	0.04158816
214	0x3d7c1f54	0.061553314
215	0xbd13fef3	-0.03613181
216	0xbd2da664	-0.04239501
217	0x3dcb9a57	0.09941547
218	0xbd7ced84	-0.06174995
219	0xbcd4fbe8	-0.025999025
220	0xbc328556	-0.010896048
221	0x3d69e310	0.05710131
222	0xa1ae9816	-1.1830955e-18
223	0xb9b3bed7	-0.00034283727
224	0x3dbb1207	0.09134298
225	0xbcaed4bd	-0.021341676
226	0x10385a3f	3.6357125e-29
227	0xbedf753a	-0.43644124
228	0x3e34ca85	0.1765538
229	0xbd3997e9	-0.04531089
230	0xbe1ace58	-0.15117776
231	0x3df6932c	0.120397896
232	0x3eab52a6	0.33461493
233	0x3d9f2973	0.07771578
234	0xbe0548d7	-0.13016067
235	0x3de618d4	0.11235204
236	0xbd9c7390	-0.07639229
237	0x3d8841ad	0.06653152
238	0xbe1caaa6	-0.15299472
239	0x3dc6b0d7	0.09701698
240	0x3e3e060a	0.18556991
241	0x1681325d	2.0872858e-25
242	0x3de5f5c0	0.11228514
243	0xbe8265e9	-0.25468376
244	0x3e00c2d0	0.12574315
245	0xbc859640	-0.016306996
246	0xbd149410	-0.036274016
247	0xbe0df0aa	-0.13861337
248	0x3f225c4b	0.6342208
249	0x3ebde254	0.37086737
250	0x3dc0db73	0.094168566
251	0x3c67f511	0.0141575495
252	0xbe35fe51	-0.17772795
253	0xbebcdc92	-0.36887032
254	0x221031f3	1.9542082e-18
255	0x3b020891	0.0019841532

bias f4 [40]
0	0xbd9d9524	-0.07694462
1	0x3e4ed371	0.20197846
2	0x3d7fe96c	0.062478468
3	0xbe46ed48	-0.19426453
4	0xbe27936a	-0.16364828
5	0xbe4dd660	-0.20101309
6	0x3d0811d4	0.033220127
7	0xbd49cf95	-0.04927023
8	0x3d80a533	0.06281509
9	0xbd891af3	-0.06694593
10	0x3e03f3b5	0.12885936
11	0xbe78bf7a	-0.24291793
12	0xbd995acb	-0.074880205
13	0x3cb2fba4	0.021848507
14	0x3dbf8ee9	0.0935343
15	0x3d7572e0	0.059924006
16	0xbd9d846f	-0.07691275
17	0xbd356aa3	-0.04429115
18	0xbd69d2f5	-0.05708595
19	0xbd14677d	-0.036231507
20	0x3c92323e	0.017846223
21	0x3ced1c52	0.028944168
22	0x3b79f74a	0.003814178
23	0xbd3b8009	-0.0457764
24	0xbc9346fd	-0.017978186
25	0xbd6185ca	-0.05505923
26	0xbcb03c47	-0.021513117
27	0x3d2dc8e2	0.042427905
28	0xbcfeabc3	-0.031087762
29	0xbb9cb1ab	-0.004781922
30	0xbce5f7f8	-0.028072342
31	0x3c85d7cd	0.016338253
32	0x3deca036	0.11553995
33	0x383f527a	4.561476e-05
34	0x345ecafc	2.0749206e-07
35	0x3d25563c	0.040365443
36	0x3e28fba6	0.16502246
37	0xbc198cf4	-0.009371985
38	0x3b561e3a	0.0032671825
39	0xbb6c74e1	-0.0036080407
