seq2seq_ATT/24_12_Seq2Seq_att_model.pkl (torch, 211601 bytes, 29 tensors)

weight_ih_l0 f4 [128, 6]
000000 a0 df 55 31 3d b3 4d b1 9f 4c 2d 32 09 1b 6b 31
       3.1122696e-09 -2.9933311e-09 1.0087347e-08 3.4212368e-09
000010 72 c5 af 2f 92 ce d4 2f c2 30 9c b1 47 25 b0 b2
       3.1972608e-10 3.8709352e-10 -4.5457407e-09 -2.0506048e-08
000020 0b bb 3f 32 64 1e 3b 32 17 46 08 31 f6 fc cf b1
       1.1160192e-08 1.0891743e-08 1.9830446e-09 -6.0532512e-09
000030 14 5f 58 b9 38 ed 27 b9 05 a0 0f 39 9e ad 5d b9
       -0.00020634785 -0.00016014732 0.00013697155 -0.0002114088
000040 a2 2a 1c 38 6c 6e d6 b8 70 b6 5d b8 05 ab 3b 35
       3.7233003e-05 -0.00010224883 -5.2860414e-05 6.9911795e-07
000050 20 06 f0 b6 d5 66 86 36 7f 09 a8 b5 b4 82 5a 36
       -7.1532704e-06 4.0054824e-06 -1.2519739e-06 3.256061e-06
000060 c5 f8 e4 2f f6 fd 58 b0 80 e4 27 31 76 82 a4 b0
       4.164972e-10 -7.894124e-10 2.4431586e-09 -1.196965e-09
000070 72 4d 78 30 d4 c4 86 2f 16 3f ca 2d 42 a2 3c ae
       9.033193e-10 2.4514313e-10 2.2992757e-11 -4.2890365e-11
000080 68 40 31 ae 8c 15 85 2c 00 b4 88 2b b0 22 98 2a
       -4.0302345e-11 3.7824795e-12 9.713341e-13 2.7024693e-13
000090 40 1f 7a b1 79 37 a0 b1 ce 42 41 31 1d 91 2a b1
       -3.6397552e-09 -4.6629194e-09 2.812317e-09 -2.4820743e-09
0000a0 6d c8 21 b0 91 0a 23 30 df 17 00 31 ac 3f 08 b1
       -5.885628e-10 5.931407e-10 1.864002e-09 -1.9826798e-09
0000b0 bf bf 35 30 de 09 6d 30 94 e4 4f 2d d0 f8 34 b0
       6.6119904e-10 8.623412e-10 1.1817342e-11 -6.58372e-10
0000c0 c8 96 5b b7 ba db dd b8 ce 7b 54 39 20 5e 48 b9
       -1.3088524e-05 -0.000105790285 0.00020264016 -0.0001910855
0000d0 1b bb 0e b8 c7 3d ae b7 78 eb e2 3c da cf 8a 3b
       -3.4029694e-05 -2.0771184e-05 0.02770017 0.0042362036
0000e0 6a 93 de bc 72 ef bb 3d fe c0 82 3c a5 ed 12 3c
       -0.027169902 0.0917653 0.015961166 0.008967792
0000f0 35 28 e6 38 da f8 9e 39 fd 72 4c b9 0c 08 0a 38
       0.00010974744 0.00030321517 -0.00019497793 3.2909258e-05
000100 c5 4c 0e 38 cb 1e ed b7 8c 46 08 32 00 ec 26 33
       3.3926935e-05 -2.826694e-05 7.932282e-09 3.8864528e-08
000110 80 fd e3 b2 98 0d 08 33 f0 2d cc b1 37 86 d4 b3
       -2.6541557e-08 3.167733e-08 -5.942404e-09 -9.896433e-08
000120 60 fa f5 b3 d4 c7 49 36 ba 69 cb 35 39 4e 02 b7
       -1.14542445e-07 3.006765e-06 1.5155449e-06 -7.766816e-06
000130 6e b9 19 b6 88 e0 87 b6 0c 17 0b b2 fc 52 01 b1
       -2.290671e-06 -4.0494524e-06 -8.096105e-09 -1.8819142e-09
000140 44 ee f2 31 dc 9a 29 b2 00 d8 9a 2d ab e2 1e b1
       7.0702146e-09 -9.872306e-09 1.7603696e-11 -2.3120872e-09
000150 cd 45 a3 2c 42 3b a5 ae 4e 3d 9f 2e 4c 8e 60 ae
       4.640488e-12 -7.5138576e-11 7.241373e-11 -5.105809e-11
000160 98 cf be ab 41 75 cb 2c e8 52 ba bc d2 98 b1 bc
       -1.3557931e-12 5.782625e-12 -0.02274461 -0.021679316
000170 84 7a 1f bb b6 39 ce 3c 1d 60 08 3b c8 8a 24 3b
       -0.00243345 0.025174003 0.002080924 0.0025107134
000180 53 2c 68 34 80 95 dd b1 a4 9b 9c 34 16 f8 ee b4
       2.1622809e-07 -6.4489427e-09 2.9170508e-07 -4.451146e-07
000190 73 b8 85 b3 12 97 f4 32 b1 88 f1 39 b8 f3 67 39
       -6.226846e-08 2.8474037e-08 0.00046068945 0.00022120669
0001a0 28 9e e1 38 60 8f fa b7 4a 68 cc 38 af ff cd b8
       0.00010758295 -2.9869087e-05 9.7469034e-05 -9.8227865e-05
0001b0 1c 3d 3d ae 0e d4 07 ae b6 50 1b 2e 6d 7f 0d ae
       -4.30279e-11 -3.088379e-11 3.5314605e-11 -3.2172865e-11
0001c0 10 dd 6c ac a9 26 be 2c 2a 0c 3e 39 3a 7b dd 38
       -3.3660331e-12 5.404417e-12 0.00018124343 0.00010561054
0001d0 01 9a 8c b8 70 04 70 38 9b 2f c0 37 d4 a2 3c b7
       -6.704406e-05 5.722459e-05 2.2910352e-05 -1.1243585e-05
0001e0 84 89 ab b5 4e 8f 11 35 88 36 28 37 a5 59 19 b7
       -1.2780515e-06 5.4225245e-07 1.0026277e-05 -9.140383e-06
0001f0 50 0a be b5 14 7d dc 34 9d 39 a9 39 40 02 29 b8
       -1.4159104e-06 4.10692e-07 0.00032277117 -4.0294835e-05
000200 ba c1 0b 39 a3 f5 fc b8 4a 11 d2 b6 a0 02 c2 36
       0.00013328242 -0.0001206205 -6.2605004e-06 5.781956e-06
000210 59 2e d2 34 48 61 c2 33 78 3f 79 35 f9 38 cd b5
       3.914927e-07 9.051524e-08 9.285209e-07 -1.5290271e-06
000220 d6 ec 8f b4 b2 b3 8f b4 bb 6a 7a bd 4a 75 c0 3c
       -2.6808146e-07 -2.676657e-07 -0.061136942 0.023493428
000230 af 9d dc bd 09 4e 40 3e 75 03 ae 3c e1 35 f5 3c
       -0.10772263 0.18779768 0.021241883 0.029932918
000240 47 47 b0 b8 65 4c 3f b8 b5 ed 52 38 86 cb 06 b8
       -8.4056104e-05 -4.5609097e-05 5.0289284e-05 -3.2137636e-05
000250 f3 89 25 b7 65 51 2f b7 50 40 0b 32 64 58 2b b3
       -9.866885e-06 -1.0449764e-05 8.105488e-09 -3.989443e-08
000260 5d 77 8f 32 d0 8e 83 32 33 cd 36 31 de 3e 5a b0
       1.6701671e-08 1.531535e-08 2.6601128e-09 -7.939728e-10
000270 98 07 8a bd 68 90 90 3b 9c 3a 07 be 82 14 91 3e
       -0.0673973 0.004411746 -0.13205951 0.2833596
000280 c0 e7 35 3d bb 1b 1b 3d 12 11 3b b5 b1 fc c6 35
       0.044410467 0.037868243 -6.968777e-07 1.4825692e-06
000290 1e ee ab b5 46 96 84 35 f8 e6 04 35 eb 05 b1 b4
       -1.2809794e-06 9.878502e-07 4.9509936e-07 -3.2973125e-07
0002a0 34 8e ac bd b4 f5 76 bc b8 19 d6 bd 6f 90 6e 3e
       -0.084255606 -0.015073229 -0.10454124 0.23297285
0002b0 64 3c 01 3d 75 0a 00 3d f0 d7 84 2e 46 00 84 af
       0.031551734 0.031259973 6.041023e-11 -2.4010854e-10
0002c0 b0 57 ee 2f 14 13 18 b0 1c ed a9 ae 0b 39 48 2e
       4.3354254e-10 -5.532439e-10 -7.727349e-11 4.55254e-11
0002d0 0b 35 8a 2f 14 de c5 b0 65 15 d0 30 05 af ab b0
       2.5139743e-10 -1.4396755e-09 1.5140073e-09 -1.2491631e-09
0002e0 6e 1e a5 af 6d d5 be af 2c f5 07 37 d4 51 a1 36
       -3.0034947e-10 -3.4712447e-10 8.103711e-06 4.8077e-06
0002f0 ea d0 df b6 46 a3 38 37 e6 84 35 36 4e 27 ea 35
       -6.6702387e-06 1.100527e-05 2.7048459e-06 1.7445798e-06
000300 b8 06 93 30 91 34 a2 b1 ac ab 0a 2f fc 16 e7 b1
       1.0697567e-09 -4.7207966e-09 1.2612017e-10 -6.725598e-09
000310 4c 31 6e b0 ab 4b 9e b0 df e8 3e b2 f2 60 0b b2
       -8.665395e-10 -1.1517519e-09 -1.1112404e-08 -8.112908e-09
000320 d6 96 fe 32 3e 98 a6 b2 e1 f0 69 b1 40 f9 ea 2f
       2.9638084e-08 -1.9394175e-08 -3.4042886e-09 4.2741455e-10
000330 88 95 31 39 59 13 8a 38 bc f1 9b b9 82 03 86 b8
       0.0001693574 6.5839566e-05 -0.0002974401 -6.390271e-05
000340 ce 4f 34 b8 6b 5e 8c b8 a6 75 00 38 be ab 2e b7
       -4.2989668e-05 -6.693307e-05 3.0627147e-05 -1.0411195e-05
000350 89 61 7b b6 cd 4f 38 37 e0 09 c7 b4 5f 72 c8 b6
       -3.7458688e-06 1.0985835e-05 -3.7073823e-07 -5.973779e-06
000360 64 4b cd 2f d4 83 59 b0 86 85 20 af 84 b2 dd 2f
       3.734285e-10 -7.913148e-10 -1.4599352e-10 4.032651e-10
000370 26 67 84 af 92 6e 8e af 16 f0 54 ac 4e 1c c8 ad
       -2.4083951e-10 -2.5908214e-10 -3.0260286e-12 -2.2749937e-11
000380 40 97 37 ae 7a 4f 27 ad 60 72 0c 2d ec d8 f2 2c
       -4.174372e-11 -9.510498e-12 7.983475e-12 6.902137e-12
000390 89 10 8b b1 fc 74 5e b1 d7 7a 50 31 e6 c0 a2 b0
       -4.0473123e-09 -3.237175e-09 3.033781e-09 -1.1841876e-09
0003a0 a5 ab 0e 2f 2a a2 04 af 19 a7 26 30 60 a4 cf b0
       1.2975805e-10 -1.2062942e-10 6.062791e-10 -1.510795e-09
0003b0 94 e3 1a 31 85 36 87 af 88 60 16 af c4 9a 19 ad
       2.2539313e-09 -2.4595095e-10 -1.3676715e-10 -8.731408e-12
0003c0 be 98 66 39 58 5f 00 39 00 77 89 34 54 a0 1b b8
       0.0002199141 0.0001224255 2.5604822e-07 -3.7104197e-05
0003d0 40 b2 bf b4 89 61 08 b6 c3 be a7 3c dc 9c 5b 3b
       -3.5706216e-07 -2.0322352e-06 0.020476704 0.0033510244
0003e0 30 83 7c bc 27 23 65 3d 41 c3 4e 3c c8 c2 c4 3b
       -0.015412137 0.055941727 0.012619794 0.006004665
0003f0 17 f2 bd 39 0c 80 c2 39 91 a5 b4 b9 04 ea a3 39
       0.0003622926 0.00037097966 -0.00034455632 0.00031264138

weight_hh_l0 f4 [128, 32]
000000 14 ad d8 2b 3b 71 82 31 10 7d 71 33 96 34 d1 b4
       1.5395762e-12 3.7963708e-09 5.622593e-08 -3.8967545e-07
000010 a8 15 53 29 4a 85 be b1 48 8c fa 32 bd 1b cb aa
       4.6870195e-14 -5.544881e-09 2.9167623e-08 -3.607929e-13
000020 b3 76 57 2e 18 11 b1 b0 18 66 97 af 57 bc 64 32
       4.8990766e-11 -1.2883303e-09 -2.7539282e-10 1.331417e-08
000030 e0 bf fa 2d 70 90 48 b2 52 13 8b 29 80 41 e2 30
       2.8506919e-11 -1.16743735e-08 6.1761916e-14 1.646228e-09
000040 26 a8 95 33 4e bd bc 34 12 43 1e b1 69 46 5b ae
       6.968939e-08 3.5155466e-07 -2.3030151e-09 -4.985737e-11
000050 2d ba a5 b2 8f 04 be af f1 58 42 ac 15 49 f8 2f
       -1.9293191e-08 -3.4564038e-10 -2.761843e-12 4.5162865e-10
000060 26 b4 8f b6 7e 14 09 ac 38 5c e8 ae 6b 88 c2 ad
       -4.282704e-06 -1.9480246e-12 -1.056652e-10 -2.2115828e-11
000070 9d e5 ee 30 b0 b3 ce 30 52 65 0a 36 0e 3b be b3
       1.7382039e-09 1.5039543e-09 2.0622579e-06 -8.8583064e-08
000080 92 2b c3 b1 f8 78 9b aa ed e1 9d 31 c5 b0 85 38
       -5.6802003e-09 -2.761747e-13 4.594986e-09 6.37486e-05
000090 9f 90 58 b3 a0 aa de b0 14 e2 1d b0 cc 07 74 b1
       -5.042295e-08 -1.620112e-09 -5.7437544e-10 -3.5511105e-09
0000a0 8c 19 6c 33 10 5a 07 af fd 5b 4e b3 07 3b 26 b8
       5.4971267e-08 -1.2310175e-10 -4.8046775e-08 -3.9632458e-05
0000b0 ad 53 82 35 b0 db f4 36 24 87 de b5 6c 99 1d 31
       9.710108e-07 7.2973417e-06 -1.657962e-06 2.2933717e-09
0000c0 c1 c7 6c 2b 60 71 79 35 68 f0 c8 b4 ee 27 cb b7
       8.4121257e-13 9.292471e-07 -3.7427822e-07 -2.421808e-05
0000d0 d9 57 94 2d 2d cc 13 b6 24 5b 0b ad bc 9b da b0
       1.6864664e-11 -2.2023553e-06 -7.9214725e-12 -1.590585e-09
0000e0 0e 53 84 34 9c 9e 0a b1 46 c9 d5 b0 9a 5d f1 30
       2.4647346e-07 -2.0171802e-09 -1.5554995e-09 1.7561661e-09
0000f0 80 99 0a ae 40 bc a0 ae 38 3d fd 2e 4c bf 34 2e
       -3.1513903e-11 -7.3093975e-11 1.15159826e-10 4.1097167e-11
000100 bf 77 0a 38 10 4e 0b 34 42 41 d9 b6 4e 36 90 35
       3.3013286e-05 1.2973783e-07 -6.474701e-06 1.0744641e-06
000110 62 aa 4e 36 6e 15 45 31 25 1e 16 33 bd de 33 b5
       3.0795568e-06 2.8679454e-09 3.4952013e-08 -6.7006823e-07
000120 a6 45 25 35 12 27 58 37 8e 1d 11 35 b6 bd 11 36
       6.156864e-07 1.28837e-05 5.4059717e-07 2.171711e-06
000130 b0 44 a7 b5 66 4e 82 37 0c 1f 91 35 f4 b4 3e b6
       -1.246246e-06 1.5533715e-05 1.0812378e-06 -2.8417535e-06
000140 00 70 cc 31 5a 51 97 b5 1e c9 9e b0 04 af 45 b6
       5.9499143e-09 -1.1274053e-06 -1.1553174e-09 -2.945716e-06
000150 2f e8 e3 35 52 fb 0c 36 22 d7 2f 35 7a ff 89 38
       1.6980392e-06 2.1007913e-06 6.550564e-07 6.580255e-05
000160 12 fa 15 b5 0c 16 bf 33 0f 43 29 b8 54 f7 fe b3
       -5.5870726e-07 8.898141e-08 -4.0355193e-05 -1.18727854e-07
000170 23 db b7 36 68 64 7e 31 8c 9a 07 b3 c2 4c f8 b4
       5.479336e-06 3.701894e-09 -3.1572696e-08 -4.6249448e-07
000180 f7 f2 de b4 1e cb 43 b4 18 67 79 b4 2c c9 12 b4
       -4.1527503e-07 -1.8234684e-07 -2.3227437e-07 -1.3670495e-07
000190 e8 64 87 b5 a8 b2 95 af 00 99 4b b5 9c fe 05 36
       -1.0087651e-06 -2.7229885e-10 -7.584604e-07 1.9966747e-06
0001a0 1d 72 4c b4 e8 bc fb 34 de 78 1c 34 fb 30 4c b7
       -1.9040495e-07 4.688984e-07 1.4572603e-07 -1.2170752e-05
0001b0 40 35 61 32 8e 25 f7 b7 fa 80 90 37 33 6e 5d 36
       1.3108831e-08 -2.9462182e-05 1.7226197e-05 3.299571e-06
0001c0 2b 27 50 b8 cc cd 57 34 12 2a d7 b8 00 70 f0 b0
       -4.9627542e-05 2.0098304e-07 -0.00010259835 -1.7494131e-09
0001d0 36 7b 78 b4 ea 36 cf b4 a0 1a d7 32 fc 06 a7 36
       -2.3141624e-07 -3.859671e-07 2.5041402e-08 4.977801e-06
0001e0 3d 74 89 b5 1c 2b 98 31 b9 49 dc b5 0c eb 2b 34
       -1.0241125e-06 4.428683e-09 -1.6412733e-06 1.6011126e-07
0001f0 6a 63 9e 36 28 a6 7f 35 cd 20 d0 33 ae db b3 34
       4.7203403e-06 9.523669e-07 9.691721e-08 3.3501186e-07
000200 27 b5 2f ab c8 0c f9 33 f0 c7 d7 30 84 dc 2f b6
       -6.242389e-13 1.1597291e-07 1.5700135e-09 -2.620539e-06
000210 bc a0 c0 2a ca fb 15 28 e0 57 8f b5 d2 c1 86 a9
       3.4217583e-13 8.32576e-15 -1.0679905e-06 -5.984418e-14
000220 87 45 89 b2 af cb 16 af c0 c6 11 2d 94 0f 83 2b
       -1.5980516e-08 -1.3714783e-10 8.286427e-12 9.312434e-13
000230 7a 8f 1a 37 63 b4 25 38 38 cc bf 28 20 2b 94 ae
       9.212521e-06 3.9507064e-05 2.1293826e-14 -6.737921e-11
000240 ad 9d 24 b3 a6 af 2a b2 ec 88 f3 b0 c5 aa fc ae
       -3.832763e-08 -9.93524e-09 -1.7719493e-09 -1.1489968e-10
000250 58 d4 a0 32 3a 00 8e b3 30 89 5c ad 99 a9 1c b0
       1.8723014e-08 -6.6124315e-08 -1.2536014e-11 -5.699348e-10
000260 25 b8 27 ae 54 79 c5 a9 e2 57 d5 ae b2 23 cf 34
       -3.8134957e-11 -8.7696045e-14 -9.70173e-11 3.8582726e-07
000270 b8 33 74 2e 95 88 6a 31 0a 20 13 b4 0d 2e 07 b7
       5.5525112e-11 3.412912e-09 -1.3702098e-07 -8.057349e-06
000280 ec b1 d0 b0 78 c9 c0 b1 b0 1c 0e 2e 7f ac 5a 37
       -1.518456e-09 -5.61084e-09 3.231254e-11 1.3033975e-05
000290 59 66 d8 35 c0 6e b1 a3 ec 66 ea 30 1b 9e 62 30
       1.6123041e-06 -1.9237283e-17 1.7054993e-09 8.2443e-10
0002a0 45 a6 b1 b6 41 40 14 ad f6 43 1c b1 9e 7e 00 b4
       -5.2943674e-06 -8.427093e-12 -2.273962e-09 -1.1966992e-07
0002b0 fa 99 35 33 78 1c 9c 30 78 e5 da af 37 45 93 2d
       4.2282387e-08 1.1358585e-09 -3.9817016e-10 1.6742703e-11
0002c0 9c ac b6 b0 b4 6b 06 b5 34 f1 89 b2 be a5 76 37
       -1.3291301e-09 -5.007562e-07 -1.6058586e-08 1.47013325e-05
0002d0 c4 6a 08 b2 44 e9 8e b2 ec 59 b1 b6 a0 f8 24 2c
       -7.940518e-09 -1.6637053e-08 -5.2854793e-06 2.3443816e-12
0002e0 6a e8 16 35 90 dd 55 30 2a e3 85 2d 94 d2 15 36
       5.621756e-07 7.780381e-10 1.522123e-11 2.2325303e-06
0002f0 f4 31 ef ac ab 89 05 b5 b2 11 0a 32 a0 c2 63 b2
       -6.7983345e-12 -4.9746694e-07 8.036681e-09 -1.3257392e-08
000300 8e 8d 0e 38 54 7e 44 33 a0 19 99 ae 10 67 ad b4
       3.398727e-05 4.57497e-08 -6.9621864e-11 -3.229875e-07
000310 c2 9e 24 b6 bc e5 21 b3 e0 a3 1f 29 08 cd 39 b3
       -2.4530314e-06 -3.7694676e-08 3.544723e-14 -4.3260144e-08
000320 86 0e 94 ae 60 ef 54 2e 01 94 44 30 a0 2e 1c 32
       -6.732841e-11 4.8415827e-11 7.151471e-10 9.090996e-09
000330 79 e4 e0 b0 b8 de 32 2b 36 19 52 b1 c8 02 b0 ae
       -1.6363081e-09 6.354739e-13 -3.0573353e-09 -8.0040474e-11
000340 6e 0e 9c 30 16 92 76 b6 ec f1 10 28 b4 9f e7 2d
       1.1354595e-09 -3.674189e-06 8.046064e-15 2.6332582e-11
000350 58 a8 95 b1 63 2f 28 ae 9e 9f 86 31 2b 30 f8 2e
       -4.355609e-09 -3.8240865e-11 3.9180597e-09 1.12862907e-10
000360 9c 6c 39 af fc a4 d1 b0 50 60 e8 2e 54 ef 46 ac
       -1.6864238e-10 -1.5253643e-09 1.0567247e-10 -2.8270346e-12
000370 3a f1 b8 af 4e 51 97 29 30 37 2e 2f 68 16 39 ad
       -3.3640807e-10 6.719851e-14 1.5844814e-10 -1.0521008e-11
000380 22 03 c2 a9 42 25 1e b1 8c 20 08 b5 4c 56 f4 34
       -8.615874e-14 -2.3013205e-09 -5.071131e-07 4.551133e-07
000390 ee 65 a9 2a ca 1d c7 2f 20 9d 11 35 5c 2e 9e aa
       3.0091159e-13 3.6219056e-10 5.4245356e-07 -2.8098606e-13
0003a0 1c 9c 30 33 0b 54 d0 af 6e d4 d7 ac 56 95 0b 32
       4.1120174e-08 -3.7894696e-10 -6.134252e-12 8.12482e-09
0003b0 2e 5f a5 ab 8c 5e 79 2b 92 fa ba a8 b8 5c d1 2e
       -1.1750373e-12 8.859378e-13 -2.0758816e-14 9.52069e-11
0003c0 7a 58 97 ad c0 0c 22 35 14 aa 11 b6 1e 45 22 2d
       -1.7206004e-11 6.0368257e-07 -2.1705682e-06 9.223981e-12
0003d0 29 79 8b 37 50 76 f6 ac d2 09 49 2d fe f4 a3 af
       1.662651e-05 -7.004876e-12 1.1427708e-11 -2.9823605e-10
0003e0 5e b5 d2 2c 1f 3b 29 ab 09 29 43 30 7e 7f 62 b7
       5.9886948e-12 -6.012291e-13 7.09989e-10 -1.3500334e-05
0003f0 5d 40 d4 2f d5 43 86 b7 42 e6 89 31 8b d6 f3 34
       3.8608308e-10 -1.6005632e-05 4.013402e-09 4.5418378e-07

bias_ih_l0 f4 [128]
000000 26 d3 ee b0 ec 4e 62 b1 9e 28 8a 38 e0 17 ff 34
       -1.7376791e-09 -3.293219e-09 6.587918e-05 4.7514823e-07
000010 3c 6b 4a 30 4f 09 05 2c fb 6d 59 31 84 78 18 b0
       7.363956e-10 1.8905604e-12 3.1640173e-09 -5.546854e-10
000020 53 53 45 38 62 3e c1 3c 35 f0 87 b8 38 7f 22 33
       4.704606e-05 0.023589317 -6.482044e-05 3.783427e-08
000030 cb a8 e5 b6 cd fa 6a 31 16 1c 2d ad 0b 78 19 3c
       -6.844382e-06 3.4194045e-09 -9.840148e-12 0.009366999
000040 3a 03 9e 33 c0 6d ce 37 6c 7e 9a 2d 27 d6 11 b8
       7.358035e-08 2.460822e-05 1.7563916e-11 -3.477014e-05
000050 fc f6 11 b6 f8 3f d2 b7 41 2a 2f 35 07 1d 67 3d
       -2.1750448e-06 -2.5063739e-05 6.525407e-07 0.056424167
000060 74 68 0e 38 fb 97 4f b1 c9 ad c5 3d 34 71 aa 34
       3.3952718e-05 -3.0208855e-09 0.096522875 3.1747334e-07
000070 a1 6e 8c 3d 4b 5a 1e 2f 6a 72 4e 30 ca 98 f8 b6
       0.06857038 1.4402095e-10 7.5104956e-10 -7.408763e-06
000080 5e 59 ab af a4 53 01 b2 bc ef ee 38 4b 1d 7a 37
       -3.1168218e-10 -7.527806e-09 0.000113933784 1.49079815e-05
000090 ee f3 45 30 c4 e6 98 2d ef 66 17 30 5c 96 9f 2e
       7.201483e-10 1.738288e-11 5.507976e-10 7.257192e-11
0000a0 3d 61 ad b7 8a a9 89 3c ec a8 e9 b8 56 48 7a b4
       -2.0668487e-05 0.016804475 -0.0001114177 -2.330938e-07
0000b0 b0 a5 b1 b5 e9 fe 22 b1 01 2a 7c ad 15 79 a9 3b
       -1.3235749e-06 -2.3719002e-09 -1.4333868e-11 0.005171905
0000c0 60 76 ef 31 f4 83 80 b9 65 e0 ac 2c 24 d2 f1 b7
       6.969273e-09 -0.00024512375 4.913447e-12 -2.8827293e-05
0000d0 94 b0 50 b6 fa 3f ad b7 bf d7 80 b4 1e 6a 65 3d
       -3.1097197e-06 -2.0652999e-05 -2.3998834e-07 0.056009404
0000e0 80 b5 90 34 17 a7 1b 32 74 b3 c9 3d 4e 99 12 b5
       2.695415e-07 9.060179e-09 0.09848681 -5.4612326e-07
0000f0 ab 2c 8e 3d c6 e9 37 2f 03 c8 03 30 de e2 b7 b6
       0.069421135 1.6726806e-10 4.7941756e-10 -5.480236e-06
000100 1c a5 00 37 71 0b cc 36 17 bc 37 ba 49 c0 ad b9
       7.667837e-06 6.0810057e-06 -0.00070089236 -0.00033140395
000110 2d b8 82 b6 a5 b8 3b 35 11 86 91 b6 58 9d 7f 35
       -3.895743e-06 6.993162e-07 -4.336944e-06 9.522387e-07
000120 ce a0 fb b9 11 29 81 3c 5b b4 02 ba 9a e4 15 b7
       -0.0004799426 0.015766652 -0.00049859815 -8.9343175e-06
000130 4b ed f2 b8 f8 a9 88 b6 a8 cb e1 34 11 a3 12 3b
       -0.000115836585 -4.072903e-06 4.2057695e-07 0.0022375027
000140 90 d9 b1 b4 ee 71 3c b9 54 53 a7 b4 9c 1b 8a 39
       -3.3127117e-07 -0.00017971519 -3.1166803e-07 0.00026341982
000150 3d c6 a9 b8 8e 07 0e 3a d0 9e 1e b6 a7 fc 04 3e
       -8.095473e-05 0.0005417996 -2.3636276e-06 0.12987004
000160 3c dd 9a b9 d7 5e 4d b7 d4 64 e4 bd 23 99 01 b8
       -0.00029538 -1.2241034e-05 -0.11152044 -3.0898616e-05
000170 ff e8 52 bd 88 2d 1a 36 56 2f d9 b5 28 f0 96 36
       -0.051491734 2.297429e-06 -1.6181536e-06 4.498306e-06
000180 89 04 df b0 a2 5c 61 b1 9a 87 85 38 d0 02 6f 35
       -1.6226674e-09 -3.2794465e-09 6.367192e-05 8.903853e-07
000190 d7 c3 3f 30 c0 1a 5f 2b 00 b6 59 31 71 13 1e b0
       6.97637e-10 7.926264e-13 3.168111e-09 -5.7507693e-10
0001a0 4d db 46 38 7b 98 c7 3c f8 70 84 b8 2c 64 26 33
       4.741112e-05 0.0243647 -6.3152926e-05 3.8740993e-08
0001b0 1c c8 e5 b6 66 9e 6d 31 1c 5c 2c ad 5f 77 2c 3c
       -6.8480276e-06 3.4578078e-09 -9.7975204e-12 0.010526507
0001c0 fc cf 9c 33 f8 bd d8 37 64 b6 9c 2d da 38 12 b8
       7.302148e-08 2.5837668e-05 1.7816144e-11 -3.486206e-05
0001d0 ba 61 11 b6 3a e5 d2 b7 d6 71 2f 35 46 0a 75 3d
       -2.1663568e-06 -2.5140693e-05 6.5358233e-07 0.05982425
0001e0 77 cf 0c 38 40 7e 58 b1 b0 b5 d2 3d a4 c1 aa 34
       3.3571818e-05 -3.1503902e-09 0.102885604 3.180586e-07
0001f0 1c d2 a0 3d e8 14 1f 2f e7 d0 4d 30 1e 53 f8 b6
       0.07852575 1.4468393e-10 7.4875434e-10 -7.400652e-06

bias_hh_l0 f4 [128]
000000 ac d2 ee b0 fc 4e 62 b1 a4 28 8a 38 20 11 ff 34
       -1.7376656e-09 -3.2932226e-09 6.587923e-05 4.750991e-07
000010 dd 6a 4a 30 5e 09 05 2c f2 6d 59 31 8f 78 18 b0
       7.3639034e-10 1.8905637e-12 3.1640153e-09 -5.54686e-10
000020 52 53 45 38 61 3e c1 3c 2e f0 87 b8 24 7f 22 33
       4.7046058e-05 0.023589315 -6.4820386e-05 3.7834198e-08
000030 ca a8 e5 b6 d2 fa 6a 31 2e 1c 2d ad 0c 78 19 3c
       -6.8443815e-06 3.4194056e-09 -9.840169e-12 0.009367
000040 38 03 9e 33 28 6e ce 37 6e 7e 9a 2d 22 d6 11 b8
       7.358034e-08 2.460841e-05 1.7563919e-11 -3.477012e-05
000050 f4 f6 11 b6 ec 3f d2 b7 47 2a 2f 35 06 1d 67 3d
       -2.175043e-06 -2.5063717e-05 6.52541e-07 0.056424163
000060 76 68 0e 38 da 97 4f b1 c9 ad c5 3d 39 71 aa 34
       3.3952725e-05 -3.0208782e-09 0.096522875 3.1747348e-07
000070 a2 6e 8c 3d 50 5a 1e 2f 69 72 4e 30 be 98 f8 b6
       0.06857039 1.4402102e-10 7.510495e-10 -7.4087575e-06
000080 b2 59 ab af aa 53 01 b2 bd ef ee 38 49 1d 7a 37
       -3.116845e-10 -7.527811e-09 0.00011393379 1.490798e-05
000090 02 f4 45 30 c6 e6 98 2d f5 66 17 30 74 95 9f 2e
       7.201494e-10 1.7382883e-11 5.507979e-10 7.257031e-11
0000a0 4e 61 ad b7 8b a9 89 3c ed a8 e9 b8 60 48 7a b4
       -2.0668518e-05 0.016804477 -0.00011141771 -2.3309394e-07
0000b0 c8 a5 b1 b5 d7 fe 22 b1 00 2a 7c ad 17 79 a9 3b
       -1.3235776e-06 -2.3718962e-09 -1.4333867e-11 0.0051719057
0000c0 40 77 ef 31 ec 83 80 b9 5e e0 ac 2c 29 d2 f1 b7
       6.9693726e-09 -0.00024512352 4.913444e-12 -2.8827302e-05
0000d0 93 b0 50 b6 ec 3f ad b7 b9 d7 80 b4 1e 6a 65 3d
       -3.1097195e-06 -2.0652973e-05 -2.3998817e-07 0.056009404
0000e0 40 b6 90 34 17 a7 1b 32 72 b3 c9 3d 4f 99 12 b5
       2.6954694e-07 9.060179e-09 0.098486796 -5.461233e-07
0000f0 ac 2c 8e 3d ca e9 37 2f fc c7 03 30 de e2 b7 b6
       0.06942114 1.6726812e-10 4.794172e-10 -5.480236e-06
000100 16 a5 00 37 78 0b cc 36 15 bc 37 ba 4a c0 ad b9
       7.667832e-06 6.081009e-06 -0.00070089224 -0.00033140398
000110 2a b8 82 b6 a1 b8 3b 35 03 86 91 b6 6b 9d 7f 35
       -3.8957414e-06 6.99316e-07 -4.3369378e-06 9.5223976e-07
000120 cd a0 fb b9 06 29 81 3c 96 b4 02 ba 90 e4 15 b7
       -0.00047994257 0.015766632 -0.0004986016 -8.934308e-06
000130 04 ed f2 b8 23 aa 88 b6 a6 cb e1 34 1d a3 12 3b
       -0.00011583607 -4.0729224e-06 4.205769e-07 0.0022375055
000140 50 d6 b1 b4 b8 71 3c b9 5c 53 a7 b4 dc 1b 8a 39
       -3.3124752e-07 -0.0001797144 -3.1166826e-07 0.00026342168
000150 31 c6 a9 b8 a4 07 0e 3a 8c a0 1e b6 b6 00 05 3e
       -8.095464e-05 0.00054180087 -2.3637285e-06 0.12988552
000160 39 dd 9a b9 d9 5e 4d b7 48 65 e4 bd 13 99 01 b8
       -0.00029537993 -1.2241036e-05 -0.1115213 -3.0898558e-05
000170 a7 dd 53 bd 82 2d 1a 36 3a 2f d9 b5 c8 ea 96 36
       -0.051725056 2.2974277e-06 -1.6181505e-06 4.4976805e-06
000180 34 04 df b0 ac 5c 61 b1 94 87 85 38 f0 01 6f 35
       -1.622658e-09 -3.2794487e-09 6.3671876e-05 8.903726e-07
000190 d2 c3 3f 30 b8 1a 5f 2b fd b5 59 31 72 13 1e b0
       6.976367e-10 7.9262595e-13 3.1681104e-09 -5.75077e-10
0001a0 4a db 46 38 7d 98 c7 3c fb 70 84 b8 0c 64 26 33
       4.7411108e-05 0.024364704 -6.315295e-05 3.874088e-08
0001b0 1c c8 e5 b6 65 9e 6d 31 04 5c 2c ad 58 77 2c 3c
       -6.8480276e-06 3.4578076e-09 -9.7975e-12 0.010526501
0001c0 02 d0 9c 33 d0 bd d8 37 63 b6 9c 2d e0 38 12 b8
       7.3021525e-08 2.5837595e-05 1.7816143e-11 -3.486208e-05
0001d0 b8 61 11 b6 5a e5 d2 b7 cf 71 2f 35 47 0a 75 3d
       -2.1663564e-06 -2.5140751e-05 6.5358194e-07 0.059824254
0001e0 74 cf 0c 38 54 7e 58 b1 b1 b5 d2 3d aa c1 aa 34
       3.3571807e-05 -3.1503946e-09 0.10288561 3.1805877e-07
0001f0 1c d2 a0 3d e6 14 1f 2f eb d0 4d 30 20 53 f8 b6
       0.07852575 1.446839e-10 7.4875456e-10 -7.400653e-06

weight_ih_l1 f4 [128, 32]
000000 ca 34 3c 35 69 d4 94 35 0c aa 0b 38 c9 eb c2 b7
       7.0112276e-07 1.1088679e-06 3.329855e-05 -2.3236398e-05
000010 b6 5f c9 b4 bd 65 9f 32 46 cf f5 b4 22 85 28 35
       -3.7508806e-07 1.8556301e-08 -4.5785617e-07 6.277861e-07
000020 09 e8 74 b8 56 c3 f3 39 1a 26 55 b8 dd 33 c1 35
       -5.8390233e-05 0.00046494108 -5.0818642e-05 1.4394715e-06
000030 22 a8 15 b7 dc 50 19 b5 a4 0c 48 33 96 41 26 ba
       -8.9202385e-06 -5.711461e-07 4.6577625e-08 -0.00063421705
000040 c6 ac a6 b6 e8 c5 83 b7 52 41 9e b2 af 1c d2 37
       -4.967299e-06 -1.5708574e-05 -1.8423325e-08 2.5047308e-05
000050 27 c6 d8 b6 90 ce e2 37 da 2a 91 b6 1b 19 f0 b9
       -6.4603696e-06 2.7037488e-05 -4.3263253e-06 -0.00045795072
000060 00 eb a9 b7 d7 8b 3a b6 ea d8 07 3a ac 2f 19 b6
       -2.02558e-05 -2.7797557e-06 0.0005182164 -2.2826525e-06
000070 b0 43 4e 39 29 5a 43 34 bb db 42 b4 c6 b6 30 37
       0.00019670906 1.819359e-07 -1.8147595e-07 1.0532973e-05
000080 6c 5a 48 b5 f0 c6 1c b3 9d 58 9b 35 4c b7 b3 b4
       -7.4637387e-07 -3.6502513e-08 1.157419e-06 -3.3474714e-07
000090 a0 03 9f b5 40 7f 5f b8 e6 ca 1a 33 e6 1f c5 35
       -1.1847478e-06 -5.3285854e-05 3.6040454e-08 1.4686927e-06
0000a0 ac 53 67 b6 10 23 09 2d 64 34 f1 b7 fa 42 a1 b7
       -3.4470386e-06 7.795334e-12 -2.8753835e-05 -1.9223884e-05
0000b0 6c ba d2 37 be 74 23 38 06 bc 0e 32 62 c8 cc 2e
       2.512076e-05 3.8970953e-05 8.308239e-09 9.312441e-11
0000c0 54 d6 af b7 80 7a 05 34 d0 5d 80 34 f4 c0 a0 b4
       -2.096143e-05 1.2431155e-07 2.3910115e-07 -2.9942714e-07
0000d0 9a 7e f7 b4 c0 41 51 b4 20 c9 27 ac 95 b1 4b 2e
       -4.609945e-07 -1.9488562e-07 -2.3843774e-12 4.631458e-11
0000e0 72 d9 c6 37 04 03 3e 32 93 53 3f 2e 76 6e 38 32
       2.3704695e-05 1.1060141e-08 4.35026e-11 1.07353255e-08
0000f0 ea b3 03 2e d8 6b 06 37 f0 a0 e8 b4 f2 82 43 35
       2.9945747e-11 8.012132e-06 -4.3330465e-07 7.283371e-07
000100 7e 88 9a 35 5a ac 75 b6 54 ac c1 b6 aa 6a 07 af
       1.1513619e-06 -3.6608167e-06 -5.77191e-06 -1.2316073e-10
000110 e8 d4 fe 33 6c 3c 83 38 d3 25 07 36 20 fe e9 34
       1.1866524e-07 6.257821e-05 2.0138584e-06 4.3584532e-07
000120 de e0 be 2e 98 7f 26 b0 2e 3f 58 ae 64 2d 26 35
       8.680144e-11 -6.057177e-10 -4.916883e-11 6.190587e-07
000130 ca 85 9d b4 a9 a8 02 35 a2 66 d5 b3 80 6f ed ac
       -2.9340873e-07 4.8674207e-07 -9.937254e-08 -6.748324e-12
000140 f2 7a 4b b4 7a 0f bb ae fe 95 3e 37 b5 8f fb 2c
       -1.8950576e-07 -8.5065247e-11 1.1359805e-05 7.1498038e-12
000150 f4 c4 06 b7 76 62 0a 2d 87 3f cf b6 22 8e c0 b0
       -8.032879e-06 7.8662545e-12 -6.1764763e-06 -1.4010235e-09
000160 78 df ce 35 f0 42 1a 34 c6 8f 3c af fa 7d f3 34
       1.5413234e-06 1.436672e-07 -1.7149579e-10 4.5353937e-07
000170 6a c7 6f b0 8e 15 0c 35 4d 71 7e 32 c0 5b 5d 34
       -8.723108e-10 5.218543e-07 1.48105075e-08 2.0615607e-07
000180 06 5a 32 b6 e0 bd ff b3 c2 90 d6 33 0c cc c7 b3
       -2.6576467e-06 -1.1908901e-07 9.991483e-08 -9.3037755e-08
000190 26 ea 85 b7 56 b6 06 b2 14 2c d6 b8 e0 34 6b b7
       -1.596387e-05 -7.841285e-09 -0.000102125254 -1.4019402e-05
0001a0 82 3e a8 b4 8b c3 08 b2 7d 06 b2 b6 bc 6a 61 32
       -3.133792e-07 -7.960703e-09 -5.3055687e-06 1.3120992e-08
0001b0 4b b4 88 b5 37 de 41 33 60 a9 49 33 08 4f 13 b2
       -1.0185262e-06 4.5138417e-08 4.6953005e-08 -8.574496e-09
0001c0 b0 4b ef 34 dc ad 2d b4 c6 20 ad b2 25 96 49 b4
       4.457229e-07 -1.617513e-07 -2.0154754e-08 -1.8774206e-07
0001d0 00 29 00 b4 60 9e c5 34 d4 34 ae b7 66 cd c3 b1
       -1.1935845e-07 3.6809342e-07 -2.0767016e-05 -5.698598e-09
0001e0 ae 4e f3 b4 cf 98 e2 b7 e8 fe 88 b1 a0 53 6f b6
       -4.5319524e-07 -2.7012456e-05 -3.9871004e-09 -3.5662451e-06
0001f0 2a 98 4b b1 b5 3f a8 32 16 9f 54 b5 76 2c dc b6
       -2.9626883e-09 1.9586745e-08 -7.9207655e-07 -6.561687e-06
000200 4a 4a 91 35 ca ee 03 37 74 7e 7e b9 0e fa 49 b9
       1.0824963e-06 7.863806e-06 -0.00024270435 -0.00019262006
000210 12 c3 9b 34 c5 47 4e 34 6e f8 27 b6 94 bb 84 b5
       2.9012932e-07 1.9211355e-07 -2.5029544e-06 -9.889359e-07
000220 d8 2b 27 b8 85 d4 ea bb 14 42 2b 39 6c ed bf 37
       -3.9856735e-05 -0.0071664476 0.00016332447 2.2879532e-05
000230 2b 92 64 b9 5b ce 1a b5 41 0b a8 33 3c 08 ae 3a
       -0.00021798226 -5.766976e-07 7.825157e-08 0.00132776
000240 38 63 d7 b7 8c 19 78 3a 5d f6 07 b4 2b 94 e4 b8
       -2.56762e-05 0.0009464256 -1.2662481e-07 -0.00010899486
000250 c8 5a 18 b9 04 04 77 39 ca ef 1a b8 e2 63 6c bc
       -0.00014529668 0.00023557252 -3.6939782e-05 -0.014428111
000260 0d ac 0d 39 74 22 54 b4 ff 76 11 3c 8c da dc 37
       0.00013510902 -1.9756573e-07 0.008878469 2.6327813e-05
000270 25 37 38 3c 36 f5 cc 34 82 76 09 b5 10 8b 44 39
       0.011243616 3.8176375e-07 -5.120893e-07 0.00018743821
000280 09 25 1b 36 24 35 73 b6 20 ee 4c 3a 8c de a9 39
       2.3118357e-06 -3.6240754e-06 0.0007817466 0.00032400002
000290 bc 31 a5 35 72 1c 81 35 ae 1d d2 35 ee b1 88 36
       1.2307933e-06 9.619528e-07 1.5654857e-06 4.0738296e-06
0002a0 8a 57 89 3a a6 9f 80 bc 34 42 a6 3a 11 5f 39 38
       0.0010478359 -0.015701126 0.0012684525 4.4195975e-05
0002b0 40 05 24 b5 ce 3f c4 36 6a 41 98 34 20 8f 23 3c
       -6.11024e-07 5.848683e-06 2.83598e-07 0.009982854
0002c0 34 02 e6 b7 58 31 ad 3a fe 4b 6f 34 ee 4f 34 ba
       -2.7419163e-05 0.0013213558 2.2286255e-07 -0.00068783655
0002d0 50 8a 90 38 57 60 61 ba 78 b5 10 b8 00 30 af bc
       6.892218e-05 -0.00085974246 -3.450128e-05 -0.021385193
0002e0 0c 43 2a 3a 73 f6 98 b7 c5 26 b6 3c be 57 88 38
       0.0006494976 -1.8234574e-05 0.022235284 6.5013286e-05
0002f0 d0 05 25 ba 12 cf 57 35 c5 43 e8 35 a1 7d 0c 39
       -0.00062951166 8.039507e-07 1.730507e-06 0.00013398241
000300 6c 89 8d 34 50 39 02 34 d2 a0 bb b8 51 06 9b b7
       2.6363284e-07 1.2128044e-07 -8.94681e-05 -1.8480381e-05
000310 f4 cd 8b 33 11 d2 99 32 b4 d7 8e b4 a2 7a c6 34
       6.5101545e-08 1.7907071e-08 -2.6606506e-07 3.69696e-07
000320 4f d5 a4 b7 d6 62 10 3a ea ad 4b b7 60 47 4d 36
       -1.9649653e-05 0.0005507892 -1.2140235e-05 3.0588926e-06
000330 9e 2b c5 b7 ad 12 82 b4 90 da f3 32 e4 08 fb b9
       -2.350454e-05 -2.4227975e-07 2.8388314e-08 -0.00047881075
000340 a0 1b 77 b4 39 44 65 37 c9 a9 97 b2 6a 71 af 36
       -2.3013718e-07 1.3665348e-05 -1.7655923e-08 5.2286096e-06
000350 32 2b ff b6 10 e9 54 37 11 6e 47 36 ce a6 17 b9
       -7.604621e-06 1.2690449e-05 2.9717378e-06 -0.00014462622
000360 1a 33 3b b7 f8 0c d8 b5 16 46 8a 39 8c 6a 50 34
       -1.1157967e-05 -1.6097028e-06 0.0002637363 1.9410271e-07
000370 26 d0 6b b9 8c 8a f4 b2 da cf e5 b3 3d 92 93 37
       -0.00022488888 -2.8468342e-08 -1.07014515e-07 1.7591863e-05
000380 ed a2 2d 32 58 d9 72 b4 9a 5b 68 ae 8e 49 71 af
       1.010697e-08 -2.2617076e-07 -5.283205e-11 -2.1944954e-10
000390 24 9f d5 b5 04 07 ea 35 92 18 b7 34 62 44 2c 35
       -1.5916053e-06 1.74364e-06 3.4104283e-07 6.4174503e-07
0003a0 47 c7 62 af 4c fe b2 af 9c ef 52 2e a6 9f 1a 36
       -2.0625378e-10 -3.25587e-10 4.7961288e-11 2.3040716e-06
0003b0 cb 3f 01 31 f0 b1 1b b5 bc da 6e b5 23 20 db 30
       1.8808233e-09 -5.800093e-07 -8.898021e-07 1.5943481e-09
0003c0 4b 39 38 36 c0 36 3f ad 4b 61 82 37 14 2a d4 ae
       2.7451485e-06 -1.086925e-11 1.5542513e-05 -9.6481184e-11
0003d0 4a e1 e0 b8 3f e1 e3 ae ec 4c 51 ae bb cd e2 b0
       -0.00010723116 -1.03627766e-10 -4.758942e-11 -1.6502136e-09
0003e0 61 38 8a 2e a4 87 ab ae 99 0d 31 b0 e4 20 c2 b6
       6.2855283e-11 -7.800274e-11 -6.441155e-10 -5.7854795e-06
0003f0 24 83 03 b1 89 03 8c 35 04 31 63 36 fc ae 20 38
       -1.9137554e-09 1.0431842e-06 3.3854167e-06 3.830994e-05

weight_hh_l1 f4 [128, 32]
000000 8d 52 e2 b9 04 12 c2 b2 c0 94 7a 30 38 cb 4b 33
       -0.00043167584 -2.2592765e-08 9.1160857e-10 4.7449447e-08
000010 12 01 1c ba cc c7 64 b9 02 44 cc 39 ec 77 b9 b0
       -0.0005951087 -0.00021818205 0.00038960582 -1.3494605e-09
000020 28 73 85 39 56 7b 15 b0 5e a9 e2 b9 a5 1f 75 39
       0.00025453535 -5.4381155e-10 -0.00043232267 0.00023376809
000030 64 dc 86 b7 bb b3 a1 b8 1d 37 91 b0 02 59 0b 2e
       -1.6076672e-05 -7.710556e-05 -1.0565803e-09 3.1683996e-11
000040 8c bc 74 39 a8 c1 96 2f 50 d4 32 b1 21 04 2f ba
       0.00023339893 2.7422442e-10 -2.6023095e-09 -0.00066763355
000050 2f 62 57 b9 36 46 59 2f 86 e6 b3 af d8 f3 ff ad
       -0.00020540574 1.9760979e-10 -3.2723707e-10 -2.9098432e-11
000060 a0 c1 91 ad 80 42 fc b8 b2 62 0c b8 87 75 08 31
       -1.6570578e-11 -0.00012028683 -3.347052e-05 1.9857411e-09
000070 16 6a 20 30 4e 3b 9a 32 06 26 8c b0 e0 27 64 38
       5.835842e-10 1.7954928e-08 -1.0197148e-09 5.4396573e-05
000080 fe 89 9c b3 71 93 12 b8 be 5b c2 32 65 b5 f9 b2
       -7.289417e-08 -3.4946428e-05 2.2626292e-08 -2.9069904e-08
000090 d5 8c 70 ae 22 83 9a 2e d0 95 0b b5 ea c8 52 34
       -5.4694766e-11 7.026403e-11 -5.199954e-07 1.9630866e-07
0000a0 e0 33 db 34 08 55 b8 b5 7a 53 0d 35 b1 a3 ee 2d
       4.0829673e-07 -1.3733816e-06 5.264807e-07 2.7130161e-11
0000b0 d6 15 95 31 c6 83 e7 b5 88 6c 82 b1 09 b2 f8 2f
       4.338953e-09 -1.7249192e-06 -3.7958365e-09 4.523744e-10
0000c0 d4 28 cc af 4a 56 c2 ae 84 d5 8c 36 20 50 17 ac
       -3.7136394e-10 -8.8374266e-11 4.1971816e-06 -2.150287e-12
0000d0 24 42 e1 ad c8 b4 55 37 36 33 10 b8 27 d8 e3 aa
       -2.560891e-11 1.2737881e-05 -3.437997e-05 -4.0473286e-13
0000e0 3e 2f bd 2a b2 2f 66 2d e0 67 b8 ae 8b 8f b5 b6
       3.3605925e-13 1.3084577e-11 -8.385803e-11 -5.410931e-06
0000f0 60 c8 a1 b4 32 4b ac 32 b3 e1 2b 36 5c 2b b8 2c
       -3.013438e-07 2.005763e-08 2.561236e-06 5.2344084e-12
000100 37 e9 ab ad 2a 8a 12 b7 aa bd 2f b6 36 ae 49 b6
       -1.9544017e-11 -8.734447e-06 -2.618743e-06 -3.0052738e-06
000110 67 02 5c ae 76 24 8f 2e 34 f2 13 2e cc 3d 9e 2d
       -5.0024342e-11 6.509364e-11 3.363905e-11 1.7989964e-11
000120 f9 a8 63 ae bc a7 18 b0 6e 5f f2 2e 60 66 2b 2d
       -5.1763902e-11 -5.553564e-10 1.10218376e-10 9.7429564e-12
000130 28 9b f7 b4 a5 1e fb b4 40 ee 86 b4 3e 7d 94 b6
       -4.6120226e-07 -4.677469e-07 -2.5132795e-07 -4.425324e-06
000140 58 ce b3 ad f0 b0 80 35 ee ab 13 b0 81 19 64 af
       -2.0441579e-11 9.588239e-07 -5.3722615e-10 -2.074554e-10
000150 56 09 1f af be a0 2d 36 1a d9 03 2b ec 9d 64 ae
       -1.4464283e-10 2.5872573e-06 4.684184e-13 -5.198146e-11
000160 0f c9 8d 31 78 7e c9 ae f6 d1 fd 36 52 ab e3 38
       4.126498e-09 -9.162887e-11 7.5644302e-06 0.000108561144
000170 84 bd 92 30 99 43 ff 35 0e 46 72 37 bc fa 18 2f
       1.0676762e-09 1.9018654e-06 1.4440635e-05 1.3913398e-10
000180 b1 3c 5c 30 5c 36 89 33 8b bf 89 b7 1c ee 55 38
       8.012178e-10 6.3894475e-08 -1.6420867e-05 5.1004914e-05
000190 4c 35 b3 b0 6b e8 01 b1 e8 3e 19 b7 41 1f d4 b5
       -1.3039112e-09 -1.8904085e-09 -9.134157e-06 -1.5804327e-06
0001a0 ff 29 99 33 37 cb 82 b2 61 8b 6e 31 08 6b 9e b0
       7.132257e-08 -1.5226403e-08 3.4712786e-09 -1.1526433e-09
0001b0 7e 4f ab b1 98 eb 4b b7 29 1a 11 30 ba d4 ea 31
       -4.9857922e-09 -1.2154596e-05 5.278787e-10 6.8344805e-09
0001c0 63 a5 89 32 59 f5 e1 b2 da f1 05 b4 08 35 97 b1
       1.6024108e-08 -2.6305019e-08 -1.2474575e-07 -4.4007074e-09
0001d0 f4 6c 4d 31 a0 4e 95 b1 3e 0e d3 ae 6f bd 56 2d
       2.989336e-09 -4.3454094e-09 -9.597699e-11 1.2206554e-11
0001e0 ae 72 04 b6 58 b6 d4 31 e4 b9 4a b2 64 83 97 b1
       -1.9736285e-06 6.190742e-09 -1.1800214e-08 -4.409616e-09
0001f0 33 cc 91 b5 24 14 c9 b5 ca 03 f9 b4 24 01 26 32
       -1.0862772e-06 -1.4981529e-06 -4.638262e-07 9.662731e-09
000200 04 60 1a 3a a0 e2 01 33 ca e7 d9 b3 1e 7f 39 37
       0.0005888941 3.0241267e-08 -1.0147012e-07 1.1056456e-05
000210 df 38 bf 3a 6e 7e e6 39 17 d7 2f ba 1d b8 c4 33
       0.0014589092 0.00043963216 -0.0006707771 9.160451e-08
000220 86 a1 3b ba 72 c6 e8 32 e9 b5 19 3a 22 0c 25 ba
       -0.0007157553 2.7098597e-08 0.00058635935 -0.00062960584
000230 ee 20 83 b8 ea a5 7f 39 fe bf 64 b2 2e 6f 5e af
       -6.2527004e-05 0.00024380503 -1.3315001e-08 -2.0230281e-10
000240 98 fd 88 b7 65 cc 87 31 93 0b 63 33 4f 44 03 3b
       -1.6330552e-05 3.952254e-09 5.2863083e-08 0.0020029729
000250 49 91 19 3a b1 51 08 31 52 62 cb b1 62 58 8e b0
       0.0005858136 1.983704e-09 -5.9192553e-09 -1.035698e-09
000260 90 bc 29 af 04 d9 f2 39 95 2c 9d b9 ac 3c 94 32
       -1.5437451e-10 0.00046319526 -0.0002997859 1.7257058e-08
000270 07 9e 6e b0 4f e2 48 35 c3 d6 cc b1 b8 50 c4 b9
       -8.6808466e-10 7.483513e-07 -5.961597e-09 -0.00037444173
000280 d2 5a c2 ba 38 89 1d b5 fc 59 a5 b3 98 3b 81 b6
       -0.0014828092 -5.868674e-07 -7.699779e-08 -3.851437e-06
000290 de 91 83 3b ad 0b 87 bb 77 19 a4 3a b9 12 41 b3
       0.0040151915 -0.004121265 0.0012519796 -4.4953342e-08
0002a0 6a c1 71 3a a3 ee 61 31 fd 31 c3 ba 36 a4 70 bb
       0.00092222414 3.2877459e-09 -0.0014892217 -0.003671897
0002b0 55 28 94 b8 fa 3e 92 38 8e ce 90 b2 6e 9f e8 2f
       -7.0647024e-05 6.973553e-05 -1.6857737e-08 4.2313836e-10
0002c0 cc e6 37 3b 3b ce ae 30 00 1c 9e b4 aa 0e 82 3b
       0.002806115 1.271878e-09 -2.9450166e-07 0.0039690332
0002d0 68 3e 6e 3b 91 13 df 2f 59 14 04 b2 01 80 7b 31
       0.0036353115 4.0577366e-10 -7.688038e-09 3.659807e-09
0002e0 86 76 08 31 66 a4 66 3b 42 cf 63 b9 d9 2e 80 b2
       1.9857977e-09 0.0035193204 -0.00021725617 -1.4922465e-08
0002f0 75 9e 8f 31 08 7d 11 b4 e0 fd dd b1 ca 38 60 bb
       4.1798622e-09 -1.3549663e-07 -6.4608088e-09 -0.0034213536
000300 16 c6 a3 b9 da 0b 80 b3 d8 89 96 31 a6 50 31 35
       -0.00031237368 -5.96262e-08 4.3812456e-09 6.6055e-07
000310 79 72 bf b9 22 69 20 b9 98 c5 72 39 04 40 78 b1
       -0.00036515648 -0.00015297954 0.00023152528 -3.6125138e-09
000320 a4 7b 32 39 7c 08 ca 30 19 ef a4 b9 94 dd 78 b8
       0.00017021463 1.4699846e-09 -0.0003145866 -5.933417e-05
000330 05 f1 4e b7 64 1e 8d b8 e4 95 ae b0 4e d7 e0 2d
       -1.2334674e-05 -6.7290646e-05 -1.2702768e-09 2.5561466e-11
000340 4e 1b c4 39 3d 4f b3 2f c2 4f 6f 31 fb 2b 12 ba
       0.00037404377 3.2616213e-10 3.4824414e-09 -0.00055760116
000350 7a 8b ac 38 a4 45 a4 2e f0 90 5d af 4c 1c 7d ae
       8.227579e-05 7.470227e-11 -2.0151325e-10 -5.7550673e-11
000360 20 e3 68 ad 7b a1 17 39 c3 da d3 b7 e4 a5 81 af
       -1.3238105e-11 0.00014460638 -2.5255029e-05 -2.3582836e-10
000370 6a e5 0a 30 02 b3 66 32 1f f7 0b ae e7 63 45 b9
       5.0530125e-10 1.3428464e-08 -3.182443e-11 -0.000188246
000380 d6 71 37 2f fe c1 75 b7 99 9d 84 2e 6a 12 56 37
       1.6684196e-10 -1.4648305e-05 6.03066e-11 1.2759681e-05
000390 f1 ea 93 2f 7e 49 e8 2f 14 d3 ab 2e 92 c4 34 2f
       2.690608e-10 4.2252774e-10 7.813675e-11 1.644074e-10
0003a0 2c 96 13 2f 26 2b 84 b7 43 31 35 af fe 35 a1 2f
       1.3422924e-10 -1.5755719e-05 -1.6479355e-10 2.9324093e-10
0003b0 f2 8e 1f b4 06 e0 d0 2e 64 09 57 b1 84 a7 b0 b1
       -1.4860032e-07 9.4985395e-11 -3.1291956e-09 -5.1413185e-09
0003c0 b2 e9 a0 2e 65 98 8e ae 28 04 b0 2e a7 d4 c5 af
       7.31747e-11 -6.484483e-11 8.004292e-11 -3.598519e-10
0003d0 5a 77 b6 2f fb 72 88 31 20 0a ed aa c5 1a 01 33
       3.3190412e-10 3.9711927e-09 -4.2106683e-13 3.00595e-08
0003e0 f8 42 a9 35 e4 81 84 2f 67 90 88 37 f6 94 53 b6
       1.2610972e-06 2.4102953e-10 1.6279706e-05 -3.1528157e-06
0003f0 5c 09 f6 b2 d1 63 3d 2f 47 2e 09 33 3f df 8a 2f
       -2.8642425e-08 1.7224912e-10 3.1939887e-08 2.526068e-10

bias_ih_l1 f4 [128]
000000 37 8c a0 3b f8 af 80 2d 2e 7b af 30 3f f6 03 b2
       0.0048995274 1.4630061e-11 1.2767936e-09 -7.6811935e-09
000010 63 2a 90 3d 18 8b 6d 3e db f6 6b 3b 61 51 79 31
       0.070393346 0.23197591 0.0036005292 3.6280527e-09
000020 5b 2d 06 3b a6 db e1 a9 d1 d0 a1 3b 23 5e 1d 3d
       0.0020473811 -1.003011e-13 0.004938223 0.038419854
000030 00 2b 6e 36 8c 47 10 38 a5 c4 ce 28 a9 db 4e 24
       3.5489793e-06 3.439891e-05 2.2955875e-14 4.485519e-17
000040 6d 11 8e 3c 40 86 3f a6 4f da 0d 31 d3 e7 c3 3d
       0.017342294 -6.644838e-16 2.0642295e-09 0.09565701
000050 2a 23 17 3d fc e8 b6 26 6a eb ca 27 fe fb de 26
       0.03689877 1.2691937e-15 5.63215e-15 1.5472647e-15
000060 0e e8 7e 24 3d f9 05 3d f6 80 8a 36 c6 d5 d0 29
       5.5274028e-17 0.032708395 4.1277335e-06 9.2741393e-14
000070 8e 91 9c 28 c4 72 5e b1 08 7d 43 2b 23 97 f3 3c
       1.7382603e-14 -3.2370489e-09 6.945143e-13 0.029735154
000080 1b 63 32 3b bc 44 fd 2e 8c cc 0c b0 a0 f4 09 b0
       0.0027219716 1.1517318e-10 -5.122238e-10 -5.018794e-10
000090 01 2c 39 3d 79 76 44 3e ae 91 fc 3a 07 02 63 31
       0.04520798 0.19185819 0.001926949 3.3034e-09
0000a0 77 17 84 3a 9c e5 17 a9 96 f1 33 3b 15 01 c2 3c
       0.0010077794 -3.372789e-14 0.002745723 0.023682157
0000b0 0a 20 09 35 fa 8e fa 37 06 55 08 a9 28 f7 b8 a3
       5.10831e-07 2.9868901e-05 -3.0271812e-14 -2.0053995e-17
0000c0 b5 47 29 3c a4 a6 39 a4 bb dc 87 b1 29 66 81 3d
       0.010332038 -4.025663e-17 -3.9541113e-09 0.06318314
0000d0 82 eb b9 3c 00 dd e3 26 56 c5 d8 a4 0d 38 eb 26
       0.022695307 1.5811191e-15 -9.400937e-17 1.6321593e-15
0000e0 00 0c 58 25 14 cd a3 3c aa 48 b0 35 1f b5 02 a9
       1.8739079e-16 0.01999525 1.313417e-06 -2.9022896e-14
0000f0 13 6b 63 28 42 2b b8 b0 be 97 bc ac 6d 3e 94 3c
       1.2624249e-14 -1.3400057e-09 -5.360128e-12 0.018096173
000100 9b 4f 08 ba 3e 57 5d b5 f8 1d af b4 3f 31 84 37
       -0.00051998504 -8.245587e-07 -3.2618095e-07 1.5758558e-05
000110 eb 47 02 bc 69 95 8f 3c 32 ed f5 39 5a 17 99 33
       -0.007951717 0.017527299 0.00046906766 7.128865e-08
000120 0c f6 a5 39 f1 09 02 33 19 7f 08 ba ed da 57 3b
       0.00031654572 3.0277025e-08 -0.00052069273 0.0032936886
000130 2e b6 c6 b9 8c 2c 63 39 f8 d2 10 b3 87 35 8b af
       -0.00037901237 0.00021665002 -3.3719488e-08 -2.5321986e-10
000140 38 2a c3 b9 58 12 67 31 66 a2 d5 33 3b 5f 3b bc
       -0.00037224754 3.3625351e-09 9.9481255e-08 -0.011436279
000150 63 37 49 bb 7a 84 2c b1 8c 43 14 b2 44 45 90 af
       -0.003070318 -2.5104598e-09 -8.630092e-09 -2.6242664e-10
000160 cb a2 1b b0 e9 21 21 bb 80 da 28 ba 62 53 54 32
       -5.6620014e-10 -0.0024586862 -0.00064412504 1.2358983e-08
000170 e1 84 bd 31 de 7f 35 35 1c 65 03 b2 69 0e 05 3b
       5.5157305e-09 6.7613826e-07 -7.648193e-09 0.0020302779
000180 80 70 91 3b 88 9e 98 2e ed 82 16 b1 08 c2 18 b1
       0.00443846 6.9403205e-11 -2.1902296e-09 -2.2229205e-09
000190 b0 1d 8c 3d da f9 7d 3e 5d 9b 54 3b a7 a1 81 b1
       0.068416 0.24802342 0.0032441237 -3.772772e-09
0001a0 e0 e3 ee 3a 93 82 8f 29 38 9b 92 3b 96 55 14 3d
       0.0018225871 6.373127e-14 0.00447407 0.036214434
0001b0 d6 21 b8 36 30 11 12 38 35 64 b9 28 64 f2 70 24
       5.4875663e-06 3.482512e-05 2.0582584e-14 5.2247017e-17
0001c0 60 0f 83 3c ec 35 8f a6 a9 db 5e b1 2c 07 c3 3d
       0.015998542 -9.937234e-16 -3.2430114e-09 0.09522852
0001d0 cc 3f 0e 3d fe a2 82 27 2e 4f e8 a7 26 47 bd 26
       0.03472881 3.6258965e-15 -6.4478782e-15 1.3133794e-15
0001e0 e7 f7 66 a5 ab 25 fb 3c 2b 0c 9b 36 f6 51 ac 29
       -2.0033313e-16 0.03065761 4.6207765e-06 7.6525524e-14
0001f0 df ff a2 28 88 c6 9d af e4 00 52 2b a3 a3 e3 3c
       1.809658e-14 -2.8699199e-10 7.4608223e-13 0.027787989

bias_hh_l1 f4 [128]
000000 38 8c a0 3b 14 b0 80 2d 18 7b af 30 60 f6 03 b2
       0.004899528 1.463011e-11 1.2767911e-09 -7.681223e-09
000010 62 2a 90 3d 17 8b 6d 3e da f6 6b 3b 11 51 79 31
       0.07039334 0.2319759 0.003600529 3.628035e-09
000020 5d 2d 06 3b 86 db e1 a9 cf d0 a1 3b 24 5e 1d 3d
       0.0020473816 -1.00300885e-13 0.004938222 0.038419858
000030 06 2b 6e 36 96 47 10 38 ad c4 ce 28 d7 da 4e 24
       3.5489807e-06 3.4398945e-05 2.2955889e-14 4.4854494e-17
000040 6f 11 8e 3c 3d 86 3f a6 bf d9 0d 31 d3 e7 c3 3d
       0.017342297 -6.6448364e-16 2.0641975e-09 0.09565701
000050 2b 23 17 3d f6 e8 b6 26 9a eb ca 27 06 fc de 26
       0.036898773 1.2691931e-15 5.6321702e-15 1.5472656e-15
000060 20 e8 7e 24 3c f9 05 3d f4 80 8a 36 db d5 d0 29
       5.5274088e-17 0.03270839 4.1277326e-06 9.2741536e-14
000070 8d 91 9c 28 c2 72 5e b1 f2 7d 43 2b 21 97 f3 3c
       1.7382602e-14 -3.2370484e-09 6.94527e-13 0.02973515
000080 1b 63 32 3b ca 44 fd 2e e8 d1 0c b0 30 f5 09 b0
       0.0027219716 1.15173274e-10 -5.123e-10 -5.018874e-10
000090 01 2c 39 3d 7b 76 44 3e b1 91 fc 3a 25 02 63 31
       0.04520798 0.19185822 0.0019269494 3.3034067e-09
0000a0 78 17 84 3a 20 e6 17 a9 9a f1 33 3b 17 01 c2 3c
       0.0010077795 -3.3728337e-14 0.0027457238 0.02368216
0000b0 e2 1f 09 35 de 8e fa 37 0d 55 08 a9 9c f6 b8 a3
       5.108287e-07 2.986885e-05 -3.0271836e-14 -2.0053763e-17
0000c0 b5 47 29 3c 58 a6 39 a4 cb dc 87 b1 28 66 81 3d
       0.010332038 -4.025638e-17 -3.9541184e-09 0.06318313
0000d0 82 eb b9 3c d1 dc e3 26 6a c7 d8 a4 11 38 eb 26
       0.022695307 1.5811142e-15 -9.401289e-17 1.6321598e-15
0000e0 ec 0b 58 25 13 cd a3 3c aa 48 b0 35 e0 b4 02 a9
       1.8739053e-16 0.019995248 1.313417e-06 -2.9022683e-14
0000f0 13 6b 63 28 7b 2b b8 b0 9b 98 bc ac 6e 3e 94 3c
       1.2624249e-14 -1.340012e-09 -5.360224e-12 0.018096175
000100 0e 50 08 ba 49 57 5d b5 fe 1d af b4 37 31 84 37
       -0.00051999174 -8.245593e-07 -3.2618112e-07 1.5758544e-05
000110 e3 47 02 bc 03 d1 8e 3c 57 ed f5 39 38 17 99 33
       -0.007951709 0.017433649 0.00046906873 7.128841e-08
000120 2c f6 a5 39 ec 09 02 33 0e 7f 08 ba 50 db 57 3b
       0.00031654665 3.0277008e-08 -0.0005206921 0.0032937117
000130 41 b6 c6 b9 1d 2d 63 39 f9 d2 10 b3 b0 35 8b af
       -0.00037901293 0.00021665213 -3.371949e-08 -2.53221e-10
000140 9a 2b c3 b9 50 12 67 31 26 a2 d5 33 5d 5f 3b bc
       -0.00037225784 3.3625334e-09 9.94808e-08 -0.011436311
000150 1c 37 49 bb 6a 84 2c b1 ac 43 14 b2 14 45 90 af
       -0.0030703014 -2.5104563e-09 -8.630121e-09 -2.624253e-10
000160 b2 a2 1b b0 0b 22 21 bb 80 da 28 ba 2a 53 54 32
       -5.6619875e-10 -0.0024586942 -0.00064412504 1.2358933e-08
000170 08 85 bd 31 d7 7f 35 35 50 65 03 b2 5e 0e 05 3b
       5.515748e-09 6.7613786e-07 -7.648239e-09 0.0020302753
000180 7f 70 91 3b 8a 9e 98 2e df 82 16 b1 70 c2 18 b1
       0.0044384594 6.940322e-11 -2.1902264e-09 -2.2229436e-09
000190 b2 1d 8c 3d d9 f9 7d 3e 5e 9b 54 3b aa a1 81 b1
       0.068416014 0.2480234 0.003244124 -3.772773e-09
0001a0 df e3 ee 3a 93 82 8f 29 38 9b 92 3b 96 55 14 3d
       0.001822587 6.373127e-14 0.00447407 0.036214434
0001b0 d3 21 b8 36 35 11 12 38 43 64 b9 28 54 f2 70 24
       5.487565e-06 3.4825138e-05 2.0582608e-14 5.2246964e-17
0001c0 5f 0f 83 3c d9 35 8f a6 a3 db 5e b1 2d 07 c3 3d
       0.01599854 -9.937214e-16 -3.24301e-09 0.09522853
0001d0 cc 3f 0e 3d fb a2 82 27 f5 4e e8 a7 1c 47 bd 26
       0.03472881 3.625895e-15 -6.447854e-15 1.3133784e-15
0001e0 ef f7 66 a5 ad 25 fb 3c 2e 0c 9b 36 f9 51 ac 29
       -2.0033323e-16 0.030657614 4.620778e-06 7.6525544e-14
0001f0 e1 ff a2 28 58 bc 9d af 74 ff 51 2b a4 a3 e3 3c
       1.8096583e-14 -2.869196e-10 7.460623e-13 0.02778799
