seq2seq_ATT/48_48_Seq2Seq_att_model.pkl (torch, 787921 bytes, 29 tensors)

weight_ih_l0 f4 [256, 6]
0	0xba26eb90	-0.0006367499
1	0xbb158da9	-0.0022820032
2	0x3af2b3cd	0.001851672
3	0xbad6d96f	-0.0016391705
4	0x370c5521	8.364471e-06
5	0x3929825b	0.00016165657
6	0x36e73a0c	6.891094e-06
7	0xb99bed46	-0.00029740686
8	0x39c065ca	0.00036696933
9	0xb9ac3e10	-0.00032852637
10	0x360c8dd0	2.0944171e-06
11	0xb5efb4ea	-1.785954e-06
12	0x381b4b3a	3.702494e-05
13	0xb902693e	-0.00012436972
14	0x3a91abb1	0.001111379
15	0xbaa46cfc	-0.0012544687
16	0x3887e075	6.47911e-05
17	0x399f6e89	0.00030409198
18	0x384f2925	4.9390965e-05
19	0xb96eef94	-0.00022786699
20	0x398d226a	0.00026919256
21	0xb98cf399	-0.00026884375
22	0x3602134c	1.9382742e-06
23	0xb7fa2148	-2.981782e-05
24	0x377070cc	1.4331377e-05
25	0xb96fee0f	-0.000228815
26	0x399200b0	0.00027847802
27	0xb9933802	-0.00028079754
28	0xb69bb5a4	-4.6405057e-06
29	0xb8084af3	-3.249473e-05
30	0x395fb341	0.00021333715
31	0xb90f26b0	-0.00013651955
32	0x3a99b590	0.0011727083
33	0xba95c988	-0.0011427859
34	0xb833745c	-4.2785294e-05
35	0x3905d9fe	0.00012765077
36	0xb4b4f463	-3.3705427e-07
37	0xb5dd1009	-1.647045e-06
38	0x358854be	1.0157453e-06
39	0xb53368e8	-6.6835355e-07
40	0x3379ff8a	5.820724e-08
41	0x33c2b11a	9.0660436e-08
42	0xb83abbf8	-4.4520915e-05
43	0xbab609c2	-0.0013888406
44	0x3b025d63	0.0019892089
45	0xbaf12264	-0.001839709
46	0xb98dd33a	-0.00027050992
47	0x38a23412	7.734461e-05
48	0xbc757d71	-0.014983521
49	0xbc4e807c	-0.012603875
50	0xbca980aa	-0.020691235
51	0x3d83e75d	0.064406134
52	0x3bad7519	0.0052935
53	0x3c4d7ca0	0.01254192
54	0xb9151ed4	-0.00014221232
55	0xba0e5635	-0.0005429716
56	0x3a6130f3	0.0008590363
57	0xba61feeb	-0.00086210546
58	0xb7b62dcb	-2.1717415e-05
59	0xb89f2589	-7.588702e-05
60	0x3a3770a8	0.0006997683
61	0xb9f39b48	-0.00046464265
62	0x3a9f09a8	0.0012133615
63	0xba90895e	-0.0011027267
64	0xb81bfd2e	-3.719067e-05
65	0xb7be2902	-2.266886e-05
66	0xb8c4c6a8	-9.383011e-05
67	0xba78dff5	-0.00094938214
68	0x3a1ca9de	0.000597624
69	0xb9f9f7dc	-0.0004767765
70	0x38b3d968	8.57588e-05
71	0xb84b0347	-4.8402024e-05
72	0xb7d7f39c	-2.5743437e-05
73	0xb9f2de1f	-0.0004632333
74	0x3a467fe1	0.0007572156
75	0xba4643b5	-0.000756319
76	0xb79c0759	-1.860007e-05
77	0xb8a1e648	-7.7199715e-05
78	0xbc833ccb	-0.0160202
79	0xbc48747f	-0.012234806
80	0xbcb17101	-0.02166033
81	0x3d85fa8e	0.0654193
82	0x3bab2ed5	0.0052240887
83	0x3c5702e4	0.013123248
84	0x3a114262	0.0005541203
85	0xbb0508ae	-0.0020299363
86	0x3b156c52	0.002280016
87	0xbb111409	-0.0022137186
88	0x3997c8d0	0.0002895058
89	0x38117b78	3.4685683e-05
90	0x39942c94	0.00028261973
91	0x38caa12a	9.66213e-05
92	0x3a9d9cdd	0.0012024898
93	0xbac04f98	-0.0014672158
94	0x3941cdff	0.00018482654
95	0x39470ba9	0.00018982463
96	0xba1260fe	-0.0005583911
97	0xba3f3a24	-0.00072947354
98	0xb8e40dfa	-0.000108744905
99	0x39e64af9	0.00043924878
100	0x39422ac8	0.00018517219
101	0x39b50fe0	0.00034534838
102	0x39b76726	0.00034981332
103	0xb9cb3f51	-0.00038766352
104	0x3a66459e	0.00087841775
105	0xba5c6ee8	-0.00084088603
106	0xb7eafe20	-2.801331e-05
107	0x39964736	0.00028663286
108	0x374f76a0	1.2365781e-05
109	0xb7efed5c	-2.860155e-05
110	0x37c864d0	2.3888802e-05
111	0xb7b31424	-2.1347842e-05
112	0x3518b0c7	5.688166e-07
113	0x348945df	2.5569076e-07
114	0xb8c0b058	-9.18812e-05
115	0xba8ff232	-0.0010982214
116	0x3ab4f850	0.0013806913
117	0xbaa257ca	-0.0012385782
118	0x38a3e0b8	7.814303e-05
119	0xb881d912	-6.191632e-05
120	0x38cd26dc	9.7824e-05
121	0x384cb799	4.880838e-05
122	0xb971b5b1	-0.00023051236
123	0x393aa498	0.00017799658
124	0x3841162e	4.6035442e-05
125	0x386aca76	5.5978504e-05
126	0xb946974c	-0.00018939114
127	0xbaafc671	-0.001341058
128	0x3ae22187	0.0017252424
129	0xbae583d0	-0.0017510597
130	0xb7b581e8	-2.1637374e-05
131	0xb9165f3a	-0.0001434059
132	0x399911ca	0.00029195688
133	0xbaae2d7f	-0.0013288705
134	0x3a7682d5	0.0009403651
135	0xba4adb40	-0.0007738359
136	0x39c9238e	0.00038364198
137	0xb86738bc	-5.512753e-05
138	0xb877c9c8	-5.9077312e-05
139	0xbb12e91d	-0.0022416778
140	0x3b24aad4	0.0025126236
141	0xbb1f92ad	-0.00243489
142	0xb65a6670	-3.2544158e-06
143	0x39e25cd9	0.00043175256
144	0xb91285a3	-0.00013973429
145	0x3a750cb8	0.00093479035
146	0xb9d6ea8e	-0.00040992018
147	0x39469b0f	0.00018940515
148	0xb87ebc0a	-6.0733444e-05
149	0xb971f771	-0.0002307573
150	0x392abeaf	0.00016283499
151	0xba306f5e	-0.0006730462
152	0x3b094463	0.0020945303
153	0xbb1ca489	-0.0023901782
154	0x390643cb	0.0001280449
155	0x39cd2bbd	0.00039133235
156	0xb8639e98	-5.426872e-05
157	0x38bf6f66	9.128339e-05
158	0xb8953407	-7.1145645e-05
159	0xb7d55c00	-2.543442e-05
160	0x392c0e58	0.00016408542
161	0x38508d38	4.9722585e-05
162	0x3937006a	0.00017452394
163	0xba4b3a09	-0.00077524834
164	0x3ab02b3c	0.0013440619
165	0xbab42ee6	-0.0013746887
166	0xb98597e4	-0.00025480904
167	0x39b66fdb	0.00034797084
168	0xb869e950	-5.5768818e-05
169	0x3a8bc301	0.0010662974
170	0xbb006a89	-0.001959475
171	0x3afd7e64	0.0019340036
172	0xb7780b98	-1.4784651e-05
173	0xb7a8dde8	-2.0130494e-05
174	0x3905afa7	0.00012749304
175	0xbaca097d	-0.0015414205
176	0x3b17ba8f	0.002315197
177	0xbb166c92	-0.0022952897
178	0xb81b0c79	-3.6966496e-05
179	0xb980b8d0	-0.00024551759
180	0xbd5bcdd7	-0.0536631
181	0x3d888b6f	0.0666722
182	0xbe190eb9	-0.14947022
183	0x3e64ca15	0.22342713
184	0x3c9d4d8f	0.019202022
185	0x3d065df9	0.032804463
186	0x37eebc2e	2.8459439e-05
187	0xb8889632	-6.5129614e-05
188	0x38913cf6	6.925494e-05
189	0xb890f519	-6.912108e-05
190	0xb5d86698	-1.6123113e-06
191	0xb703da2e	-7.859007e-06
192	0x38e85692	0.00011078747
193	0x37fb28a8	2.9940464e-05
194	0x3a469c4c	0.00075763906
195	0xba8c31b3	-0.0010695964
196	0xb94865e3	-0.00019111442
197	0xb90b467b	-0.00013282329
198	0xb916caee	-0.00014380712
199	0xba4d7612	-0.0007837723
200	0x3a8dc801	0.0010817052
201	0xba8f28b1	-0.0010922161
202	0xb8303603	-4.2011972e-05
203	0xb9076270	-0.00012911274
204	0x39043a1b	0.00012610147
205	0xba00c058	-0.0004911474
206	0x3a5c88f6	0.0008412743
207	0xba8635ed	-0.001023946
208	0x39b208f7	0.00033957485
209	0xb7f38728	-2.9030794e-05
210	0xb9563fe2	-0.00020432429
211	0xb911f684	-0.00013920112
212	0xbaa3ebf5	-0.0012506234
213	0x3ab4365a	0.0013749108
214	0xb90fee43	-0.00013726302
215	0x39f6a037	0.00047040146
216	0x383ec398	4.548169e-05
217	0xb9f54087	-0.00046778118
218	0x3a17cca8	0.0005790689
219	0xba195a1a	-0.0005849913
220	0xb6e93ce4	-6.9510297e-06
221	0xb878db4a	-5.9332036e-05
222	0xbdc3553f	-0.09537744
223	0x3d853f03	0.06506159
224	0xbe166a08	-0.14688885
225	0x3e3900d7	0.18066727
226	0x3cac8f8f	0.021064548
227	0x3cd47bc2	0.025937919
228	0x37730f08	1.4487428e-05
229	0xb9567dc1	-0.00020455477
230	0x39387c98	0.00017594022
231	0xb91bb01b	-0.00014847556
232	0x3892bc49	6.996893e-05
233	0x37e921e7	2.7791551e-05
234	0xb8c0932c	-9.182686e-05
235	0x35d5dce0	1.593402e-06
236	0xb8f10c92	-0.00011494117
237	0xb7517400	-1.2484379e-05
238	0x394574aa	0.00018830845
239	0x381b1f6e	3.698415e-05
240	0x3986c77b	0.00025707096
241	0xbac93177	-0.0015349825
242	0x3b02df76	0.001996962
243	0xbb0bc15a	-0.0021324963
244	0x39afd098	0.00033534016
245	0x387a1488	5.9623766e-05
246	0x382dbc94	4.142204e-05
247	0xb8a51593	-7.8718316e-05
248	0x38a22c27	7.732986e-05
249	0xb89ae317	-7.385591e-05
250	0x360b0a9a	2.0718785e-06
251	0xb6bceb92	-5.6302606e-06
252	0x3aeac4c9	0.001791143
253	0xba90300c	-0.0011000647
254	0x3a29dc00	0.0006479621
255	0xba4d3203	-0.0007827582

weight_hh_l0 f4 [256, 64]
0	0xb6bdc800	-5.655922e-06
1	0x37264fb0	9.912925e-06
2	0xb7ba2160	-2.218847e-05
3	0x363cfe18	2.8162085e-06
4	0x355abcc0	8.1485996e-07
5	0xb78f6841	-1.7095475e-05
6	0x35f004aa	1.7882751e-06
7	0xb8baf295	-8.9143556e-05
8	0x393bda50	0.00017915037
9	0xb83d7928	-4.5173947e-05
10	0x3888cd57	6.523233e-05
11	0xb86296fe	-5.402322e-05
12	0xb82e363a	-4.1535335e-05
13	0xb9391a9e	-0.0001765289
14	0xb8556db7	-5.0885337e-05
15	0x388c34f4	6.6855835e-05
16	0xb7bc40c6	-2.2441509e-05
17	0x37efdd7c	2.8594157e-05
18	0x370e9e1b	8.500671e-06
19	0xb6eba8c0	-7.023191e-06
20	0xb794464d	-1.7675711e-05
21	0xb7df4327	-2.6614942e-05
22	0x36b9f276	5.541656e-06
23	0xb90376c8	-0.00012537383
24	0x3634e6b0	2.6956368e-06
25	0x3872e77a	5.7912875e-05
26	0xb637fc28	-2.74159e-06
27	0x371a2254	9.187108e-06
28	0x383601dc	4.3393913e-05
29	0x3817ce50	3.619335e-05
30	0xb8acfae0	-8.248328e-05
31	0x372be905	1.0246648e-05
32	0x3780717e	1.5311638e-05
33	0xb81872d4	-3.6346566e-05
34	0xb8a64ae8	-7.929449e-05
35	0xb43815a0	-1.7144203e-07
36	0xb7ba4a0f	-2.2207414e-05
37	0xb858cc2e	-5.168857e-05
38	0xb5a55cf4	-1.2320511e-06
39	0xb73720ba	-1.091527e-05
40	0xb867b666	-5.5244564e-05
41	0x377e8a44	1.5171772e-05
42	0x3695f490	4.469017e-06
43	0xb780ec76	-1.53689e-05
44	0xb90796e6	-0.00012930817
45	0x36558e10	3.1822165e-06
46	0xb41bd800	-1.451408e-07
47	0x378d545f	1.6847798e-05
48	0xb8a896cf	-8.0389545e-05
49	0x37540e50	1.2639517e-05
50	0x390e9960	0.00013599312
51	0xb8911220	-6.917515e-05
52	0xb8dfeaea	-0.00010677225
53	0x36b9d92c	5.538712e-06
54	0x39d68d86	0.00040922704
55	0xb6a51d5c	-4.920801e-06
56	0xb911f021	-0.00013917733
57	0xb7c03c60	-2.2916298e-05
58	0xb627fba0	-2.5031404e-06
59	0xb68cb038	-4.1928397e-06
60	0x374e2cca	1.2288985e-05
61	0x392b4ae3	0.00016335728
62	0xb6ff15b8	-7.6021206e-06
63	0xb803d434	-3.1430463e-05
64	0x350e01f0	5.290194e-07
65	0xb52e50b1	-6.493747e-07
66	0x363de390	2.8295653e-06
67	0xb4be9560	-3.5498942e-07
68	0x35a5af28	1.2344435e-06
69	0x3600e057	1.920407e-06
70	0x352dc490	6.473356e-07
71	0xb6f1d0e8	-7.2066796e-06
72	0x36910a9b	4.3225714e-06
73	0x370e52c8	8.483134e-06
74	0x370871a3	8.13269e-06
75	0xb653a448	-3.1537074e-06
76	0x3701fda0	7.748051e-06
77	0xb686fda2	-4.023038e-06
78	0xb69dbf45	-4.7012313e-06
79	0x35940368	1.1027851e-06
80	0xb702d321	-7.797761e-06
81	0xb62eada8	-2.6029102e-06
82	0xb56aaefe	-8.742644e-07
83	0x35cedb74	1.5412065e-06
84	0xb52a2ebc	-6.339794e-07
85	0xb67774c0	-3.6873826e-06
86	0xb42439d0	-1.5294722e-07
87	0x37223750	9.668831e-06
88	0xb602ced2	-1.9491895e-06
89	0xb5903fd6	-1.0747415e-06
90	0x3611491c	2.164924e-06
91	0x36737786	3.6279393e-06
92	0xb62b71b6	-2.5547174e-06
93	0x36b4de26	5.3902795e-06
94	0x37819702	1.5448317e-05
95	0x360da9dc	2.1109508e-06
96	0x35a5b778	1.2346854e-06
97	0x371361f5	8.78469e-06
98	0x372faf66	1.0471651e-05
99	0x339abf60	7.205995e-08
100	0xb70f71cc	-8.54996e-06
101	0xb7c33880	-2.3272121e-05
102	0xb470b670	-2.2418112e-07
103	0x35e2b4ca	1.6890929e-06
104	0x37627590	1.3498022e-05
105	0xb669833e	-3.4796099e-06
106	0xb6733594	-3.6241008e-06
107	0xb69eb632	-4.7299773e-06
108	0xb6221274	-2.4150622e-06
109	0xb5bcfe74	-1.4081147e-06
110	0xb6b68ec2	-5.440642e-06
111	0x32fc0b00	2.9341663e-08
112	0x35a02d60	1.1934135e-06
113	0x34115030	1.353335e-07
114	0xb67b747f	-3.7469724e-06
115	0xb639bcde	-2.7677083e-06
116	0xb8157e7f	-3.5642177e-05
117	0xb5e46ac8	-1.7018401e-06
118	0xb802fee7	-3.123181e-05
119	0x36706eaa	3.5827202e-06
120	0x36df0e9b	6.647618e-06
121	0x32aaf0c0	1.9900085e-08
122	0x360d0c04	2.1017631e-06
123	0x35e8c0a1	1.7341409e-06
124	0xb5bec0a6	-1.4212171e-06
125	0x3657d704	3.2162652e-06
126	0x35605041	8.356329e-07
127	0xb595bd1a	-1.1156401e-06
128	0x386ed946	5.6945973e-05
129	0xb6cf9370	-6.1862447e-06
130	0xb6a7d584	-5.0018443e-06
131	0xb68f400a	-4.2691872e-06
132	0x37309d92	1.0527105e-05
133	0x38408f91	4.5910074e-05
134	0x3643bbf4	2.9166667e-06
135	0x38612d44	5.3686337e-05
136	0x3981c750	0.00024753297
137	0x37980e9f	1.812662e-05
138	0xb73680a7	-1.0878e-05
139	0xb84bc677	-4.8583806e-05
140	0x3791043e	1.7287322e-05
141	0xb992877e	-0.0002794824
142	0xb8159e09	-3.567155e-05
143	0x35969ba0	1.1221164e-06
144	0x384b78e6	4.8511567e-05
145	0x383058e1	4.2044445e-05
146	0x3698ca3c	4.553496e-06
147	0x3683d8bc	3.9293354e-06
148	0x37adbcd5	2.0711139e-05
149	0xb671eda8	-3.6050133e-06
150	0x38079124	3.232168e-05
151	0x361fc5e0	2.3808025e-06
152	0x3559f170	8.119014e-07
153	0xb8184b26	-3.630961e-05
154	0x36ad5e5e	5.1667876e-06
155	0xb83d9b30	-4.520564e-05
156	0xb7b5c8eb	-2.1670441e-05
157	0xb8099be0	-3.2808515e-05
158	0x38500547	4.959598e-05
159	0x36c198cb	5.7696357e-06
160	0x384a1dd9	4.818835e-05
161	0x380eb6c0	3.4025637e-05
162	0xb781b312	-1.5461384e-05
163	0x379d7500	1.877034e-05
164	0xb6e43bd4	-6.8018944e-06
165	0x388b7515	6.649845e-05
166	0x360b8806	2.079179e-06
167	0x378206ea	1.5500427e-05
168	0xb74e8624	-1.2309789e-05
169	0x371b2014	9.246189e-06
170	0xb67f0860	-3.8002836e-06
171	0xb80d3b11	-3.367203e-05
172	0xb782646c	-1.554397e-05
173	0x36883520	4.0593004e-06
174	0xb81f016a	-3.790987e-05
175	0x37aac044	2.035511e-05
176	0x385a06df	5.198165e-05
177	0xb69c8114	-4.664189e-06
178	0x348c2e00	2.6110501e-07
179	0xb86b5d0e	-5.611503e-05
180	0xb7089056	-8.1398375e-06
181	0xb5216840	-6.012888e-07
182	0xb8b6284c	-8.685942e-05
183	0x372a3f90	1.0147589e-05
184	0xb8c5bd90	-9.429001e-05
185	0xb8571954	-5.1283583e-05
186	0xb5c7a780	-1.4875404e-06
187	0x37b810f2	2.19424e-05
188	0xb5ffacf8	-1.9049321e-06
189	0x3958d36a	0.00020678123
190	0x36b6c01b	5.4463867e-06
191	0xb8327568	-4.254785e-05
192	0x362367fc	2.434942e-06
193	0x35429591	7.248828e-07
194	0xb678f0b0	-3.7094978e-06
195	0x342fc04c	1.6368102e-07
196	0xb4277aa8	-1.5597709e-07
197	0x35d3e74b	1.578804e-06
198	0xb04941c0	-7.321681e-10
199	0xb5fbca5a	-1.8759849e-06
200	0xb79285c4	-1.7466846e-05
201	0x35bfa366	1.4278164e-06
202	0x341b2f68	1.4452746e-07
203	0xb5a4434e	-1.223854e-06
204	0x35b09fc8	1.3159524e-06
205	0x379b0808	1.848118e-05
206	0xb60f0247	-2.1309986e-06
207	0x36817134	3.857678e-06
208	0xb690e51e	-4.318207e-06
209	0xb63b632d	-2.79229e-06
210	0x334a3333	4.7078355e-08
211	0xb5bb4b92	-1.395458e-06
212	0xb59592fd	-1.1144144e-06
213	0x34e328b2	4.2311655e-07
214	0xb4c3a688	-3.6442748e-07
215	0xb661bc57	-3.363724e-06
216	0xb50b8f04	-5.198965e-07
217	0x36285015	2.5080565e-06
218	0x35ed6fb8	1.769039e-06
219	0x33859285	6.219947e-08
220	0x3522ef20	6.0697676e-07
221	0xb632ef3b	-2.6663317e-06
222	0x3695db96	4.466109e-06
223	0x3334cfdf	4.2098574e-08
224	0x36280f72	2.5042941e-06
225	0x3547d8fe	7.444904e-07
226	0x36940441	4.411239e-06
227	0xb577ab80	-9.2264236e-07
228	0x33a8048e	7.823938e-08
229	0x36bd1b18	5.635793e-06
230	0x3508e98c	5.1003803e-07
231	0x35e7cf2a	1.7271134e-06
232	0xb6962006	-4.4740764e-06
233	0x33906550	6.723951e-08
234	0x3684b460	3.954905e-06
235	0xb525266c	-6.15232e-07
236	0xb636bd6a	-2.7230367e-06
237	0x33206cfe	3.735203e-08
238	0xb48a833e	-2.5799994e-07
239	0xb281a6a8	-1.5093363e-08
240	0x368a00bc	4.112806e-06
241	0xb4202867	-1.491586e-07
242	0xb6856964	-3.975978e-06
243	0xb651c029	-3.1255279e-06
244	0xb71b4aad	-9.256107e-06
245	0xb2b545d6	-2.1102931e-08
246	0xb67dd3a4	-3.782313e-06
247	0xb3830488	-6.100987e-08
248	0xb78918d1	-1.6343229e-05
249	0xb619d4c7	-2.292263e-06
250	0x34adcf00	3.2374373e-07
251	0x350aee10	5.175543e-07
252	0x336e9385	5.554786e-08
253	0xb78484c8	-1.5797457e-05
254	0xb3535906	-4.9208232e-08
255	0xb615023e	-2.2204035e-06

bias_ih_l0 f4 [256]
0	0xb9e05912	-0.00042790972
1	0x37c6023e	2.3604483e-05
2	0x39cd85d4	0.00039200357
3	0xb82cf83a	-4.1239175e-05
4	0xb8a677c8	-7.937808e-05
5	0x39bcf929	0.00036043793
6	0xb4c1b644	-3.6081667e-07
7	0x39c7603a	0.00038027932
8	0x3c76082b	0.015016596
9	0xb891b61d	-6.94806e-05
10	0x3a0e5cc2	0.0005430692
11	0xb9fd8bd4	-0.000483601
12	0xb8171989	-3.6024987e-05
13	0x3c785eef	0.015159353
14	0xb9b419e0	-0.00034351554
15	0x3885aebe	6.3744825e-05
16	0xba5a407e	-0.000832565
17	0x3a26ad8e	0.0006358259
18	0xb6db6823	-6.5388317e-06
19	0x397f1e1e	0.00024329915
20	0x38903ea5	6.8781235e-05
21	0xba085f84	-0.0005202221
22	0xba39979f	-0.0007079783
23	0x390e4d8e	0.00013571067
24	0xb9998567	-0.00029281827
25	0x39bfe495	0.00036600666
26	0xb7dc157e	-2.6236052e-05
27	0x39dd2255	0.00042177984
28	0x39eec9d5	0.00045545274
29	0xb9154f2a	-0.00014239238
30	0x3d60d39a	0.0548893
31	0xb7dcf1ab	-2.633858e-05
32	0xb97c8360	-0.00024081534
33	0xb98964d8	-0.0002620581
34	0x38525f81	5.0156847e-05
35	0xb9ed16a2	-0.00045221025
36	0xb944d93d	-0.00018772944
37	0x3d8c03a0	0.06836629
38	0xb83ebef8	-4.5477384e-05
39	0xb87d8096	-6.0439655e-05
40	0xb9653797	-0.0002185985
41	0xb71db6a0	-9.40045e-06
42	0xba68cf6e	-0.0008881007
43	0x39adee24	0.0003317456
44	0x36e1d800	6.7306682e-06
45	0xb7fdc36c	-3.025095e-05
46	0xb9f55d33	-0.0004679948
47	0xb95243ab	-0.00020052369
48	0xbb0eb4ec	-0.0021775318
49	0xb88a4537	-6.593245e-05
50	0xba687ddc	-0.0008868852
51	0x3a14aa57	0.00056711346
52	0x3d9e5a40	0.077320576
53	0xb89406b4	-7.0584385e-05
54	0x3ccd11e7	0.02503295
55	0xb7a8c080	-2.01168e-05
56	0x3c158e3f	0.009128152
57	0x39e88ae8	0.00044353982
58	0xb9c16d69	-0.00036893346
59	0x37f4fe3e	2.9205457e-05
60	0xb6eadc61	-6.999399e-06
61	0x3c2cfdb7	0.010558537
62	0xb70c4c6a	-8.362442e-06
63	0x39698280	0.00022269227
64	0x3a001586	0.000488602
65	0x383d3f2e	4.5119952e-05
66	0xb960425a	-0.00021387023
67	0xb7635264	-1.3549437e-05
68	0xb80ce5d7	-3.3592656e-05
69	0xb89b933b	-7.4184e-05
70	0x343c7eae	1.755495e-07
71	0x3994e7a9	0.0002840136
72	0x3ca3b780	0.01998496
73	0xb8b8e63d	-8.816689e-05
74	0x382e285c	4.152242e-05
75	0x3a101590	0.0005496377
76	0xb854fc43	-5.0779676e-05
77	0x3ca6bead	0.020354593
78	0x39d5d2d2	0.000407836
79	0x39fe4b67	0.00048502834
80	0x38a330a6	7.781507e-05
81	0x39ed0440	0.0004520733
82	0x36ae338e	5.191606e-06
83	0x38f73422	0.00011787588
84	0xb86c96a8	-5.6407094e-05
85	0xb95d2b1e	-0.00021092265
86	0x39d719de	0.00041027268
87	0x39c91555	0.000383536
88	0x394c6aa1	0.00019494678
89	0x39b89b88	0.00035211095
90	0x3723db6c	9.766645e-06
91	0xb9872ce2	-0.00025782647
92	0xba1ed233	-0.0006058544
93	0x39054560	0.00012709713
94	0x3d546468	0.051853567
95	0xb6f00c1b	-7.1539666e-06
96	0x39fc28fd	0.00048095724
97	0xb8984103	-7.260034e-05
98	0xba2c129a	-0.0006564051
99	0xb8209e5c	-3.8294456e-05
100	0xb8b06bec	-8.412436e-05
101	0x3dc052a9	0.09390766
102	0x38754582	5.8477286e-05
103	0x38688a6a	5.544202e-05
104	0xba352f8c	-0.0006911687
105	0x3740c5c7	1.149014e-05
106	0x3a8fe79b	0.0010979058
107	0x38aa8356	8.130695e-05
108	0x39c3000a	0.00037193327
109	0xb7094978	-8.182942e-06
110	0xb91cc154	-0.0001494934
111	0xb89ea628	-7.564976e-05
112	0xba2dc6b4	-0.00066290353
113	0xb7e6e72a	-2.752578e-05
114	0x3a1d8d9d	0.0006010177
115	0x39567dc7	0.00020455486
116	0x3d92bc9b	0.0716488
117	0xb7de70cb	-2.6516986e-05
118	0x3bc18985	0.005906286
119	0xb4fc9e00	-4.7053618e-07
120	0x3bfd9a75	0.00773936
121	0x38837bfe	6.269662e-05
122	0xb9070bc3	-0.00012878985
123	0xb89f0d5e	-7.584201e-05
124	0x371aec3c	9.234118e-06
125	0x3c70db98	0.014700793
126	0x36b69ee3	5.4425195e-06
127	0x387c7d79	6.0198337e-05
128	0xbad38a7b	-0.0016139293
129	0x39c68182	0.00037861994
130	0x3abf6f1c	0.0014605257
131	0xba44e69c	-0.000751117
132	0x3a076ac4	0.00051657506
133	0x3a392ca6	0.0007063843
134	0x3869d6ad	5.575146e-05
135	0x3a5a4231	0.00083259033
136	0x3d081187	0.03321984
137	0xba4daab4	-0.0007845566
138	0xba79b55f	-0.00095256226
139	0xbad0dcea	-0.0015934978
140	0xba4ecc6b	-0.0007888737
141	0xbd06c71d	-0.032904733
142	0x3ae42cae	0.0017408335
143	0x3ab1606a	0.0013532762
144	0x3a09da6b	0.0005258682
145	0xbb19f03c	-0.0023489138
146	0xb9b3865b	-0.00034241643
147	0x39f03e8f	0.00045822977
148	0xb8c75ec0	-9.506708e-05
149	0xb99530e5	-0.00028455924
150	0x381e8cbf	3.7801216e-05
151	0x3afa6a35	0.0019105138
152	0x39072d1a	0.00012891405
153	0x3b07b848	0.0020709205
154	0xba81aef1	-0.0009894056
155	0x3aecda26	0.0018070384
156	0x394b22bb	0.00019372527
157	0x3a8c933a	0.0010725029
158	0xbdd26f47	-0.10275131
159	0xb9bee880	-0.0003641285
160	0x3ab480f6	0.0013771344
161	0x360f5800	2.1359883e-06
162	0x3b2c66ec	0.0026306463
163	0xba373446	-0.00069886853
164	0xb9f3152e	-0.00046364352
165	0xbd57cec1	-0.05268741
166	0x3a6600bc	0.0008773913
167	0x3aaad14b	0.0013032345
168	0xbb50ec59	-0.0031879155
169	0xba0e5961	-0.00054301886
170	0x3b8d7529	0.004316945
171	0xbaa11ec4	-0.0012292494
172	0x3aa2f0e8	0.0012431415
173	0xb9d4b86e	-0.00040573202
174	0x39f59158	0.0004683833
175	0x39d611a4	0.00040830404
176	0xba122c6e	-0.00055760785
177	0x3a0cd8f3	0.0005372904
178	0x3aa71820	0.0012748279
179	0xbb2404a8	-0.002502719
180	0x3dea4388	0.11438662
181	0x39d5a028	0.00040745852
182	0x3d931633	0.071819685
183	0x3a231b71	0.00062220456
184	0x3c801a21	0.01563746
185	0xbaddb785	-0.0016915655
186	0xba0cf36e	-0.000537685
187	0xb99f2a57	-0.0003035839
188	0xb9dc106c	-0.00041973905
189	0xbb37ae2f	-0.0028027405
190	0x39c60e0a	0.00037775963
191	0x3aa6447e	0.0012685207
192	0xb9e882d9	-0.00044347977
193	0x37ac059e	2.0506614e-05
194	0x39d0f963	0.0003985866
195	0xb834ecb8	-4.3135806e-05
196	0xb8a982c7	-8.082907e-05
197	0x39c09a5e	0.00036736106
198	0xb4c194b9	-3.605726e-07
199	0x39c00387	0.00036623722
200	0x3cbd3032	0.02309427
201	0xb8937fe8	-7.0333306e-05
202	0x3a0e3bf4	0.0005425804
203	0xba060e60	-0.00051138364
204	0xb81f1fa4	-3.793802e-05
205	0x3cc2b2bf	0.023766873
206	0xb9c3da76	-0.00037356064
207	0x389c4e0c	7.453197e-05
208	0xba56a94c	-0.00081886793
209	0x3a211c35	0.0006145866
210	0xb6e6971d	-6.872126e-06
211	0x397a6137	0.00023878073
212	0x388f3d36	6.830173e-05
213	0xba0a2b2e	-0.00052707165
214	0xba3eb2d6	-0.00072745734
215	0x38fac7c0	0.00011958135
216	0xb9999767	-0.00029295238
217	0x39c3cbea	0.00037345226
218	0xb7ea82c2	-2.7955863e-05
219	0x39d88cba	0.0004130358
220	0x3a00a067	0.00049067143
221	0xb921e047	-0.00015437706
222	0x3d79c486	0.060978435
223	0xb7e0f8d5	-2.6818752e-05
224	0xb97bc20a	-0.0002400951
225	0xb98cd332	-0.00026860234
226	0x38881ba2	6.4901324e-05
227	0xb9db6878	-0.0004184877
228	0xb9474c23	-0.00019006482
229	0x3d9c1596	0.07621305
230	0xb842fe7a	-4.6490204e-05
231	0xb884b3eb	-6.327763e-05
232	0xb95800d5	-0.00020599675
233	0xb7302c62	-1.0500751e-05
234	0xba6fe76a	-0.000915161
235	0x39b2decf	0.0003411681
236	0xb744d6a0	-1.1732482e-05
237	0xb801a06a	-3.0905394e-05
238	0xb9f9f2ba	-0.00047673826
239	0xb9557889	-0.00020358166
240	0xbb13cd22	-0.0022552689
241	0xb88d1dca	-6.7289526e-05
242	0xba6ca09c	-0.0009026618
243	0x3a16b1c0	0.0005748533
244	0x3da7fed4	0.082029015
245	0xb89656a9	-7.168699e-05
246	0x3cc600a4	0.024170227
247	0xb7b3475a	-2.1371688e-05
248	0x3bf7f3d8	0.0075669102
249	0x39e6f6c7	0.00044052882
250	0xb9c4dbfa	-0.00037547929
251	0x380395d8	3.1372387e-05
252	0xb6fe4431	-7.5777284e-06
253	0x3c852d3d	0.016256923
254	0xb7139246	-8.79594e-06
255	0x39665b4b	0.00021968519

bias_hh_l0 f4 [256]
0	0xb9e05930	-0.0004279106
1	0x37c601fe	2.3604367e-05
2	0x39cd85db	0.00039200377
3	0xb82cf84a	-4.1239233e-05
4	0xb8a677d8	-7.9378195e-05
5	0x39bcf91b	0.00036043752
6	0xb4c1b644	-3.6081667e-07
7	0x39c76044	0.0003802796
8	0x3c760841	0.015016616
9	0xb891b633	-6.948076e-05
10	0x3a0e5cbc	0.00054306886
11	0xb9fd8bdb	-0.0004836012
12	0xb817195c	-3.6024823e-05
13	0x3c785ef2	0.0151593555
14	0xb9b419fc	-0.00034351635
15	0x3885ae4e	6.374401e-05
16	0xba5a4089	-0.00083256565
17	0x3a26ad92	0.00063582615
18	0xb6db6802	-6.5388167e-06
19	0x397f1e08	0.00024329883
20	0x38903ea8	6.878126e-05
21	0xba085f8d	-0.00052022265
22	0xba399782	-0.00070797664
23	0x390e4d50	0.00013570976
24	0xb999856d	-0.00029281844
25	0x39bfe486	0.00036600622
26	0xb7dc1568	-2.6236012e-05
27	0x39dd2269	0.00042178042
28	0x39eec9d7	0.0004554528
29	0xb9154fce	-0.00014239477
30	0x3d60d398	0.05488929
31	0xb7dcf1ac	-2.6338581e-05
32	0xb97c8369	-0.00024081547
33	0xb98964bf	-0.00026205738
34	0x38525fe4	5.0157207e-05
35	0xb9ed1675	-0.00045220894
36	0xb944d942	-0.00018772951
37	0x3d8c03a0	0.06836629
38	0xb83ebef2	-4.547736e-05
39	0xb87d80a0	-6.0439692e-05
40	0xb9653718	-0.00021859666
41	0xb71db64f	-9.400376e-06
42	0xba68cf7e	-0.00088810164
43	0x39adee16	0.0003317452
44	0x36e1d580	6.730377e-06
45	0xb7fdc363	-3.0250934e-05
46	0xb9f55d49	-0.00046799544
47	0xb95243ac	-0.0002005237
48	0xbb0eb4ea	-0.0021775314
49	0xb88a4544	-6.5932545e-05
50	0xba687dec	-0.00088688615
51	0x3a14aa61	0.00056711404
52	0x3d9e5a3f	0.07732057
53	0xb89406b3	-7.058438e-05
54	0x3ccd11e8	0.025032952
55	0xb7a8c068	-2.0116757e-05
56	0x3c158e43	0.009128156
57	0x39e88ad6	0.0004435393
58	0xb9c16d77	-0.00036893386
59	0x37f4fe32	2.9205436e-05
60	0xb6eadc13	-6.9993634e-06
61	0x3c2cfdb9	0.010558539
62	0xb70c4c5e	-8.362431e-06
63	0x3969827a	0.00022269218
64	0x3a001584	0.00048860186
65	0x383d3f38	4.511999e-05
66	0xb9604282	-0.00021387081
67	0xb7635244	-1.3549408e-05
68	0xb80ce5df	-3.3592685e-05
69	0xb89b9338	-7.4183976e-05
70	0x343c7ec3	1.755498e-07
71	0x3994e796	0.00028401305
72	0x3ca3b782	0.019984964
73	0xb8b8e622	-8.816669e-05
74	0x382e2872	4.15225e-05
75	0x3a10158e	0.0005496376
76	0xb854fc87	-5.0779923e-05
77	0x3ca6bea9	0.020354586
78	0x39d5d2c3	0.00040783556
79	0x39fe4b20	0.00048502628
80	0x38a33022	7.781411e-05
81	0x39ed0452	0.00045207381
82	0x36ae3398	5.1916104e-06
83	0x38f7343c	0.00011787607
84	0xb86c96ad	-5.6407112e-05
85	0xb95d2b0a	-0.00021092236
86	0x39d719e5	0.00041027289
87	0x39c91549	0.00038353566
88	0x394c6a9a	0.00019494668
89	0x39b89baa	0.00035211194
90	0x3723db3c	9.766602e-06
91	0xb9872ce1	-0.00025782644
92	0xba1ed23a	-0.0006058548
93	0x3905455c	0.00012709707
94	0x3d546469	0.05185357
95	0xb6f00c21	-7.1539694e-06
96	0x39fc28ee	0.0004809568
97	0xb8984122	-7.260057e-05
98	0xba2c12a7	-0.0006564059
99	0xb8209ff8	-3.8295955e-05
100	0xb8b06bf4	-8.412442e-05
101	0x3dc052aa	0.09390767
102	0x3875458c	5.8477322e-05
103	0x38688a59	5.5441957e-05
104	0xba352f8b	-0.00069116865
105	0x3740c5b8	1.1490127e-05
106	0x3a8fe7a8	0.0010979073
107	0x38aa8342	8.13068e-05
108	0x39c30018	0.00037193368
109	0xb7094980	-8.182949e-06
110	0xb91cc13b	-0.00014949303
111	0xb89ea628	-7.564976e-05
112	0xba2dc6c0	-0.00066290423
113	0xb7e6e722	-2.7525766e-05
114	0x3a1d8da0	0.00060101785
115	0x39567dd3	0.00020455504
116	0x3d92bc9c	0.07164881
117	0xb7de70ce	-2.6516991e-05
118	0x3bc18961	0.0059062694
119	0xb4fc9c50	-4.705239e-07
120	0x3bfd9a7a	0.0077393623
121	0x38837bd2	6.26963e-05
122	0xb9070bc8	-0.00012878992
123	0xb89f0d63	-7.584204e-05
124	0x371aec3a	9.234116e-06
125	0x3c70db9f	0.014700799
126	0x36b69edc	5.4425163e-06
127	0x387c7d3f	6.0198126e-05
128	0xbad38a6b	-0.0016139274
129	0x39c68186	0.00037862005
130	0x3abf6f56	0.0014605324
131	0xba44e69a	-0.0007511169
132	0x3a076abc	0.0005165746
133	0x3a392cb8	0.00070638536
134	0x3869d6ca	5.5751567e-05
135	0x3a5a423e	0.0008325911
136	0x3d081187	0.03321984
137	0xba4daaf4	-0.00078456034
138	0xba79b4fa	-0.0009525564
139	0xbad0dd21	-0.0015935042
140	0xba4ecc7e	-0.0007888748
141	0xbd06c71f	-0.03290474
142	0x3ae42c8a	0.0017408293
143	0x3ab1606b	0.0013532763
144	0x3a09da77	0.0005258689
145	0xbb19f048	-0.0023489166
146	0xb9b38655	-0.00034241626
147	0x39f03e5d	0.0004582283
148	0xb8c75fae	-9.506881e-05
149	0xb9953143	-0.00028456197
150	0x381e8e94	3.780292e-05
151	0x3afa6a4a	0.0019105163
152	0x39072dc9	0.0001289166
153	0x3b07b839	0.002070917
154	0xba81aed6	-0.0009894024
155	0x3aecd9ff	0.0018070339
156	0x394b2499	0.00019373222
157	0x3a8c936e	0.001072509
158	0xbdd1db79	-0.10246939
159	0xb9bee86d	-0.00036412795
160	0x3ab480f5	0.0013771342
161	0x360f3180	2.1337473e-06
162	0x3b2c66d9	0.002630642
163	0xba3733ee	-0.0006988634
164	0xb9f3157a	-0.00046364573
165	0xbd5e55da	-0.054281093
166	0x3a660093	0.0008773889
167	0x3aaad121	0.0013032296
168	0xbb50ec5e	-0.0031879167
169	0xba0e5942	-0.00054301706
170	0x3b8d752d	0.004316947
171	0xbaa11ef8	-0.0012292555
172	0x3aa2f100	0.0012431443
173	0xb9d4b88e	-0.00040573295
174	0x39f59112	0.00046838127
175	0x39d61170	0.00040830253
176	0xba122c8c	-0.0005576096
177	0x3a0cd904	0.0005372914
178	0x3aa7181e	0.0012748276
179	0xbb2404b7	-0.0025027224
180	0x3dfb84b8	0.122811735
181	0x39d5a04d	0.0004074596
182	0x3d9339c1	0.0718875
183	0x3a231b69	0.0006222041
184	0x3c8029f2	0.015645001
185	0xbaddb795	-0.0016915674
186	0xba0cf363	-0.00053768436
187	0xb99f2a29	-0.00030358255
188	0xb9dc107e	-0.00041973958
189	0xbb322748	-0.0027184058
190	0x39c60df0	0.00037775887
191	0x3aa644a5	0.0012685253
192	0xb9e882fa	-0.00044348073
193	0x37ac0510	2.0506355e-05
194	0x39d0f94e	0.00039858598
195	0xb834ecc7	-4.313586e-05
196	0xb8a982c6	-8.0829064e-05
197	0x39c09a75	0.00036736173
198	0xb4c194bd	-3.6057273e-07
199	0x39c00350	0.00036623562
200	0x3cbd302f	0.023094265
201	0xb8937ffe	-7.0333466e-05
202	0x3a0e3bf6	0.0005425805
203	0xba060e43	-0.00051138195
204	0xb81f1ff4	-3.7938313e-05
205	0x3cc2b2c1	0.023766877
206	0xb9c3d9f5	-0.0003735569
207	0x389c4e9c	7.453302e-05
208	0xba56a93a	-0.0008188669
209	0x3a211c35	0.0006145866
210	0xb6e6972f	-6.8721342e-06
211	0x397a6156	0.00023878118
212	0x388f3d45	6.830184e-05
213	0xba0a2b2c	-0.00052707153
214	0xba3eb2ab	-0.00072745484
215	0x38fac790	0.000119581004
216	0xb9999763	-0.00029295226
217	0x39c3cc06	0.00037345308
218	0xb7ea827e	-2.7955739e-05
219	0x39d88c9a	0.00041303487
220	0x3a00a03f	0.0004906691
221	0xb921e01b	-0.00015437642
222	0x3d79c487	0.06097844
223	0xb7e0f8ee	-2.6818798e-05
224	0xb97bc21c	-0.00024009537
225	0xb98cd32b	-0.00026860213
226	0x38881aee	6.4900014e-05
227	0xb9db685e	-0.00041848695
228	0xb9474c20	-0.00019006478
229	0x3d9c1597	0.076213054
230	0xb842fe60	-4.649011e-05
231	0xb884b3f3	-6.327769e-05
232	0xb95800e4	-0.00020599697
233	0xb7302c7d	-1.0500776e-05
234	0xba6fe768	-0.00091516087
235	0x39b2dec2	0.00034116773
236	0xb744dde0	-1.173417e-05
237	0xb801a064	-3.0905372e-05
238	0xb9f9f2b8	-0.0004767382
239	0xb955787c	-0.00020358147
240	0xbb13cd29	-0.0022552705
241	0xb88d1dd4	-6.72896e-05
242	0xba6ca09a	-0.0009026617
243	0x3a16b1bc	0.00057485304
244	0x3da7fed3	0.08202901
245	0xb896569c	-7.1686896e-05
246	0x3cc600a3	0.024170225
247	0xb7b34707	-2.1371538e-05
248	0x3bf7f3dc	0.007566912
249	0x39e6f6c9	0.00044052888
250	0xb9c4dbee	-0.00037547894
251	0x380395cb	3.137234e-05
252	0xb6fe4468	-7.5777534e-06
253	0x3c852d44	0.016256936
254	0xb7139252	-8.795951e-06
255	0x39665b46	0.00021968511

weight_ih_l1 f4 [256, 64]
0	0x2d2ccad0	9.8221015e-12
1	0x2b3b6438	6.6574827e-13
2	0x2e074bb4	3.0762684e-11
3	0xb8143a92	-3.5340498e-05
4	0x355f94ca	8.329049e-07
5	0x2dfceb46	2.8753566e-11
6	0x37086c2e	8.131419e-06
7	0xb60ab20c	-2.066724e-06
8	0xafed585c	-4.3172832e-10
9	0x37b7cbad	2.1910144e-05
10	0xac8719ac	-3.839781e-12
11	0xad845e7b	-1.504862e-11
12	0xb8415e12	-4.6102396e-05
13	0x300f7f25	5.220378e-10
14	0xae1500a2	-3.387924e-11
15	0xae555440	-4.8505422e-11
16	0x3708a7e8	8.145325e-06
17	0xaef0d915	-1.0952498e-10
18	0x32a7162b	1.945144e-08
19	0x318e6a7c	4.14485e-09
20	0xaccb9f90	-5.787322e-12
21	0xb4808e41	-2.394536e-07
22	0xadf9d6e3	-2.8403451e-11
23	0xae76aad8	-5.6085664e-11
24	0xae61469c	-5.122179e-11
25	0xae7ae412	-5.7045986e-11
26	0xae82a202	-5.940494e-11
27	0x2d85c468	1.5207571e-11
28	0x2d0a2aa6	7.853862e-12
29	0x37919492	1.735453e-05
30	0xafd833df	-3.9327028e-10
31	0x344dbf3a	1.916168e-07
32	0xad101174	-8.189328e-12
33	0xaf085b70	-1.2401613e-10
34	0xb864614c	-5.445005e-05
35	0x2e0696f0	3.0602132e-11
36	0x36fd65d0	7.55184e-06
37	0x2f071422	1.2285331e-10
38	0xadfe53a4	-2.89136e-11
39	0xad3e5a8e	-1.0820357e-11
40	0xae6127e5	-5.119451e-11
41	0x38061232	3.1965035e-05
42	0xaebe0fa5	-8.642979e-11
43	0x2db3f314	2.0457892e-11
44	0x2efef7dc	1.15946114e-10
45	0xb50f0404	-5.3277495e-07
46	0xb8e77334	-0.000110363966
47	0x3111e5f7	2.1230997e-09
48	0xadea244a	-2.6618836e-11
49	0x3506266f	4.997482e-07
50	0xad650478	-1.3018135e-11
51	0xae023036	-2.9601398e-11
52	0x2f6da2c6	2.1612853e-10
53	0x35025f8e	4.8567824e-07
54	0x2f9d18d9	2.857579e-10
55	0x2e3dbd97	4.3142014e-11
56	0x2e9f758a	7.251362e-11
57	0xacc454e0	-5.580078e-12
58	0x350fd718	5.3584654e-07
59	0x2d5ab5f0	1.24322636e-11
60	0xaddca93c	-2.508626e-11
61	0xb02a4601	-6.194512e-10
62	0x3798b31b	1.8203214e-05
63	0xb409b558	-1.2825092e-07
64	0x34d12bc2	3.8961122e-07
65	0xb58230c3	-9.699946e-07
66	0xb6eaf09e	-7.001755e-06
67	0x382aab92	4.0690946e-05
68	0xb87e73c2	-6.0666127e-05
69	0xb39dad3c	-7.3423934e-08
70	0xb1893ba8	-3.994007e-09
71	0xb82cf19f	-4.1233023e-05
72	0x33a5b120	7.71563e-08
73	0x381b9b7d	3.709969e-05
74	0xb4128e46	-1.3649068e-07
75	0x3663dbe0	3.395362e-06
76	0x380dccea	3.380786e-05
77	0xb4285fe0	-1.5681098e-07
78	0x38167bd1	3.58781e-05
79	0x36f1f472	7.210817e-06
80	0x34c93088	3.747448e-07
81	0xb6fa3d50	-7.4577183e-06
82	0x3894372e	7.067468e-05
83	0xb24de960	-1.1985634e-08
84	0x385ffd63	5.3403328e-05
85	0x348c80a0	2.617062e-07
86	0x329c99c1	1.823071e-08
87	0xb8467c37	-4.7322563e-05
88	0xb406bbfc	-1.2548111e-07
89	0x36a54634	4.925556e-06
90	0x3392279e	6.805861e-08
91	0xb3831466	-6.103873e-08
92	0x35107d32	5.3826363e-07
93	0x37d23eec	2.5063251e-05
94	0xb5402e3e	-7.1592865e-07
95	0xb2131810	-8.561997e-09
96	0xb35b0050	-5.0990195e-08
97	0xb2d26644	-2.4493723e-08
98	0xb53fcfae	-7.145526e-07
99	0xb7df1e78	-2.659786e-05
100	0xb83cbe72	-4.500006e-05
101	0x35f5f9c6	1.8326616e-06
102	0x333c461e	4.3835932e-08
103	0xb30d3436	-3.2876606e-08
104	0x34d0025e	3.8744741e-07
105	0x32dda1e7	2.580141e-08
106	0x352ab2a0	6.358987e-07
107	0x37ff4804	3.0431904e-05
108	0xb8264696	-3.9643222e-05
109	0xb86dee00	-5.6726858e-05
110	0x32d02848	2.4232705e-08
111	0x3769e8c1	1.39420745e-05
112	0xb81811be	-3.6256148e-05
113	0x35e99e46	1.7405916e-06
114	0xb810899f	-3.4460445e-05
115	0x33419a00	4.5076376e-08
116	0x35e48612	1.7026343e-06
117	0x327aa6e0	1.4589858e-08
118	0x33dd54a8	1.0306513e-07
119	0x35496730	7.502849e-07
120	0x33834e2e	6.114384e-08
121	0xb7d41ef4	-2.5286783e-05
122	0x3817c56a	3.618506e-05
123	0xb3c6599e	-9.236395e-08
124	0xb7fa5f52	-2.984671e-05
125	0xb3a9bb40	-7.903736e-08
126	0xb4b7226c	-3.4111451e-07
127	0xb3854ebc	-6.207617e-08
128	0xb838f132	-4.409365e-05
129	0xb814dbc0	-3.5490608e-05
130	0xb72c7fe8	-1.0281779e-05
131	0xb6203380	-2.3871835e-06
132	0x368f4494	4.2697156e-06
133	0xb76c7e55	-1.409611e-05
134	0x37791056	1.484536e-05
135	0xb802d516	-3.1192867e-05
136	0x3a147856	0.00056636834
137	0xb735d98f	-1.0839095e-05
138	0xb74c923e	-1.2193397e-05
139	0xb78d913b	-1.6876138e-05
140	0xb78b681f	-1.6618576e-05
141	0xba12fc34	-0.0005607039
142	0xb73da280	-1.1303113e-05
143	0x37002bcc	7.639592e-06
144	0xb814d06a	-3.548005e-05
145	0xb851f0e5	-5.0053834e-05
146	0xb634670c	-2.6882071e-06
147	0xb69a256c	-4.593914e-06
148	0x34a89240	3.139885e-07
149	0x37c62c8a	2.362418e-05
150	0x381e0f0f	3.768416e-05
151	0x383288ae	4.25658e-05
152	0x379636a7	1.7906843e-05
153	0xb816472b	-3.5829067e-05
154	0x361b517e	2.3144235e-06
155	0xb74b1a80	-1.2105913e-05
156	0xb8040aa8	-3.1481177e-05
157	0xb7941536	-1.7652852e-05
158	0xb99d39f8	-0.00029988564
159	0x36c414e4	5.843687e-06
160	0x35acfe30	1.2888977e-06
161	0xb6068360	-2.0044026e-06
162	0xb8326740	-4.2534666e-05
163	0xb6907294	-4.304873e-06
164	0xb5f358d8	-1.8130768e-06
165	0x39168def	0.00014357989
166	0xb6634e60	-3.3871256e-06
167	0xb73844c0	-1.0983262e-05
168	0xb89989eb	-7.321298e-05
169	0x35201ef8	5.964971e-07
170	0xb80f4cb0	-3.4165278e-05
171	0xb70cec90	-8.399729e-06
172	0x3784c700	1.5828293e-05
173	0x367dfab7	3.7845873e-06
174	0xb664c6dc	-3.40904e-06
175	0x367d3e60	3.7736245e-06
176	0xb8f86515	-0.000118443895
177	0x3666e124	3.440372e-06
178	0xb6bdcf34	-5.6567605e-06
179	0x383c33ec	4.487105e-05
180	0xb77aab20	-1.4941004e-05
181	0xb600a92a	-1.9171953e-06
182	0xb92010b3	-0.0001526501
183	0x3760a976	1.3390896e-05
184	0x38f40120	0.00011635036
185	0x37588761	1.2906124e-05
186	0x365a61dc	3.2541493e-06
187	0x37c344b4	2.3277804e-05
188	0x370eabda	8.503872e-06
189	0x3a1ebab4	0.00060550426
190	0xb704f9bf	-7.925962e-06
191	0xb741ca0c	-1.1550739e-05
192	0x2fd21db0	3.8219872e-10
193	0xaf5d8fa8	-2.015087e-10
194	0xb02d4900	-6.304077e-10
195	0x36fd29b0	7.5448406e-06
196	0x38b21dd5	8.493258e-05
197	0x2ea8552a	7.654884e-11
198	0x37726078	1.4446785e-05
199	0xb54dce9e	-7.666912e-07
200	0xb15ab030	-3.1823326e-09
201	0xb5b6d2a0	-1.3621357e-06
202	0x3645cb9e	2.9473808e-06
203	0xafa6022c	-3.0196767e-10
204	0x37d321c2	2.516888e-05
205	0x311808f0	2.2123992e-09
206	0xb06160b0	-8.1991924e-10
207	0x30114b23	5.285747e-10
208	0xb0dc2f86	-1.6020614e-09
209	0x3113934d	2.1475046e-09
210	0xb59bdb4a	-1.1612221e-06
211	0x37c5d228	2.3582092e-05
212	0x2f8601d2	2.4375751e-10
213	0xb5f5b9f5	-1.8308043e-06
214	0x2dc7f930	2.2734342e-11
215	0xb0a71602	-1.2157104e-09
216	0x2ea63b70	7.559364e-11
217	0xb086d51e	-9.810355e-10
218	0xb010f530	-5.2735327e-10
219	0x2ee0199d	1.01908905e-10
220	0x2f0e0ab0	1.2918622e-10
221	0x30498438	7.331127e-10
222	0x30cda738	1.496324e-09
223	0x358989c0	1.0247386e-06
224	0xb02c44c0	-6.2670935e-10
225	0xb30af0bc	-3.2349575e-08
226	0x31028928	1.8995454e-09
227	0x30883734	9.910992e-10
228	0xb6fe5aa5	-7.5803423e-06
229	0xb2247d79	-9.574586e-09
230	0x2e9c1cba	7.0991615e-11
231	0x30183de8	5.538525e-10
232	0xb0b3057f	-1.3025526e-09
233	0x3862bdbf	5.4059314e-05
234	0x2daa3b80	1.9353186e-11
235	0x2fb58f6c	3.3025616e-10
236	0x307b3818	9.139298e-10
237	0xb4a275b8	-3.0260503e-07
238	0xb05ce08a	-8.0354623e-10
239	0xaf2c92ac	-1.5695417e-10
240	0x2fd7436c	3.9156178e-10
241	0x31239830	2.380613e-09
242	0xb045a642	-7.190445e-10
243	0xaf12fee0	-1.3369172e-10
244	0xb1011c97	-1.8788222e-09
245	0xaff9577d	-4.5355e-10
246	0x322abbc4	9.937995e-09
247	0x35c86f44	1.4933544e-06
248	0xb055cbe4	-7.7778695e-10
249	0x2e032c20	2.9825142e-11
250	0x308b0031	1.0113635e-09
251	0x2f62c9c4	2.0626262e-10
252	0x31045f23	1.9262607e-09
253	0x31818980	3.770026e-09
254	0x2f32c394	1.6258489e-10
255	0x321bec8c	9.075972e-09

weight_hh_l1 f4 [256, 64]
0	0xadb8ee6c	-2.1024259e-11
1	0x3599d69f	1.1461851e-06
2	0x31684d04	3.3804222e-09
3	0xad4dd814	-1.170088e-11
4	0xae164ad0	-3.4172498e-11
5	0x32fb5d97	2.9262806e-08
6	0x300af4fc	5.055225e-10
7	0x2ce03f22	6.373472e-12
8	0xb1d89cf8	-6.3042727e-09
9	0xb592e53c	-1.0944564e-06
10	0x2c98b6a0	4.3403753e-12
11	0x2f11dd3c	1.3266271e-10
12	0xad031b2c	-7.452521e-12
13	0xae3c3ee2	-4.2802102e-11
14	0x348bb1cd	2.6020135e-07
15	0x3594e720	1.1094126e-06
16	0x2bf4337c	1.7351533e-12
17	0x2d96fb02	1.7164496e-11
18	0x3423e3c4	1.5263419e-07
19	0xaa241dbc	-1.4576442e-13
20	0xabee14c8	-1.6916685e-12
21	0xaea47216	-7.478122e-11
22	0x332ca96e	4.0200966e-08
23	0xb7c3aa38	-2.3325076e-05
24	0x2eb21832	8.098801e-11
25	0xad1ace5c	-8.7997075e-12
26	0x32e50bc9	2.6664468e-08
27	0xaebd8073	-8.617542e-11
28	0x2cabe82d	4.885889e-12
29	0x2cb769e2	5.212928e-12
30	0x2de0c883	2.5554897e-11
31	0xaf4cf308	-1.8640034e-10
32	0xb06c10c3	-8.588012e-10
33	0x2e14021e	3.3653184e-11
34	0xab49f178	-7.174465e-13
35	0x324562c4	1.1489366e-08
36	0x35a0724e	1.1954196e-06
37	0xacbf805e	-5.442798e-12
38	0xb1666948	-3.352925e-09
39	0xad8b260b	-1.5819365e-11
40	0x30b885d7	1.3425802e-09
41	0x378c769f	1.6744538e-05
42	0xb539fc52	-6.9285045e-07
43	0x2c9ebade	4.5113765e-12
44	0x2d12e72c	8.35047e-12
45	0xb704cd04	-7.915547e-06
46	0xb769e28e	-1.3940631e-05
47	0x2d83b738	1.4974341e-11
48	0x31622df4	3.291345e-09
49	0x349dc428	2.938625e-07
50	0x30d815f0	1.5722303e-09
51	0x33414560	4.499941e-08
52	0x2e49c7c9	4.5879554e-11
53	0xaba4ccec	-1.1709778e-12
54	0xad432b8a	-1.1094134e-11
55	0xb6f9645a	-7.4324607e-06
56	0x2bc77b70	1.4174061e-12
57	0x2ca237b4	4.6105012e-12
58	0x2da42f55	1.8665661e-11
59	0x34f2f470	4.5253864e-07
60	0xaf9428a3	-2.6949917e-10
61	0xb1419d94	-2.817477e-09
62	0xad4284c0	-1.10571e-11
63	0x3266da6f	1.3437428e-08
64	0xb3fa9740	-1.16690444e-07
65	0x31dde9aa	6.458511e-09
66	0xb40e984e	-1.3280189e-07
67	0x30e3a6ea	1.6563864e-09
68	0x31b290e8	5.1969558e-09
69	0xb51c1f5b	-5.8160157e-07
70	0xaeeba442	-1.0715741e-10
71	0xafd62c18	-3.8957704e-10
72	0x337aef90	5.842554e-08
73	0xb02660b0	-6.052785e-10
74	0x36385bc9	2.7471563e-06
75	0x333c2427	4.380504e-08
76	0xb0800422	-9.3144e-10
77	0x33c46175	9.1446886e-08
78	0xb7524b28	-1.2534474e-05
79	0x32967dca	1.75195e-08
80	0xb50b4bc1	-5.189177e-07
81	0x390b783c	0.00013300864
82	0xaebca5d0	-8.5787044e-11
83	0x327f27c0	1.4851992e-08
84	0x2d9b9786	1.768875e-11
85	0x35a5b2d4	1.2345504e-06
86	0xac64c340	-3.2509134e-12
87	0xacc3680c	-5.553785e-12
88	0x33037598	3.0607765e-08
89	0xb1def360	-6.488719e-09
90	0xb4f23e9c	-4.5121567e-07
91	0x2f318aec	1.6147411e-10
92	0xafbf41b4	-3.4789382e-10
93	0xaf7e9114	-2.3152708e-10
94	0x33d1d9b2	9.7719195e-08
95	0xb5832bae	-9.772973e-07
96	0x31fc4f23	7.343162e-09
97	0x3507df3a	5.0616256e-07
98	0xb9044c4a	-0.00012616921
99	0x2f9eedd6	2.8909025e-10
100	0x384b5147	4.8474667e-05
101	0x2f8be2d1	2.5445115e-10
102	0xb43d7d4e	-1.7647582e-07
103	0xb7065443	-8.006641e-06
104	0x33e3efd2	1.0614134e-07
105	0xb797df09	-1.8104462e-05
106	0xb6c27ca8	-5.7961624e-06
107	0xadd709c0	-2.4447e-11
108	0xb1b9d912	-5.4088867e-09
109	0x2f4d7d9d	1.8689268e-10
110	0xae79df7c	-5.681454e-11
111	0x2f03e9af	1.1997402e-10
112	0xb2fc59fa	-2.9377578e-08
113	0xb11ea3d0	-2.3085143e-09
114	0x2de14224	2.560891e-11
115	0xb3128c11	-3.4120664e-08
116	0xae8baae0	-6.351342e-11
117	0xb2b75db9	-2.1346624e-08
118	0x319a647a	4.4934128e-09
119	0x33086490	3.175643e-08
120	0x32dbf3a6	2.5605754e-08
121	0xae5ec220	-5.0649374e-11
122	0x33e1ee57	1.0520733e-07
123	0xb277d3e3	-1.442547e-08
124	0x338caa40	6.550226e-08
125	0xb38583b8	-6.2172546e-08
126	0x345cb8ab	2.0556278e-07
127	0x382cc5a0	4.119205e-05
128	0x323f581e	1.1137699e-08
129	0xb75e67f8	-1.3256438e-05
130	0x381f42c1	3.7970723e-05
131	0x338ea9fa	6.643309e-08
132	0xb4a0238a	-2.982818e-07
133	0x333b185c	4.3561485e-08
134	0x357a2da8	9.3198696e-07
135	0xb3962880	-6.992286e-08
136	0x368d2216	4.2060956e-06
137	0x31dc03d8	6.4032797e-09
138	0xb44cf3e6	-1.908771e-07
139	0x36546ac2	3.1652603e-06
140	0x37caffea	2.4199446e-05
141	0x36ef03e6	7.123209e-06
142	0xac1952a8	-2.1788491e-12
143	0xb7779360	-1.4756661e-05
144	0xb80e8320	-3.3977558e-05
145	0xb4af5e64	-3.2664968e-07
146	0xb29f536c	-1.8547972e-08
147	0xb2dd3060	-2.5749785e-08
148	0x37a713a2	1.9917094e-05
149	0xb8be2435	-9.06665e-05
150	0x2fa5c453	3.0152822e-10
151	0xb788529c	-1.6250931e-05
152	0x31967710	4.3791104e-09
153	0xb4b0c0a8	-3.292273e-07
154	0xb6902dca	-4.296865e-06
155	0x3522cafa	6.064507e-07
156	0x3626403f	2.4773324e-06
157	0xb2a47b6c	-1.9148239e-08
158	0xb7d59350	-2.5460176e-05
159	0x391976fd	0.00014635544
160	0x32db18fb	2.5506315e-08
161	0xb8e1c367	-0.000107652326
162	0x376e5320	1.42052595e-05
163	0x307f1ab9	9.2806435e-10
164	0xb6f016d4	-7.155215e-06
165	0xb1db317e	-6.3793655e-09
166	0xb62bcfa9	-2.560186e-06
167	0xb4a93d18	-3.1523155e-07
168	0xb0ce56d2	-1.5013149e-09
169	0x374f90ee	1.23719055e-05
170	0x366bd3bc	3.5140974e-06
171	0x3245cc7c	1.1513404e-08
172	0x337aac6c	5.8364478e-08
173	0x3801bd90	3.093254e-05
174	0x32ec5121	2.7510909e-08
175	0x3351698e	4.8757606e-08
176	0xb11911b9	-2.2274504e-09
177	0xb69f95a7	-4.755991e-06
178	0x2e24486b	3.7353603e-11
179	0x348290f8	2.4319866e-07
180	0xb7db75d0	-2.6161695e-05
181	0xb38aadac	-6.4577165e-08
182	0xb1c3b71e	-5.696065e-09
183	0x37351c3f	1.0795017e-05
184	0xb6387998	-2.7488913e-06
185	0x35294630	6.305954e-07
186	0xb8133014	-3.5092307e-05
187	0xb58ef778	-1.0651847e-06
188	0x37a865f9	2.0074645e-05
189	0x326a30c2	1.3631679e-08
190	0x3753fa1a	1.2634811e-05
191	0x37c61c48	2.3616609e-05
192	0xae96efcc	-6.863807e-11
193	0xade9f4d2	-2.6597755e-11
194	0x38ba0e6e	8.871859e-05
195	0x2b2f2f40	6.223806e-13
196	0xb73d8424	-1.1296044e-05
197	0x2c83f610	3.7505624e-12
198	0x381586cd	3.564991e-05
199	0xad80fccb	-1.4664178e-11
200	0x3080cea4	9.371957e-10
201	0x2bc7b275	1.4189332e-12
202	0xae46d630	-4.5210224e-11
203	0x36293537	2.5213938e-06
204	0xad939a96	-1.6780615e-11
205	0x31048b22	1.9287616e-09
206	0x2bb632ec	1.2946011e-12
207	0x2f2bab58	1.5613233e-10
208	0xae1e8338	-3.6041586e-11
209	0x2db8c5a8	2.1006155e-11
210	0x3451b5cc	1.9530779e-07
211	0xb81ed490	-3.78681e-05
212	0xad5f91f6	-1.2708492e-11
213	0xb1bc798f	-5.4853397e-09
214	0x31ac4fec	5.014945e-09
215	0xb70007dc	-7.631224e-06
216	0x2e5970ac	4.944016e-11
217	0xb62e744e	-2.5995719e-06
218	0x304b800e	7.4032946e-10
219	0x2a5f4e46	1.9833535e-13
220	0x2c1ffbf0	2.2735112e-12
221	0x2e17c11a	3.4504934e-11
222	0x2efe0947	1.1552231e-10
223	0x31ed083d	6.8985444e-09
224	0x2d0527a4	7.568977e-12
225	0xb188cf37	-3.9816785e-09
226	0x2e203b71	3.6432583e-11
227	0xb39c1832	-7.268717e-08
228	0x2fadfa17	3.1646216e-10
229	0xb1bf24b8	-5.563006e-09
230	0xb774673f	-1.4567572e-05
231	0x37ae461c	2.0775064e-05
232	0x2bfd5db1	1.8002736e-12
233	0x3849b247	4.8088168e-05
234	0x371b6aba	9.263569e-06
235	0x33ccfe28	9.545721e-08
236	0xad7ea384	-1.4474536e-11
237	0xaef34591	-1.1062718e-10
238	0xac9181a4	-4.135541e-12
239	0xac3163a0	-2.5208516e-12
240	0xab9d1288	-1.1160664e-12
241	0xaec00ac0	-8.733059e-11
242	0xb80b7ce7	-3.3256507e-05
243	0x351d6a68	5.86419e-07
244	0xb504abe5	-4.942397e-07
245	0xac7f5058	-3.628228e-12
246	0xada78996	-1.9046802e-11
247	0x3012d659	5.3419097e-10
248	0x2e633c62	5.1667455e-11
249	0x2dabb918	1.9522647e-11
250	0x30fb5c82	1.8288946e-09
251	0x2d8593da	1.5186009e-11
252	0x2eb5bfe7	8.265016e-11
253	0xb7c9ac1e	-2.4041216e-05
254	0x2f7da058	2.3067181e-10
255	0xb4b3dd3a	-3.3502312e-07
