seq2seq_ATT/AE_model.pkl (torch, 21967 bytes, 16 tensors)

encoder.1.weight f4 [32, 40]
00000000: 8db6 c03a b663 123b c4f8 a2ba 2e54 673a
00000010: 1e2b 8039 2190 533a bd5b ea3a 2fb7 0e39
00000020: 4c1b 0c3b 34cf 0e3a 3adf d1ba 326b f539
00000030: 1256 c739 27c0 c039 90ed a33a 9dc3 bc3a
00000040: 726c e23a 17b3 433a 893e 093a 7e05 7639
00000050: a349 14b6 130a e9ba 045d b0ba c4f7 46ba
00000060: 9384 22ba 8e05 4dba 4028 c8b9 a243 f797
00000070: d1cc bfba fada 9cb8 e59b efb8 8e37 56b9
00000080: cb71 46bb cda8 3100 cbb9 0d80 e2e3 a1b9
00000090: 40e9 96bb cc81 a9b3 d697 ef35 64ca e081
000000a0: f686 283c 064e 0c3d 6f36 c23c bd30 343b
000000b0: c883 ed3b 08dc c0ba 905e 403e a5c4 9dbd
000000c0: 5735 ea3d f360 0ebd 1e7a f7bd 3664 3fbc
000000d0: 8ea8 a93c b713 e4bd 5332 89bc 207d 643b
000000e0: 8f94 fb3d 3642 cd3d 3214 883d 35ae 9b3d
000000f0: f631 b03a 223f 003e fd9a ca3d d3c3 063e
00000100: 5b78 cb3d dae3 063e 888f bf3d c570 1200
00000110: decd c9bd 5424 4d3e d7d1 4d3d 725a a3bc
00000120: ed94 b3bd c8ff 3580 cbd5 3280 a4f5 613e
00000130: 5fb8 09be 0798 8abb 3236 e2bc a248 95bc
00000140: 9a86 4abd a36d e13b 7fc8 a23b 6050 6abd
00000150: 25cb 5d3c 4c84 75bd b22d d638 5140 6f3d
00000160: 1db3 4abc f3d6 f13c 2951 403d f5f4 183d
00000170: 8641 933c 2bb1 0c3c 3a99 3c3c 2cbc a33c
00000180: cbc0 9b3c 8f4d 6f3c 5f2d 573c b52a 333c
00000190: 92f2 743b 83bb 233c 5c56 ab3c 1aa4 e73c
000001a0: bdd4 c73c cd4b ee3c 4f71 b83c 9dc6 a83b
000001b0: 0875 bebc 2a72 1f3d 5f5f b33b 81e1 9ebb
000001c0: f8f4 063d e5f4 2900 5209 2600 99ed 203d
000001d0: 803a 083d 4d51 86bb 3bf6 a5bb 19aa 53bb
000001e0: 3ef1 f0bb b6c2 9ebd e7e3 8dbc 9a19 e03c
000001f0: ded9 3f3e dd8a 8a3b 10f4 933d 4cbf 873e
00000200: c900 cbbd f37f 373e 852f c6bd bd7c 163e
00000210: e3ac 503d 3b56 4f3d 8e7a 35bc ed4c 7a3d
00000220: 5c8b fa3c e629 aebc 76a1 113d 4945 d5b9
00000230: f36b 59bc 34ac 1cbd f194 323d 48c7 093a
00000240: 4351 85bc a230 bb3c cf69 c7bb 6b41 f9bd
00000250: 2dd5 a438 c9cd 8bbe 713f 06be 4366 febc
00000260: a949 1a3f ea20 2b80 5cd5 1400 43d8 b7bd
00000270: d756 92bd 2637 7cbc 4bb2 17bc 577b 32bc
00000280: c8da 8128 7933 2526 8c38 c0a5 c87c 24a8
00000290: 3299 bba7 0edd 45a8 f55d c3a7 e845 0b28
000002a0: a19b 7fa8 67fe 0ba9 a409 96a8 7ccc 6fa8
000002b0: 6b5c 8927 4708 70a7 c555 ef27 1298 10a8
000002c0: db8f 1a28 af82 04a8 9db9 a426 a88e 0928
000002d0: 6611 7c23 7626 d0a6 8df5 f8a7 4830 a624
000002e0: a6ed ea27 ea6f a5a7 f3a3 5da7 502c e027
000002f0: 9a35 d627 84a9 eda7 96d7 b9a5 00f5 f61d
00000300: 38cb b4ad 4b01 1200 9fb6 2600 0e45 4727
00000310: 3878 5cb1 e659 1625 904e 7d96 a0c7 0906
00000320: 4535 f83c 39c6 3abd 1c8d 9fbb 94b9 b83b
00000330: 7af7 8b3e e666 e6bb f331 863d 80a5 433e
00000340: c55d a33d b43d eb3d ae5c 5cbe 26fd 2e3c
00000350: bf06 26bc 4048 1cbd c176 d8bc 98f5 2abc
00000360: 3b0e 86bc a8ab c2bc 8f8f 023c cc9e 41bc
00000370: e6bd ba3b 8464 5e3d 811a 8c3d 788b 9f3d
00000380: 10cc 7d3d 5ee3 ad3d 6bb8 823d 8f37 013d
00000390: 60d4 c33d 78d6 2d3c 52e8 cf3c aec2 2d3c
000003a0: 8a57 5abd cfb9 1800 2945 0780 8c87 4e3e
000003b0: 2947 17bd accd 75bc 43fc 02bd 7016 22bc
000003c0: c4fc b1bb 300b dcba 6bd1 bdba 5fed 58bb
000003d0: 0bdd caba 9ab2 51bb 26ff fa39 f30b a13b
000003e0: e114 12bb f32e 003b 5364 d83b da8f bfba
000003f0: f417 963a 30f8 32b9 3729 de39 2352 083a
0.0014702842 0.0022337264 -0.0012433757 0.00088244944 0.00024446187 0.0008070488 0.0017880123 0.00013610416
0.0021378575 0.0005447746 -0.0016011961 0.00046809908 0.00038020365 0.00036764258 0.0012506712 0.0014401559
0.0017274751 0.0007465346 0.0005235454 0.00023462434 -2.209658e-06 -0.0017779492 -0.0013455455 -0.00075900205
-0.00061995647 -0.0007820957 -0.0003817696 -1.5979074e-24 -0.0014633184 -7.479447e-05 -0.00011425446 -0.00020429326
-0.0030280228 4.560494e-39 -1.260511e-39 -0.000308781 -0.0046054423 -7.893286e-08 1.7851078e-06 -8.257502e-38
0.010286083 0.034254096 0.023707597 0.002749487 0.0072483756 -0.0014714012 0.18786073 -0.077035226
0.11435955 -0.034760427 -0.12083839 -0.011681607 0.020710256 -0.11136573 -0.01674763 0.003486462
0.12284195 0.10022394 0.06644477 0.07601587 0.0013442624 0.12524083 0.09892843 0.13160639
0.09935065 0.13172856 0.09353548 1.693493e-39 -0.09853719 0.2003339 0.050248947 -0.019940589
-0.0876864 -4.959038e-39 -4.668469e-39 0.2206636 -0.13449238 -0.004229549 -0.027613733 -0.01822311
-0.049444772 0.006879525 0.0049677487 -0.057205558 0.013537203 -0.05994062 0.000102128266 0.058410946
-0.0123718055 0.029521441 0.0469524 0.037342984 0.01797558 0.008587162 0.011511141 0.019987188
0.01901283 0.014605894 0.013133376 0.010935475 0.0037376028 0.009993437 0.020915203 0.028276492
0.024393434 0.029088879 0.022514967 0.0051506297 -0.023249164 0.038927235 0.0054740156 -0.0048486595
0.032948464 3.853107e-39 3.493092e-39 0.03928909 0.033258915 -0.0040990473 -0.0050647533 -0.003229743
-0.007352977 -0.07751982 -0.017320586 0.027355958 0.18735453 0.0042279796 0.072242856 0.26513135
-0.09912259 0.17919903 -0.096770324 0.14696021 0.050946128 0.050619345 -0.011076583 0.06110852
0.03058403 -0.021260213 0.03555437 -0.00040678147 -0.013270366 -0.038250163 0.043599073 0.00052558305
-0.0162741 0.022850338 -0.0060856114 -0.121706806 7.8598365e-05 -0.2730544 -0.13110138 -0.031054622
0.60268646 -3.960734e-39 1.913249e-39 -0.089767955 -0.0714547 -0.015394008 -0.009258817 -0.010893664
1.4416758e-14 5.7315633e-16 -3.3345008e-16 -9.130886e-15 -5.206902e-15 -1.098363e-14 -5.422524e-15 7.7312085e-15
-1.418909e-14 -3.108486e-14 -1.6657526e-14 -1.3311506e-14 3.812534e-15 -3.3311178e-15 6.6428817e-15 -8.026581e-15
8.579911e-15 -7.3558094e-15 1.1430097e-15 7.635961e-15 1.3664632e-17 -1.4443324e-15 -6.9100054e-15 7.2072816e-17
6.5205706e-15 -4.5918037e-15 -3.0758788e-15 6.2220533e-15 5.9455047e-15 -6.5964503e-15 -3.223847e-16 6.536898e-21
-2.0553878e-11 1.653503e-39 3.555261e-39 2.7654232e-15 -3.208255e-09 1.3040885e-16 -2.0461967e-25 2.5913497e-35
0.030298838 -0.045599196 -0.0048691165 0.005637357 0.27337247 -0.0070313094 0.06552496 0.19106102
0.079768695 0.11486378 -0.2151973 0.0106804725 -0.010133444 -0.03815484 -0.026423814 -0.010434531
-0.016364207 -0.023763493 0.007968797 -0.011817645 0.005698907 0.054295078 0.06840993 0.077902734
0.061962187 0.084906325 0.06382831 0.031547125 0.09561992 0.010610215 0.025379334 0.010605497
-0.05330614 2.270707e-39 -6.67658e-40 0.20168895 -0.036933098 -0.015002649 -0.031978857 -0.009893045
-0.0054317433 -0.0016788002 -0.0014481967 -0.0033100469 -0.0015477253 -0.0031997324 0.00047873816 0.0049147545
-0.0022290277 0.0019559234 0.0066037565 -0.0014615015 0.001145123 -0.0001706786 0.00042373847 0.00052002276

encoder.1.bias f4 [32]
00000000: d197 8fbb fc83 453d e3cf 813d 4e96 00be
00000010: 755d 95b1 6b82 8a3d c18c 743b b4d9 b5ac
00000020: 88c8 c03d b01a 24bc 8935 e13d 6577 0e3e
00000030: 10fd 89bb 96eb dd3d da9a 27a8 b153 27be
00000040: 7881 b13c a6fe 6d3c 3797 5b3d 4074 113e
00000050: 2f6f 093c b39c 913d 0480 1d3e ce9a 94bd
00000060: 022a bc3d 1c63 fbbc 46c2 fdbc 518a 64bc
00000070: 4ccb a53d fc54 339d ca9d f2b2 2f4d 153a
-0.0043821116 0.048221573 0.06338479 -0.12557337 -4.3470956e-09 0.067631565 0.0037315341 -5.1684993e-12
0.09413248 -0.010016128 0.10996539 0.13912733 -0.0042110756 0.1083595 -9.30394e-15 -0.1634052
0.02166818 0.014526045 0.053611007 0.14204502 0.008388325 0.07109966 0.15380865 -0.07256089
0.091877 -0.030686907 -0.030976426 -0.013948993 0.080954164 -2.3734389e-21 -2.8244262e-08 0.00056954

encoder.4.weight f4 [16, 32]
00000000: 1826 aeba fd4d 7e3e c9ba ae3d 90fe 5f3e
00000010: 3dbc fea6 4920 773e 15a9 993b 7c27 ce2a
00000020: fdb2 5dbd d984 9dbd cd2f 233e bc6b 633e
00000030: 3bfc 8837 560e 243e 6b4d df26 5d7b cd3e
00000040: e12b 8b3d 8a28 023d 0097 1c3e f192 a3be
00000050: 02c3 833d 6178 cb3d f142 833e 12f6 1dbd
00000060: dfa8 ef3d 21c5 033e 5c9d c2bd e344 c639
00000070: ce9a f93d 79fd df9d d6d2 8633 092c e8bd
00000080: 7f03 683c bb47 363d 5387 2f3c b1b0 a23e
00000090: 4566 30b4 f700 4b3d 6992 c83a bd12 a32b
000000a0: 5272 8c3c 2a2d 443e 20b2 013c 40e5 303d
000000b0: fb2c 7fba 536b ea3b 539b a3a7 ae72 3f3e
000000c0: 684f b43c 21a1 e53b 8c8a 4cbd ad1d a13d
000000d0: 4594 c43d 3743 4b3c 29bf b43c d242 073f
000000e0: e55f 8d3c 8cc8 903d 8431 0fbc dc25 a6ba
000000f0: a659 193c 16d3 481a 7b20 28b3 3393 4cbe
00000100: 2185 2300 5945 1300 537c 2100 5e24 3980
00000110: 9824 4980 d80c 1680 e8f3 0080 dc7a 2800
00000120: a093 0f00 dbbb 0e00 8f1a 0500 ae30 0080
00000130: dda8 1b00 fb9e 0e00 cd2a 0d00 a7bd 0a80
00000140: 6be7 0900 750b 2500 2696 0400 0263 0b80
00000150: 5fdf 1a80 4f6a 1900 42f8 0780 0aaf 0880
00000160: 4d9d 3a80 e810 0580 d2ec 1680 d0ef 4180
00000170: 246d 0680 e281 0900 08d4 5e81 243a 1480
00000180: 08bf c13c 5ef7 053b 162f 7e3c a0fa 1d3f
00000190: d401 20b9 a1fe 87bb 0670 213c 0cc5 1b2d
000001a0: d485 fbbd 2edb 9f3e f4be a43c 2cee e5bb
000001b0: 87ff 86bb d789 153d d26f 1a28 4e2a a43e
000001c0: 6698 163d 2e2c ab3c 8276 14be 02fb 073d
000001d0: 9535 9a3e 117d a13c a1c5 153d dab7 773f
000001e0: 0348 363f 8cf9 0f3e 5e0e 6a3d d665 f3ba
000001f0: 7d05 cb3c 456f 0a1e f8e5 64b3 670e b5be
00000200: d06e a395 fb4e 2615 fdf3 d495 bb89 8595
00000210: b4ea 5f81 7ad8 4796 38c6 6294 39cd d485
00000220: 5de4 a095 ef9e ba94 a8ee 8c96 79b8 d195
00000230: c8db 4d08 9747 8896 08e6 1101 23f2 1b96
00000240: a442 0215 f89b c693 c444 2d96 4afc 2195
00000250: 72ea a814 8c77 3896 851a 7b95 2ca9 f915
00000260: 4899 2e95 a1d3 0296 5929 2095 3095 5881
00000270: a952 6696 ce13 2f02 fa17 ca8b 18b5 3815
00000280: c3e3 9939 5b1b 213c 7990 82bd ff46 5abd
00000290: b9ac ab28 e972 293d ff98 bebb 4c8e 882a
000002a0: f484 b63e 8c98 91bd f103 e1bd a49f 16bd
000002b0: 09c6 cab5 f565 d2bd dd3d 6e27 cb6c 8cbd
000002c0: 9fe9 5cbc 61e0 bcbc 2d70 3f3d 2a3f e4bc
000002d0: 5a13 89bd 1a7b 8dbd 3c44 81bd dc8f 59be
000002e0: c7d3 953e 0a17 25bd ce15 443e f05f c2b9
000002f0: 6f92 bbbd 7222 b51c cd8f af33 d937 a83d
00000300: 7cbc d737 7176 043e c5da db3c c6cc 193e
00000310: e422 86a6 a214 f23d ace4 e239 90d7 252c
00000320: 80ef 293b e043 dfbc f4db 5b3d c4f7 b73d
00000330: 56f4 3b33 97bd 5f3d cbcc 15a7 f634 703e
00000340: 7be8 023d 6e39 323c aae2 883d a112 5bbe
00000350: 2a2c 593d 54fb 043d 9ebf d53d 5515 fd3c
00000360: 4d47 033e a922 893d 2e46 4cbc b335 b3ba
00000370: 75ba 223d 90df 0b1e 2223 3033 7242 b5bd
00000380: 9488 8b3b 70c1 01bc fbdb 903c d0fb 2d3e
00000390: 8e37 6fa7 f0ad 0ebc 666d 973a 0547 47ab
000003a0: 1938 3dbd e62f 953d b2bc d33c 9509 423c
000003b0: 05b6 e335 6ad6 c13c 38c8 e6a7 2b94 0c3e
000003c0: c80b 4e3c 7254 0e3c 9577 46bd 4f5f 22bd
000003d0: 84aa b83d 310f 9a3c 3738 a73c d7d1 813e
000003e0: 6897 cd3d 42fb 2f3d 36d7 75ba 8422 2038
000003f0: a427 b53c f9a3 7f19 9a9b 93b3 584c fcbd
-0.0013286499 0.24834438 0.0853172 0.21874452 -1.7675813e-15 0.2413341 0.0046893456 3.662035e-13
-0.054125775 -0.07691354 0.15936203 0.22209066 1.6329917e-05 0.16021094 1.5494718e-15 0.4013318
0.067954786 0.031776942 0.15291977 -0.31948045 0.06433679 0.0993507 0.2563701 -0.03856475
0.117021315 0.12868167 -0.0950267 0.00037816828 0.1218773 -5.9289693e-21 6.278212e-08 -0.11336524
0.01416099 0.044502 0.010713416 0.3177543 -1.6428483e-07 0.049561467 0.0015302423 1.1587048e-12
0.017144356 0.19157854 0.007916003 0.04318738 -0.00097341806 0.0071539073 -4.540999e-15 0.1869609
0.02201052 0.0070077335 -0.049936816 0.07866988 0.09598593 0.012406162 0.022063809 0.52836335
0.01725764 0.07069501 -0.008739833 -0.0012676078 0.009359753 4.1529544e-23 -3.914509e-08 -0.19978027
3.262e-39 1.769752e-39 3.07517e-39 -5.24767e-39 -6.717119e-39 -2.024988e-39 -8.7497e-41 3.717493e-39
1.43049e-39 1.353087e-39 4.68705e-40 -1.7463e-41 2.540135e-39 1.342728e-39 1.209215e-39 -9.8639e-40
9.09537e-40 3.402023e-39 4.21205e-40 -1.045708e-39 -2.467853e-39 2.334024e-39 -7.31907e-40 -7.97476e-40
-5.382888e-39 -4.65242e-40 -2.105336e-39 -6.055336e-39 -5.90165e-40 8.73113e-40 -4.0927085e-38 -1.857567e-39
0.023650661 0.0020441632 0.015514156 0.6171055 -0.0001525947 -0.004150227 0.009853369 8.854483e-12
-0.12281385 0.31221908 0.020110585 -0.0070169177 -0.0041198167 0.036508407 8.5729645e-15 0.32063526
0.036766432 0.02089509 -0.14498332 0.033198364 0.30119005 0.019712957 0.036565427 0.9676491
0.7120363 0.14060038 0.057142608 -0.0018569778 0.02478289 7.328669e-21 -5.3294542e-08 -0.3536255
-6.601001e-26 3.3585738e-26 -8.6011064e-26 -5.393557e-26 -4.1127023e-38 -1.61434e-25 -1.1449176e-26 -2.0011771e-35
-6.498378e-26 -1.8843889e-26 -2.2768833e-25 -8.4705474e-26 6.1948295e-34 -2.2017165e-25 2.6797333e-38 -1.2597205e-25
2.630586e-26 -5.0136024e-27 -1.3996527e-25 -3.2712712e-26 1.7056137e-26 -1.4901124e-25 -5.0709967e-26 1.00837205e-25
-3.5259938e-26 -1.0568095e-25 -3.234436e-26 -3.977997e-38 -1.8605335e-25 1.2862653e-37 -7.7843646e-32 3.7301362e-26
0.0002935213 0.009833182 -0.06375212 -0.053290363 1.905972e-14 0.041369352 -0.0058165784 2.425719e-13
0.3564831 -0.07109174 -0.1098708 -0.03677334 -1.5107809e-06 -0.10273353 3.3062671e-15 -0.06856688
-0.013483434 -0.023056211 0.04673784 -0.02786215 -0.06693144 -0.069082454 -0.06311843 -0.21246284
0.29263136 -0.040305175 0.19148943 -0.00037074042 -0.09158789 1.1986479e-21 8.17523e-08 0.08213777
2.5717767e-05 0.12935807 0.026837716 0.15019521 -9.307575e-16 0.11820342 0.00043276453 2.3567572e-12
0.0025930107 -0.027254045 0.05367656 0.089828044 4.3761553e-08 0.054624166 -2.0788922e-15 0.23457703
0.031959992 0.01087795 0.06683858 -0.21393825 0.053020634 0.032466248 0.10436939 0.030893961
0.12820168 0.06696064 -0.012467904 -0.001367262 0.0397286 7.40483e-21 4.1010146e-08 -0.08850564
0.0042582247 -0.007919654 0.01768302 0.1699059 -3.319803e-15 -0.008708462 0.0011552989 -7.079756e-13
-0.046196077 0.072845265 0.025846813 0.011843105 1.6965793e-06 0.02366181 -6.40549e-15 0.13728397
0.012576051 0.0086871255 -0.048453886 -0.039641675 0.09016898 0.018806072 0.020412548 0.25355408
0.10038644 0.042964227 -0.0009378077 3.8179118e-05 0.022113629 1.3216305e-23 -6.873525e-08 -0.12319249

encoder.4.bias f4 [16]
00000000: f249 133e 607c e6bd 185b 3980 e132 383c
00000010: 2363 1815 6b4f ac3c 3024 eb3c 48c1 e5ba
00000020: d03d 4480 290c 183e f849 2880 d38b 0f3e
00000030: 39ad 17bc e663 32bc 396d 4980 f08e 87af
0.14383677 -0.112541914 -5.267302e-39 0.011242599 3.077436e-26 0.021033963 0.028703779 -0.0017528916
-6.266988e-39 0.14848389 -3.699955e-39 0.14018182 -0.009257608 -0.010888075 -6.743173e-39 -2.465792e-10

encoder.7.weight f4 [8, 16]
00000000: bd4f bc3e 2c79 dabe 9a08 1500 0bab 48bf
00000010: 4977 9115 62bd 553e 92e7 243e c37d 27be
00000020: 4e16 2400 a46c f23e 4bd3 3400 8e9f 8b3f
00000030: 4b93 46bd 7ff9 a33d 9c25 3180 6f61 8532
00000040: 421c 9f3e d36c be3e 69e0 3700 b847 173f
00000050: 348c ac13 981c b6be 1e9b 213e b3cc 513e
00000060: e75a 3080 b821 6b3e e82a 0d80 b974 1bbe
00000070: 8bae a23d 1e01 b6be 4bae 4480 ff14 f4b2
00000080: 372f 02be dbfb 09bd cda5 3180 c6fc 383e
00000090: 0a81 ba94 1228 d03e 0b65 963b eb39 f9bb
000000a0: 0aec 2380 bbeb 26be 24c9 1580 a4fc 5a3e
000000b0: 59f4 883c 6975 f13e 6445 0a80 ff61 4733
000000c0: 32ef 8d3d c61f 233e 50d4 1d80 b410 973e
000000d0: 9a3e ce14 4eb0 a4bd 56c9 623d d250 b83d
000000e0: c208 2700 91fd d73c e7f5 0980 e5ac cabd
000000f0: 397f 1b3d 77a2 76bd 9a97 2000 4940 a2b2
00000100: 9391 2e80 9c2d 0900 7d90 4180 22f0 2c80
00000110: 3931 2580 7746 2b00 5a2d 1100 c75c 4080
00000120: 19f7 0d80 92ad 3780 bd5b 1380 ef7a 0e80
00000130: b3b1 0f00 056b 3280 28c3 0d80 8783 4980
00000140: ab32 273f f2cb 073e 5df0 0b80 b959 303e
00000150: 0fb0 1915 fb61 fcbd 7a3c b23e 9e70 ff3d
00000160: ad29 2980 a55b 0c3f cd5e 4480 0579 4c3f
00000170: 9861 a53d 1423 31be cd66 0700 df93 4c33
00000180: b612 2d3e 7c87 a33e 0242 0800 ee9a 403f
00000190: e42d 7495 60d2 f03d 1fec 393e a933 4d3e
000001a0: 4553 1080 304c 953c 0844 2b00 279c f33d
000001b0: 0cd0 d83d 4b28 503e 40e5 3e80 dc92 7c2e
000001c0: 3bea 423e c8d5 643e ce19 3700 db99 003f
000001d0: d5f9 0d95 c44e 593c 2d86 1a3e fdea 113e
000001e0: 17d6 1780 8ace b03d dd88 0480 8bbb 113e
000001f0: 3975 953d 7f40 613d 780d 0a00 85b3 7d30
0.36779585 -0.42670572 1.931631e-39 -0.7838599 5.875323e-26 0.20873025 0.16103962 -0.16356568
3.314079e-39 0.4734851 4.851243e-39 1.0908067 -0.048480313 0.08006572 -4.513431e-39 1.5527545e-08
0.31076247 0.371924 5.131455e-39 0.5909381 4.3557155e-27 -0.3556869 0.15781829 0.20488243
-4.440713e-39 0.22962081 -1.209253e-39 -0.15181245 0.07943448 -0.35547727 -6.307338e-39 -2.8414886e-08
-0.12713324 -0.033687454 -4.559417e-39 0.18065175 -1.8832097e-26 0.4065557 0.004589682 -0.0076057813
-3.298917e-39 -0.16300862 -2.000701e-39 0.21385437 0.016718077 0.4715989 -9.43248e-40 4.6422425e-08
0.069303885 0.1593009 -2.739393e-39 0.2950493 2.0825376e-26 -0.0804144 0.05536779 0.0899979
3.584726e-39 0.026366027 -9.14733e-40 -0.09896258 0.037963126 -0.060213532 2.99312e-39 -1.8888516e-08
-4.276655e-39 8.42881e-40 -6.02114e-39 -4.126905e-39 -3.415571e-39 3.974204e-39 1.577473e-39 -5.910754e-39
-1.282503e-39 -5.113218e-39 -1.777784e-39 -1.329797e-39 1.441279e-39 -4.630166e-39 -1.26387e-39 -6.751174e-39
0.6531169 0.13261393 -1.096417e-39 0.17221726 3.103699e-26 -0.12323376 0.34811765 0.12472652
-3.780206e-39 0.5482734 -6.278822e-39 0.7987216 0.08075255 -0.17298537 6.79726e-40 4.763194e-08
0.16901669 0.31939304 7.58363e-40 0.75236404 -4.931161e-26 0.11758876 0.1815648 0.20039238
-1.49924e-39 0.018224806 3.973331e-39 0.11895018 0.10586557 0.2032787 -5.77604e-39 5.7428604e-11
0.19034664 0.22347176 5.060209e-39 0.50234765 -2.8671806e-26 0.013263408 0.15090246 0.14249797
-2.189017e-39 0.08633144 -4.16439e-40 0.14231698 0.07297749 0.05499315 9.23187e-40 9.2295976e-10

encoder.7.bias f4 [8]
00000000: ed97 733e 491e 8e3e 75e5 1dbd b4c7 403d
00000010: 9f59 1d80 7789 e8bd 3361 85bd 1fd5 36bd
0.23788424 0.2775748 -0.038548905 0.04706545 -2.69538e-39 -0.11354344 -0.0651268 -0.044636842

encoder.10.weight f4 [4, 8]
00000000: 7d6f e5be a4eb a23e 6e79 09bf 6068 2c3d
00000010: 9ead 2580 dc21 d0be 40e8 e0be 5670 85be
00000020: 3e10 23bf 3ca4 683f 3ce5 29be 56de a93e
00000030: c97b 2100 30d7 533f a347 2f3f dcf1 0d3f
00000040: a804 65bf 35df a53e b74f 54be 1b84 0d3e
00000050: 02e8 1c00 7fc3 08bf a258 44bc dc19 41bd
00000060: b5e2 8abf f87f 80bd 61d0 c83e 1411 113e
00000070: 5e86 1480 8490 3dbf d0cb dc3e c486 203e
-0.4481162 0.31820405 -0.5370091 0.042091727 -3.460195e-39 -0.40650833 -0.43927193 -0.26062268
-0.6369666 0.908756 -0.16591352 0.3317744 3.074977e-39 0.82750225 0.68468684 0.55447173
-0.8946023 0.32396856 -0.20733534 0.13819925 2.654623e-39 -0.53423303 -0.011984022 -0.047143802
-1.0850435 -0.06274408 0.3922148 0.14166671 -1.884912e-39 -0.7404864 0.43124247 0.15676409

encoder.10.bias f4 [4]
00000000: b000 283e 6d38 1d3d 72dc e93d 8e66 69bb
0.16406512 0.03838389 0.11419 -0.0035614106

decoder.1.weight f4 [8, 4]
00000000: 1c7d 28bf 80b6 c13b dbb3 87bf 9c2e a1bf
00000010: cb57 073f de16 783f 5180 883e c037 f0be
00000020: 812b 2800 8cba 1c80 7497 1c00 fd33 1b00
00000030: 464f 2d00 627e 2e80 19ac 4400 2e4d 4100
00000040: 4a97 2200 42ed 4980 1ccb 2b00 76ce 4000
00000050: 651c fdbe afed aa3f 35fc 543d 04ae fe3e
00000060: 3a65 2e00 5563 2b80 4ce0 2900 da61 2000
00000070: 7adb 2e00 46a5 1080 5e30 3a00 b5c6 3900
-0.658159 0.0059116483 -1.0601763 -1.2592349 0.52868336 0.9690989 0.26660398 -0.46917534
3.689026e-39 -2.638314e-39 2.625725e-39 2.498208e-39 4.161035e-39 -4.26977e-39 6.306551e-39 5.996994e-39
3.176679e-39 -6.789103e-39 4.021788e-39 5.951536e-39 -0.49435726 1.3353785 0.051998336 0.49742138
4.260746e-39 -3.98456e-39 3.845718e-39 2.973838e-39 4.303166e-39 -1.528657e-39 5.34381e-39 5.305906e-39

decoder.1.bias f4 [8]
00000000: b8d2 a0bd 66b9 163e d29f 0380 a7c9 0e00
00000010: 1ce7 0900 64cb a3bd 84d6 3680 14fe 3600
-0.078526914 0.14719161 -3.32839e-40 1.358036e-39 9.09426e-40 -0.07997778 -5.03607e-39 5.050263e-39

decoder.4.weight f4 [16, 8]
00000000: b19c e693 5886 290a 0d78 0d80 fe3b b181
00000010: 90b8 a301 d95c 040e 30c0 4982 2199 0882
00000020: 6390 c7bc 2a6a 833f 0ae2 2800 931f 1380
00000030: 7c5f 4500 450e 61bd 26be 0800 7375 1b80
00000040: d944 1a80 63fa 3580 0325 0880 5684 8701
00000050: c034 c201 bc19 4380 1201 9a81 f29c 2100
00000060: 8e7c 8b3e d3c4 943e 5b8c 0c80 a64a 0a00
00000070: 3958 1100 1eac d03e b48e 1d00 c652 3100
00000080: e467 4cbf 0c4e e43e 55ff 0d80 93e3 1100
00000090: a698 1880 ac82 da3e 912c 3780 8d24 2980
000000a0: 1b02 473e feb8 8f3b 9742 2d00 2d6f 2d80
000000b0: 39b2 3300 7e63 5dbe 0ac7 1d00 67be 1800
000000c0: 91a0 3780 b993 2f80 c192 1680 68b8 2281
000000d0: e63c bf01 7124 2f80 d019 4a80 f66d fc81
000000e0: d0ea 363f bfe5 803e 48a2 3500 3f80 3200
000000f0: e4c6 1300 ec33 213d 0138 2b80 0602 3100
00000100: 4ea1 203f 7f9d 0cbe 1e4c 0580 0c24 0280
00000110: 4516 1180 2fbb 00be 04fc 4400 e13f 3480
00000120: f9fc cca7 3b10 769b 05a2 1400 44c8 1d01
00000130: 8c22 8001 194b e7a9 7741 a701 349e 6101
00000140: 2fd5 1b80 7fe5 0000 598a 3900 5afa 2b00
00000150: 10bd 0a80 0782 1b80 3718 1580 bf40 5502
00000160: a430 763f db3f d0be 0a93 1b00 ec7f 3480
00000170: 44a7 0900 cc41 2fbf 7743 2880 a058 1d00
00000180: 22c0 e6ab e6c0 20ab 041a 0f00 ee45 1102
00000190: 0140 6282 349d b7ab bdf1 1500 5931 1100
000001a0: eb57 d5b8 b37e 2fbd 0bd5 0880 d509 2080
000001b0: 20ea 3700 52bc a23f 61f9 1b00 b125 0480
000001c0: 8f70 3c80 a41d 2b80 8f94 1080 71de 2d00
000001d0: 3289 2f00 f8a1 3780 2fa2 2980 ecd4 6202
000001e0: 3a1c 1b80 0e0e 2580 43a5 0680 32ec 3a82
000001f0: 18dd 7a00 0d97 4280 0e34 1380 563d 0a00
-5.8214672e-27 8.162321e-33 -1.236928e-39 -6.5105616e-38 6.014158e-38 1.631496e-30 -1.4822303e-37 -1.0035648e-37
-0.024360841 1.0266774 3.754507e-39 -1.756201e-39 6.370903e-39 -0.05494525 8.02896e-40 -2.521691e-39
-2.412421e-39 -4.957103e-39 -7.47961e-40 4.978106e-38 7.134004e-38 -6.16221e-39 -5.65722e-38 3.086873e-39
0.27243465 0.29056415 -1.152376e-39 9.45134e-40 1.592852e-39 0.40756315 2.714422e-39 4.529633e-39
-0.79846025 0.44590795 -1.285457e-39 1.642842e-39 -2.258812e-39 0.4267782 -5.06694e-39 -3.778367e-39
0.19434397 0.0043860665 4.156485e-39 -4.17248e-39 4.747545e-39 -0.21619985 2.734631e-39 2.272355e-39
-5.108553e-39 -4.369261e-39 -2.073026e-39 -2.9887006e-38 7.0249704e-38 -4.329341e-39 -6.805086e-39 -9.2727966e-38
0.71452045 0.25175282 4.925497e-39 4.637781e-39 1.816223e-39 0.039356157 -3.969017e-39 4.500665e-39
0.6274613 -0.13731955 -4.86483e-40 -1.96602e-40 -1.569192e-39 -0.12571405 6.33522e-39 -4.798361e-39
-5.6895648e-15 -2.0353887e-22 1.894832e-39 2.898003e-38 4.7069346e-38 -1.0271488e-13 6.144005e-38 4.1439478e-38
-2.556034e-39 8.2328e-41 5.284253e-39 4.038736e-39 -9.86178e-40 -2.526203e-39 -1.937232e-39 1.566735e-37
0.9616797 -0.40673718 2.532306e-39 -4.821336e-39 8.86523e-40 -0.68459773 -3.697622e-39 2.695022e-39
-1.639581e-12 -5.711112e-13 1.386865e-39 1.0672986e-37 -1.6622226e-37 -1.3046565e-12 2.015265e-39 1.578906e-39
-0.000101730075 -0.04284544 -8.1111e-40 -2.942263e-39 5.13494e-39 1.2713721 2.569019e-39 -3.80863e-40
-5.550508e-39 -3.95956e-39 -1.522661e-39 4.212394e-39 4.365485e-39 -5.109056e-39 -3.823436e-39 1.6664963e-37
-2.489684e-39 -3.402955e-39 -6.10298e-40 -1.3732907e-37 1.1283244e-38 -6.11533e-39 -1.763548e-39 9.40358e-40

decoder.4.bias f4 [16]
00000000: 1cda 5d0b 6b83 f83d f709 1100 4d71 8cbf
00000010: 2cc9 b13e 6597 a03f bd59 2e80 321e 6cbf
00000020: 6996 373f 18c9 1580 cbed 3980 1726 cd3e
00000030: 6e15 1bac ad7f ff3c 63fe 4a80 a220 0a80
4.272714e-32 0.12134441 1.564778e-39 -1.0972077 0.34723794 1.2546202 -4.256625e-39 -0.92233574
0.7171388 -2.000684e-39 -5.319927e-39 0.40068123 -2.203872e-12 0.03118881 -6.887083e-39 -9.30061e-40

decoder.7.weight f4 [32, 16]
00000000: 2977 738c cc06 393e 9720 4300 c7d0 303c
00000010: e24e 2d3d 0a0d e53d 1df0 3a80 9175 8d3d
00000020: d7e3 073e 67f0 2f80 23f3 3580 93d1 2e3c
00000030: 34ec 4eab abde ae3e 7827 2680 d42d 0280
00000040: dd6e 208c e443 073e ff38 1700 8352 62be
00000050: b482 00bd 0456 803e af38 0500 1ae4 5bbe
00000060: 2608 093e 587e 2080 3fd6 3c80 ed80 a4be
00000070: c473 682b f04e c73e dc16 4180 c168 3c80
00000080: d8ff 9b81 a597 3ba4 c074 1e00 da77 37a7
00000090: a272 2100 6b0b 0580 65bb 0582 ab37 75a9
000000a0: 97f0 849f 1ce4 f401 c80e 2980 d1e4 f884
000000b0: 6844 cf81 acf3 62b2 5789 1380 634d 5802
000000c0: f6ca 1f80 327d b63d 294a 2d80 8fdd a93e
000000d0: cca1 8fbd 5893 f5be 499f 0580 ab71 d53d
000000e0: 3fe6 bcbe 5ed0 c08e bdee 0200 ae3c a1be
000000f0: c9b7 0d2c fa77 a03d 9183 3380 2a08 0b00
00000100: 00fd 3b89 1a42 06be 2842 4080 e421 97be
00000110: 556f c2bc 7033 833e af14 2a80 31c3 58be
00000120: f58d 143e e5da 2980 a48b 0c80 e205 b13e
00000130: 42cd 71a7 eb2e e5be 1837 2000 d50e 1c80
00000140: 80ec d28c 68f8 aebd 2acb 1580 7a35 47be
00000150: 2004 4dbe ba5c ec3e 32e6 1280 cda1 23bf
00000160: 96fe 183e 639d 2700 36a5 2580 fac7 043e
00000170: 9c34 87aa 1ee1 e3be 9773 2500 2f93 1680
00000180: 3dde 3800 7161 abbc a065 0a80 9864 103e
00000190: 9a6f 92be aed6 9f3c 8d18 3200 df9b 1e3e
000001a0: f4c7 193e c5bb 2e00 4f41 3e80 dca9 64be
000001b0: 76a1 b4ab 44a4 c739 3196 0280 8df2 0380
000001c0: 9d60 8f0b c30e bebd cb97 3c80 78d5 32be
000001d0: df9e 21bd 184e 463e 304f 0b80 8a3a 9cbb
000001e0: 4b71 603e 3422 2580 5e4a 0780 9faf e73e
000001f0: 2899 0029 64b5 d9be f3f8 0400 381f 1200
00000200: cdba 0400 4df8 ccae bc2c cf01 c223 8eb0
00000210: a57f d60d fb32 6481 f494 2c81 5dba e0b0
00000220: fef1 11aa cc51 6501 b70a 0880 250b 8812
00000230: 14e4 db01 8a4f 0bb7 c041 0400 8e98 bc01
00000240: 1da3 2e80 7c07 313c 80aa 0080 3708 c0bc
00000250: 5954 a2be 7190 fb3c 8e8b 4100 2587 63bd
00000260: b1cb 7ebd bc2f 1180 6b8b 1700 b748 21bf
00000270: 3600 05ac ee4c 913e 7466 0500 9ca2 0280
00000280: 1f33 c182 1c96 4700 33d9 1300 e1cc ae03
00000290: 416e 2080 8eb0 0880 8c7a 0182 8250 0b99
000002a0: 6707 3786 3215 ef81 3294 2780 f8c0 0680
000002b0: 709e 3e80 9f8f 009d 69ba 0e80 0cbc d201
000002c0: 0786 4f02 027f aba9 14cd 0800 4ba5 17ae
000002d0: d3ac 1a00 7662 8787 00be 7701 576e a3b1
000002e0: 4087 45ad d7c4 4382 445e e501 8328 37a9
000002f0: 2867 2e80 808d 82b4 806c 1e00 008e 4900
00000300: cf7a 310b ff80 05be 2280 0880 bab9 97bd
00000310: ab98 403d 72ff 263e 6513 2f80 213d fd3d
00000320: ec62 4d3e 218f 0780 65be 1480 a132 e33e
00000330: c4a6 06a9 a623 3ebe 7c8d 0900 0595 3700
00000340: fbc6 2200 df7c c93d 82f9 0100 8c3c da3e
00000350: 9803 d63d 0154 c1be f4d2 2580 5d3e 3a3e
00000360: d7f8 95be 17b0 1900 18fa 2900 240a 87be
00000370: 001d 9cab 0421 cc3e 7bb0 0200 bb53 0d00
00000380: eac0 cd0a 06e1 fa3c f4b6 0480 64c5 febd
00000390: a0e0 1fbe f318 843e bf96 1780 6a0a a23d
000003a0: bf98 8c3e fd5d 0400 195c 2700 ce56 c4bd
000003b0: aacc c6aa 42ec 31bd 8efb 1f00 466d 0680
000003c0: e4c1 4101 13a5 4a91 63b6 6782 3343 c791
000003d0: 6895 0900 d372 6312 2d34 2002 655b bd92
000003e0: 7529 b692 90a1 cb00 d7b0 0a00 9030 0492
000003f0: 3491 5b81 c5e8 c59f 70ad 2c00 ccfb f101
-1.8755898e-31 0.18068999 6.164669e-39 0.010791964 0.042311557 0.11184128 -5.412595e-39 0.0690719
0.13270508 -4.402508e-39 -4.954502e-39 0.010670084 -7.35137e-13 0.34154257 -3.503908e-39 -2.00111e-40
-1.2359313e-31 0.13209492 2.132663e-39 -0.22101788 -0.03137465 0.25065625 4.79512e-40 -0.21473733
0.13382015 -2.98406e-39 -5.586987e-39 -0.32129613 8.2583614e-13 0.38927412 -5.977508e-39 -5.547708e-39
-5.7305125e-38 -4.067761e-17 2.796947e-39 -2.5461323e-15 3.071694e-39 -4.63273e-40 -9.825076e-38 -5.4449212e-14
-5.63022e-20 8.9958765e-38 -3.770558e-39 -5.8514654e-36 -7.613795e-38 -1.3210336e-08 -1.794143e-39 1.5891383e-37
-2.919709e-39 0.08910598 -4.159201e-39 0.33176848 -0.07013282 -0.47963977 -5.16318e-40 0.10422071
-0.36894414 -4.7532305e-30 2.69314e-40 -0.31491607 2.0139326e-12 0.07835384 -4.730807e-39 1.013119e-39
-2.2628266e-33 -0.13111153 -5.901204e-39 -0.29518044 -0.023734728 0.2562518 -3.864511e-39 -0.2116821
0.14507277 -3.84378e-39 -1.15212e-39 0.345748 -3.355674e-15 -0.44762358 2.9585e-39 -2.576715e-39
-3.2497961e-31 -0.085434735 -2.001427e-39 -0.19453993 -0.20021105 0.46164495 -1.735617e-39 -0.63918763
0.14940867 3.638044e-39 -3.45718e-39 0.1296691 -2.4017322e-13 -0.44507688 3.439379e-39 -2.07318e-39
5.222512e-39 -0.020920487 -9.54811e-40 0.14100873 -0.2860077 0.019511547 4.600582e-39 0.15489148
0.15017682 4.291792e-39 -5.717229e-39 -0.22330421 -1.2834584e-12 0.00038078625 -2.3755e-40 -3.62517e-40
5.5226964e-32 -0.09280159 -5.564583e-39 -0.17464244 -0.039458152 0.19365728 -1.038598e-39 -0.0047677206
0.21918218 -3.410183e-39 -6.69526e-40 0.45251176 2.855455e-14 -0.42521203 4.56648e-40 1.664238e-39
4.34353e-40 -9.320953e-11 7.610398e-38 -1.0342023e-09 1.3219498e-30 -4.1913563e-38 -3.169828e-38 -1.6351113e-09
-1.2962545e-13 4.2119344e-38 -7.38528e-40 8.585554e-28 8.077517e-38 -8.303565e-06 3.90929e-40 6.92792e-38
-4.282947e-39 0.010805007 -6.1164e-41 -0.023441417 -0.31704977 0.030708523 6.01937e-39 -0.055548806
-0.062205974 -1.578327e-39 2.16223e-39 -0.6300158 -1.8900554e-12 0.28379005 4.95931e-40 -2.42004e-40
-2.8388143e-37 6.57417e-39 1.822791e-39 1.0273839e-36 -2.978288e-39 -7.9802e-40 -9.512592e-38 -7.20239e-24
-3.4423913e-35 -8.782515e-38 -3.634747e-39 -6.20237e-40 -5.750637e-39 -1.701491e-21 -1.352568e-39 7.741165e-38
1.5246422e-37 -7.615958e-14 8.08252e-40 -3.4480235e-11 2.44972e-39 -2.0370413e-34 4.5503053e-38 -4.7564686e-09
-1.1228185e-11 -1.4382828e-37 8.425658e-38 -4.06693e-14 -4.261438e-39 -2.4317342e-07 2.793987e-39 6.754931e-39
3.418135e-32 -0.1303749 -7.8065e-40 -0.074084714 0.047020596 0.16308382 -4.323226e-39 0.12365175
0.20057267 -6.94193e-40 -1.90501e-39 0.44374564 -2.9898623e-14 -0.18568286 8.77274e-40 5.10441e-39
3.193788e-39 0.098382704 1.81342e-40 0.4262432 0.10449904 -0.37759402 -3.473589e-39 0.18187852
-0.29291412 2.359057e-39 3.854972e-39 -0.26374924 -1.1092516e-12 0.3986894 2.4698e-40 1.223898e-39
1.9813348e-32 0.030624878 -4.32973e-40 -0.12439993 -0.15613031 0.25800285 -2.166294e-39 0.079121426
0.27460286 4.01059e-40 3.614623e-39 -0.09586869 -3.531388e-13 -0.043438204 2.937141e-39 -5.90213e-40
3.558761e-38 -1.5985858e-28 -1.7023542e-37 -3.1438079e-28 8.80116e-40 7.17701e-28 1.1769917e-37 -1.1950107e-27
-1.1496035e-27 1.8700563e-38 9.81793e-40 -4.1711714e-28 -4.0328125e-38 -8.381783e-20 4.10298e-39 8.889073e-38

decoder.7.bias f4 [32]
00000000: 4210 d43d 157f 7e3e 99f3 2000 e835 aebe
00000010: 12a2 223e ca8e b63e 2c3f 0dbd de65 833d
00000020: b106 8000 c401 ab3d 4b7f 4880 1ee0 3200
00000030: 8fd5 de3c a895 80be 3f12 1f3e d433 3e11
00000040: fd5b df3c 7546 f83d b54d 9d3d 5216 58be
00000050: 8732 8903 b30c a73e 5738 5a3c a9a3 dabe
00000060: 7c3c 133d 10d4 32be 88fd 003e c027 c13e
00000070: 60fd 81be 0bcd 9ebe 4da0 c73d 27b3 c03b
0.103546634 0.24853165 3.026122e-39 -0.34025502 0.15882137 0.35655814 -0.034484074 0.06415914
1.1757344e-38 0.08349946 -6.65782e-39 4.672173e-39 0.027201442 -0.2511418 0.15534304 1.5004328e-28
0.027265543 0.121228136 0.07680837 -0.21102265 8.063737e-37 0.32626876 0.0133190965 -0.42702988
0.035946354 -0.17463708 0.12596714 0.3772564 -0.25388622 -0.3101581 0.09747372 0.0058807316

decoder.10.weight f4 [40, 32]
00000000: 3eba 373d d479 203e 4f93 4b80 c6e8 c1bc
00000010: edf7 2ebd f622 12bd a154 f13c 8e6d 8dbc
00000020: 6e8c c2a3 fef6 8c3d d7fc 0700 81e0 4603
00000030: 7003 37bc 15fd f4bd 25b6 c33d ea17 1a8d
00000040: e65a 283e d778 c2bc a7c2 543c 4813 fa3c
00000050: 7249 3b83 a4b6 aa3d b220 84bc 1b1d f33d
00000060: a587 88be 4d44 363d f751 8e3d c3e4 b43d
00000070: f67e f33c 9567 3ebd 2683 0f3f f09d 18bd
00000080: 9b11 a93d 1886 633e 3afd 1300 5a57 debc
00000090: feb6 e1bd 1701 a6bd 81f5 ab3c 4132 04bd
000000a0: 5473 eea4 9d6e 293d b0a6 2600 4318 b71b
000000b0: aea2 9dbc a631 64be f498 a53d d01d 040a
000000c0: 162d f23b 118e f53c 1246 d73b 45ed ec3d
000000d0: 706e d581 d881 87bd 069a a7ba cae0 2a3e
000000e0: 972e e33d a926 9b3d ef34 583d d215 153e
000000f0: 63e6 a33c 7227 21be afbc 76bc cbec 503c
00000100: 7708 6d3d f926 563d 59e7 1480 6156 f83c
00000110: 0486 1dbc 4901 04bc da10 5abc 80b8 8b3c
00000120: e54e 039f 18bc c93b a3e2 1180 04f8 218f
00000130: 29f4 f7bc 3569 a1bd 6581 1c3d 2dab a40d
00000140: 9f9d 253c fe33 88bb 98f7 593c 92c0 86bc
00000150: f1b1 5d03 cc89 acbc 554d 8cbb 4659 9f3c
00000160: e5f6 443c 996d 103d 16e0 be3c c604 883c
00000170: 9236 143c c8a4 dbbc 5350 033d e680 7fbd
00000180: 1554 1fbc 54a0 bc3c 57ae 3000 aa31 96bd
00000190: 5a25 0a3d ab0b 883d cdf8 113d 100e 023c
000001a0: 4a4f 6680 f4c9 823d 9932 0f80 832d 0e80
000001b0: 1819 31bb 5ce1 323c dedd dfbc 3e79 0e8d
000001c0: 1ce1 193e 92ae 22bc 64fd 82bb 30a6 07bd
000001d0: 8519 d482 c95b a63d 213b 993b 0894 1b3d
000001e0: f68a 8dbe 8129 f73c 42d6 943a 069a e1bc
000001f0: bec5 833c 2e18 f73c 10d8 013f d633 9a3e
00000200: 8348 4f3b 7e09 5fbe cf6d 609d f8c1 c73e
00000210: 2b0a 653b 6dea 313e c18a a4be b999 02be
00000220: 54a1 a0b4 2938 9fbe 98cf 0200 4788 07a8
00000230: 6873 4b3e 01a5 aa3e 21dd 32be 1e80 e011
00000240: 78c2 753c ebc4 c7be f2de 85be 8431 823b
00000250: 620b 6c03 d2ab d53e c0e0 feb7 b25e d7be
00000260: c48d a9bc e874 543e 96aa 893c 0745 203e
00000270: ccd0 c03d 9774 003f 0c7e ab3d 2250 bd3d
00000280: af0d 27bc 32fe ad3c 1e3f 4300 d327 99bd
00000290: a3aa 023d 1ac2 8e3d 14cd 023d 9a1d 4a3c
000002a0: 5f5a 0a80 898f 803d 299a 1600 2850 0c00
000002b0: 457c 6dbb 428c 633c 3985 ccbc e762 208d
000002c0: 8b7e 173e ea14 29bc f581 aebb 0708 0dbd
000002d0: 2a9b e481 5b65 973d e509 403c 3dcd 123d
000002e0: 0d0b 8abe 978a dc3c 607f 7ebb 2bca efbc
000002f0: fbe3 773c 70b7 013d 4fa0 fe3e 29ec a23e
00000300: f21d 653d 9407 d6bc a216 500b 7f38 b4bc
00000310: d2f5 253b eb52 893d ccb8 da3a ab3d 76bd
00000320: 5ca6 2f0a 5ef0 4ebd 1e0d 1d00 c033 6c09
00000330: c5a5 043d 8f3a 3a3d a439 e0bc 6a0b d40d
00000340: 44ce cd3c faf6 0f3d b7de 983c 0c48 e03d
00000350: 9ca8 8982 8fbf 27be ea66 74bc cc71 adbd
00000360: eb64 003c 4c57 a73d 3cbc 7bbc d28b 0a3e
00000370: 8e77 513d e566 41bd eed8 113d 7004 723d
00000380: 6dad d0bc 7fd8 923b 0ba7 2f00 8629 013e
00000390: 2698 88bc f0d9 943c 7672 133e a90c e33d
000003a0: fbd4 bf85 bc75 133e 24a3 2f80 4593 3d1f
000003b0: 28c5 9bbd 2e5b 22bd 3dcb 8ebb cb47 068d
000003c0: fea1 febb 4a18 b33c 2d0c 7e3c d7e0 ffbd
000003d0: 4569 4202 67df 0b3c 40b3 30bb 3d3c d0bb
000003e0: 67c9 5e3c a4f5 87bd 15b1 6cbd 57f3 2f3c
000003f0: bdcd 113e e8a8 723f 2ba7 f0bc 8b5e 44bc
0.04485535 0.15671474 -6.940507e-39 -0.023670565 -0.04271691 -0.035677873 0.0294593 -0.017264154
-2.1092996e-17 0.068830475 7.3355e-40 5.844469e-37 -0.011170253 -0.11962334 0.09556226 -4.74837e-31
0.16440925 -0.023739262 0.012985862 0.030526772 -5.503867e-37 0.08335617 -0.016128872 0.11870786
-0.2666599 0.04449873 0.06949227 0.08832695 0.029723626 -0.046485502 0.5605949 -0.037259996
0.08255311 0.22219121 1.835715e-39 -0.027141262 -0.11021231 -0.081056766 0.020991089 -0.03227449
-1.0341142e-16 0.041365255 3.549545e-39 3.029049e-22 -0.01924261 -0.22284564 0.08085814 6.361176e-33
0.0073906286 0.02997497 0.0065696323 0.11568693 -7.840231e-38 -0.066165626 -0.0012786991 0.16687313
0.11092871 0.07575733 0.052784856 0.14559105 0.020007318 -0.15737703 -0.015059634 0.012751768
0.0578694 0.05228326 -1.919702e-39 0.030314626 -0.009614471 -0.008056947 -0.013309682 0.01705575
-2.780559e-20 0.0061564557 -1.642505e-39 -7.985679e-30 -0.030267792 -0.07881395 0.038209338 1.0148489e-30
0.010108381 -0.0041565886 0.01330366 -0.016449247 6.515033e-37 -0.0210618 -0.0042816796 0.019451749
0.012021755 0.03526077 0.023300212 0.016603839 0.009046214 -0.026811972 0.032059025 -0.062378787
-0.009724637 0.02302567 4.470645e-39 -0.073336914 0.033727027 0.066428505 0.035637666 0.007937923
-9.395664e-39 0.06386176 -1.395683e-39 -1.302023e-39 -0.0027023014 0.010917988 -0.027327474 -4.390307e-31
0.15027279 -0.009929316 -0.0039974917 -0.033117473 -3.1165248e-37 0.081229754 0.004676238 0.03798297
-0.2764508 0.030171158 0.0011355358 -0.027539264 0.016085502 0.030162897 0.5072031 0.30117673
0.0031628914 -0.21780965 -2.9702923e-21 0.39015174 0.0034948688 0.17374583 -0.3213711 -0.12753953
-2.9919704e-07 -0.31097534 2.58142e-40 -7.523556e-15 0.19868243 0.33329013 -0.17467166 3.5419927e-28
0.014999978 -0.39017424 -0.26146656 0.003973188 6.9367234e-37 0.4173265 -3.0383817e-05 -0.42064434
-0.020697482 0.20747721 0.016804975 0.15651332 0.09414825 0.501779 0.08373651 0.092438
-0.0101961335 0.021239374 6.17562e-39 -0.07478299 0.031901013 0.06970616 0.03193386 0.012336159
-9.50774e-40 0.06277377 2.075683e-39 1.13078e-39 -0.00362374 0.013888421 -0.02496587 -4.9422856e-31
0.14794366 -0.010319928 -0.0053255507 -0.034431484 -8.397662e-38 0.07392379 0.011721109 0.03584026
-0.26961556 0.026921554 -0.0038833246 -0.029271206 0.015130038 0.03166908 0.4973168 0.318208
0.05593676 -0.02612666 4.007637e-32 -0.021999596 0.0025323522 0.067052685 0.0016687154 -0.060117405
8.457232e-33 -0.0505222 2.667935e-39 2.84318e-33 0.032384653 0.045466002 -0.027371235 1.3068257e-30
0.02512277 0.035147645 0.018660886 0.10951242 -2.0227118e-37 -0.16381668 -0.014917115 -0.08468971
0.007836561 0.081709474 -0.015364703 0.135299 0.051139407 -0.04721727 0.03560727 0.059086263
-0.02547332 0.0044813748 4.376192e-39 0.12613496 -0.016674113 0.018170327 0.14399132 0.11086399
-1.803979e-35 0.14400381 -4.374792e-39 4.0144125e-20 -0.07605964 -0.039637737 -0.004357724 -4.1378356e-31
-0.007770776 0.021862168 0.015505833 -0.12494057 1.428308e-37 0.00853715 -0.002696231 -0.006354837
0.013597823 -0.06638649 -0.057786066 0.010739169 0.14238639 0.9478898 -0.029376587 -0.011985431

decoder.10.bias f4 [40]
00000000: 1873 c83d 52ac 233e 624f 273d 03fe b33c
00000010: 5d17 5b3d ed02 9b3c 3bbb 42bc 2d43 bebc
00000020: 008f fd3d 0b8c 37be 7571 c23d 1a64 29be
00000030: 0a36 a7bd 4107 18bd c9fe a93d 2b02 603d
00000040: f941 4dbd 79b3 2abd f497 12bd d43d 07bd
00000050: ded1 1839 16c9 ecbb 6062 33bd 8df1 52bd
00000060: 2b95 46bd 3a3c 61bd bc31 44bd 1599 6b3d
00000070: 3a8e 763c 7136 d23d 6d9a 01ba ca16 993c
00000080: bebc a5bc aa29 c7b8 ccc0 bdb7 16be 263b
00000090: e5c8 823e fef2 393a fff8 f039 fe45 f53a
0.097875774 0.15983704 0.04084719 0.021971708 0.053489078 0.018922294 -0.01188546 -0.023225391
0.12380791 -0.17924516 0.094942965 -0.16542092 -0.08164604 -0.037116293 0.083005495 0.054689568
-0.050111745 -0.041675065 -0.035789445 -0.03301795 0.00014574031 -0.0072261197 -0.04379499 -0.051499892
-0.0484821 -0.054989077 -0.047898993 0.057519037 0.015048558 0.1026429 -0.00049439707 0.018687624
-0.0202316 -9.49682e-05 -2.2620334e-05 0.002544289 0.25543895 0.00070933986 0.00045961884 0.0018712876
