seq2seq_ATT/model.pt (torch, 211601 bytes, 29 tensors)

weight_ih_l0 f4 [128, 6]
0.0030640587 -0.00036121297 -0.044421785 0.12076215 0.018223254 0.01093943 4.5709603e-11 4.1969428e-11
-7.249579e-11 6.535573e-11 -2.7880375e-11 1.1843345e-11 5.7275224e-07 -7.381131e-08 2.9622443e-08 -1.1028724e-07
-7.528988e-08 -1.9004696e-07 0.00031356022 -0.0010186591 0.0013335556 -0.0014459641 -0.0001261362 -0.00019718177
2.756905e-05 -5.4310964e-05 7.0395545e-05 -9.623602e-05 -4.4575363e-06 -2.4024155e-05 0.00020714302 -0.00021178785
0.00038404806 -0.00043660367 -0.00011275463 -0.00011225694 4.465609e-06 -4.897349e-06 1.1817542e-07 -7.707526e-06
-6.3741713e-06 -1.0778569e-05 -1.5272306e-08 -5.9828565e-08 1.1953372e-07 -9.226175e-08 -1.16089e-09 1.547086e-08
-0.0011769019 0.0005723431 0.0019360397 -0.0033852546 0.00029474442 -0.0016681026 1.0649299e-09 1.2125017e-09
-2.8424791e-09 1.0184096e-09 -1.7088742e-09 -1.4320352e-09 0.00060828414 0.0010640328 -0.0015495248 -2.5598449e-05
-0.00053467584 -0.00020018034 -1.3354088e-07 -1.7495623e-08 -3.4993417e-07 2.71454e-07 -2.5987651e-07 1.6485906e-07
-6.8615276e-07 4.995294e-07 -1.3095673e-06 1.5278177e-06 -2.0407552e-07 -2.8146206e-07 2.9067635e-08 -2.0568314e-07
1.4780599e-07 -1.3024405e-07 4.130842e-08 -3.145252e-08 1.7934836e-07 4.6197e-07 -3.7055338e-07 3.3840564e-07
-8.61672e-09 1.5387194e-09 -0.08216446 0.026243085 -0.06449176 0.04988155 0.007765543 0.013396513
-5.190998e-07 -5.4831173e-07 1.0111382e-06 -8.973473e-07 -1.2655192e-09 9.5957596e-08 -1.7770077e-07 -1.2610705e-06
1.4791993e-06 -1.5994515e-06 7.52874e-08 -1.4587044e-07 -0.10033934 0.021910783 -0.15380114 0.27927598
0.029857391 0.045105726 2.2433187e-07 -5.708297e-08 1.6369603e-07 -2.4706446e-07 -7.12552e-08 -9.259281e-08
-6.2212298e-09 -7.304628e-09 -1.5062628e-08 8.227691e-09 -1.4854254e-08 -9.459969e-09 7.4717843e-07 2.277468e-06
-2.4225205e-06 2.142003e-06 2.101801e-07 1.6535675e-07 -3.1439805e-07 -3.7888544e-08 -2.5042482e-07 2.2184658e-07
-1.9138228e-07 1.3645315e-07 -0.042587712 -0.0019649705 -0.11000993 0.26034808 0.03286748 0.040985186
-4.345396e-08 3.0899546e-08 -8.88541e-08 8.8909935e-08 -3.7641055e-09 -2.8172764e-08 2.4347119e-06 -5.618041e-05
6.36304e-05 -7.676733e-05 -2.4824976e-06 -9.6308195e-06 5.061532e-06 -8.0274134e-07 2.005343e-06 -4.008877e-06
3.0816443e-07 -3.3829963e-06 2.3743354e-07 -1.6397497e-07 1.9992386e-07 -1.9679965e-07 -1.09963736e-07 -2.4732868e-08
0.0002638363 -7.598687e-05 0.00030695938 -0.0003908051 -0.00013251737 -0.00012186482 0.00016449756 -2.6225478e-05
0.00015985462 -0.00020110433 -0.00011691627 -8.6093765e-05 -0.02171107 -0.008743436 -0.027821383 0.072090656
0.008252842 0.02563889 7.848904e-06 -3.079431e-06 8.0554e-06 -9.32353e-06 -7.1764116e-06 -3.4515535e-06
0.007342013 -0.008336667 -0.022143668 0.07911718 0.014537032 0.004850017 -1.3477029e-11 -1.2769981e-11
-1.6290271e-11 1.0310958e-11 1.7891817e-12 -1.2433075e-11 6.023812e-07 -1.241755e-07 1.455848e-07 -1.1110658e-07
4.5528502e-08 7.618699e-09 0.00032853536 -0.0005347837 0.00079987507 -0.000878605 -8.083752e-05 -0.00014055416
1.8262608e-05 -3.4061497e-05 3.9683382e-05 -4.41391e-05 1.1449338e-05 -1.3153591e-05 0.00016367159 -3.161827e-05
0.00014138852 -0.00015819649 -9.4450545e-05 -0.00014312478 5.1362904e-06 -8.322802e-06 4.7023195e-06 -4.7854537e-06
4.5051806e-06 -4.9017817e-06 -1.3207889e-09 8.529726e-08 -6.762259e-08 6.0773445e-08 -2.5904006e-08 -3.1568835e-08
0.0004284717 0.0017047166 -0.0022150269 0.0015352151 0.0016380277 0.0008163455 1.599068e-09 3.253787e-10
-1.6373397e-09 1.666796e-09 -1.0084659e-09 -1.8260371e-09 -0.000260217 -7.2147006e-05 -0.0017125533 0.0017325092
00000000: 60ce 483b 2f61 bdb9 9ef3 35bd 2552 f73d
00000010: ef48 953c 4c3b 333c 7008 492e 6095 382e
00000020: 806b 9fae 01b8 8f2e 063d f5ad af59 502d
00000030: 3cbf 1935 3282 9eb3 7174 fe32 0dd7 ecb3
00000040: 0daf a1b3 b60f 4cb4 5765 a439 8784 85ba
00000050: b3ca ae3a 8186 bdba 6e43 04b9 94c2 4eb9
00000060: 1644 e737 f4cb 63b8 52a1 9338 52d2 c9b8
00000070: f291 95b6 7b87 c9b7 8834 5939 5e13 5eb9
00000080: 0f5a c939 f4e7 e4b9 ae76 ecb8 7c6b ebb8
00000090: 4ad7 9536 e853 a4b6 a0c7 fd33 924f 01b7
000000a0: b7e1 d5b6 9ad5 34b7 2830 83b2 1a7b 80b3
000000b0: 2e59 0034 6f21 c6b3 308d 9fb0 c8e4 8432
000000c0: 4642 9aba 4c09 163a b6c2 fd3a 26db 5dbb
000000d0: ed87 9a39 3ca4 daba e45c 9230 1ca5 a630
000000e0: 6c55 43b1 1af8 8b30 aadd eab0 42d1 c4b0
000000f0: 4275 1f3a 0477 8b3a 6d19 cbba 40bc d6b7
00000100: 7d29 0cba 80e7 51b9 7063 0fb4 4849 96b2
00000110: 96de bbb4 5bbc 9134 2885 8bb4 1d04 3134
00000120: 0f30 38b5 6617 0635 64c4 afb5 6b0f cd35
00000130: da1f 5bb4 da1b 97b4 68b0 f932 c0d9 5cb4
00000140: 9ab4 1e34 36d9 0bb4 176b 3133 6916 07b3
00000150: e792 4034 ac04 f834 78f0 c6b4 1eae b534
00000160: bc08 14b2 e07a d330 d745 a8bd bdfb d63c
00000170: 4214 84bd 9950 4c3d 1976 fe3b 0c7d 5b3c
00000180: 4458 0bb5 b22f 13b5 72b6 8735 3de1 70b5
00000190: 80ee adb0 3f11 ce33 04ce 3eb4 0d42 a9b5
000001a0: e788 c635 bcac d6b5 b0ad a133 90a0 1cb4
000001b0: b67e cdbd 3e7e b33c 0c7e 1dbe 43fd 8e3e
000001c0: 7d97 f43c c8c0 383d e0df 7034 642b 75b3
000001d0: 6cc4 2f34 48a4 84b4 f604 99b3 70d7 c6b3
000001e0: 84c2 d5b1 30fc fab1 1263 81b2 c559 0d32
000001f0: b331 7fb2 6285 22b2 b691 4835 9ad6 1836
00000200: 9692 22b6 55bf 0f36 dead 6134 eb8c 3134
00000210: 8aca a8b4 e5ba 22b3 2072 86b4 b934 6e34
00000220: c37e 4db4 f583 1234 7470 2ebd bcc6 00bb
00000230: e34c e1bd 584c 853e 0da0 063d 15e0 273d
00000240: 22a2 3ab3 69b6 0433 0fd0 beb3 c1ee be33
00000250: 6c55 81b1 9000 f2b2 0864 2336 42a3 6bb8
00000260: 5071 8538 25fe a0b8 fc98 26b6 0e94 21b7
00000270: 3bd6 a936 f77b 57b5 8893 0636 fe83 86b6
00000280: cc71 a534 6f07 63b6 3cf1 7e34 1911 30b4
00000290: a7aa 5634 e04f 53b4 3425 ecb3 2774 d4b2
000002a0: 8253 8a39 245b 9fb8 64ef a039 f9e4 ccb9
000002b0: 5cf4 0ab9 ad91 ffb8 fa7c 2c39 c9fe dbb7
000002c0: a69e 2739 88df 52b9 f230 f5b8 3d8d b4b8
000002d0: 6adb b1bc a140 0fbc abe9 e3bc 44a4 933d
000002e0: ee36 073c a608 d23c c9ae 0337 39a8 4eb6
000002f0: ae25 0737 426c 1cb7 e8cc f0b6 3da1 67b6
00000300: 4595 f03b 8496 08bc a366 b5bc 3008 a23d
00000310: bb2c 6e3c e4ec 9e3b 2517 6dad e2a6 60ad
00000320: 6e4a 8fad 6d64 352d 10ce fb2b 98b9 5aad
00000330: 52b3 2135 1a55 05b4 0c52 1c34 7d99 eeb3
00000340: 1e8b 4333 64e3 0232 453f ac39 ba30 0cba
00000350: b5ae 513a 2f52 66ba 5087 a9b8 b861 13b9
00000360: a732 9937 41dd 0eb8 b571 2638 ff21 39b8
00000370: 8816 4037 3eae 5cb7 429f 2b39 dc9d 04b8
00000380: b141 1439 8ce1 25b9 c013 c6b8 c413 16b9
00000390: 6658 ac36 2aa2 0bb7 9ec8 9d36 bc92 a0b6
000003a0: 352b 9736 fc79 a4b6 2187 b5b0 aa2c b733
000003b0: e937 91b3 8e82 8233 8383 deb2 4d96 07b3
000003c0: 80a4 e039 cc70 df3a fc29 11bb 4539 c93a
000003d0: 17b3 d63a 0500 563a 34c6 db30 fbe0 b22f
000003e0: c508 e1b0 2c15 e530 3d9a 8ab0 f8f7 fab0
000003f0: bc6d 88b9 a14d 97b8 c177 e0ba 5d15 e33a

weight_hh_l0 f4 [128, 32]
0.0052854447 -1.6231468e-07 -1.7019069e-05 0.0007577137 9.046373e-05 -0.00064532994 4.679445e-06 -6.8724808e-06
-0.0012505015 5.82397e-07 0.00018104543 -5.835079e-06 -2.6530764e-05 -3.7688617e-06 -1.3749286e-05 0.003042684
1.4714588e-05 -5.0076105e-06 -0.0068294825 1.5138412e-05 3.4376098e-06 3.1389787e-05 4.868949e-06 -0.0064745406
-4.9341465e-06 -0.00019337256 5.6455538e-05 1.6529459e-05 0.00042869092 0.00027561362 -0.009313314 -0.00012522326
-9.918107e-13 2.9783727e-16 -2.7517593e-15 1.9822053e-08 -9.536032e-06 7.2383466e-07 -2.8511153e-05 1.6971951e-05
6.175941e-13 -2.63456e-15 1.2381159e-07 1.1684403e-13 4.5425066e-14 8.12556e-14 -6.3309886e-07 1.4052058e-12
1.2941197e-06 1.4105466e-05 1.7792519e-12 -7.920309e-15 2.408194e-15 -1.12613207e-13 4.336314e-15 5.4704787e-12
1.5849098e-14 -5.507334e-06 -3.478377e-14 -1.00082174e-13 -6.6008245e-13 -3.6100132e-13 5.546119e-12 2.3521669e-13
1.4216446e-08 2.0776501e-12 -1.6945063e-10 -1.1491674e-08 -7.2404197e-07 8.57427e-09 -2.2540641e-07 -9.97978e-08
2.9743438e-07 5.431388e-11 -1.870698e-08 -5.164229e-10 -7.710201e-10 1.6318803e-09 -8.366808e-08 -2.402615e-09
-1.6177905e-06 -5.352583e-10 -7.578535e-09 -1.1173764e-09 -3.8851755e-10 6.5992003e-07 -1.188184e-09 5.3787154e-08
-1.2432283e-10 -4.6901878e-05 -3.3501197e-05 -1.0415019e-09 -2.8803786e-08 -1.4416457e-08 -1.1913823e-08 3.6423884e-08
8.349515e-05 -7.0278924e-07 1.5421867e-06 -2.1508327e-05 -1.7453744e-05 5.9686332e-05 -1.1857649e-05 -9.2082456e-07
0.00015059725 2.8767427e-06 2.1260088e-05 7.307521e-07 -7.0688475e-07 1.1178645e-06 4.0616447e-07 -1.07878695e-05
-1.8669064e-07 -2.225018e-06 2.0973304e-05 -1.4562063e-06 3.7847443e-08 1.2320545e-05 -2.1033287e-05 2.6137312e-05
-2.5334143e-07 0.00012668542 -3.080423e-05 -1.4525049e-06 -6.232832e-05 -3.683798e-05 0.00013232522 6.3826933e-06
4.4917333e-06 -3.0589394e-08 4.114513e-06 -5.0357714e-05 -3.4237308e-07 -5.615175e-06 4.5437972e-07 -1.6267158e-08
2.496949e-05 8.174388e-08 -1.9469331e-05 3.387941e-07 1.0406928e-06 -7.046653e-05 -4.47326e-08 1.4872562e-05
2.5777787e-08 8.798647e-08 5.0236767e-06 -2.1738248e-07 4.734331e-05 -1.1667182e-08 -2.9047976e-07 -5.1490224e-06
5.3666226e-06 1.7378682e-08 -1.681255e-08 -1.8220196e-07 -1.2798174e-06 -6.1265373e-06 1.0091394e-05 7.8818954e-07
4.946902e-05 -6.0795344e-08 -2.00381e-05 -1.6177708e-05 -5.5404007e-07 1.9835263e-05 -5.0603294e-06 -2.1331736e-08
7.185391e-05 1.7987528e-05 3.2703912e-05 8.2601924e-05 -3.4331137e-05 6.9842133e-07 -5.8274895e-07 -1.5879115e-05
7.722691e-07 -5.3405097e-07 4.1241026e-05 3.9626423e-07 7.918377e-06 4.9121736e-06 5.221641e-07 1.4558081e-05
6.994003e-07 4.154427e-06 -1.7396981e-06 -6.6646277e-07 -2.7014255e-05 -2.2528007e-05 0.00015236881 1.8267685e-06
1.2797533e-06 -1.8130869e-07 1.2996337e-07 -9.638338e-07 1.7351758e-07 1.2028124e-07 3.8725076e-08 -6.784189e-09
1.1109035e-05 9.501165e-09 2.6537512e-06 -4.5247806e-11 -3.1863102e-08 8.877254e-08 -6.709852e-09 1.923877e-06
1.575145e-08 1.724787e-07 1.8209779e-06 7.900875e-09 -4.3950295e-06 1.1671403e-08 -1.1819138e-08 -1.9757391e-07
3.174524e-09 -6.741098e-08 7.71614e-08 -6.296237e-08 2.6871783e-07 -1.5095377e-06 6.8173995e-06 6.6214795e-08
2.1357856e-08 -1.4014491e-11 1.7966426e-10 1.619407e-05 -8.5084695e-10 -1.2442092e-09 -3.6906533e-10 -8.902614e-11
-1.2223875e-09 -8.966632e-09 -1.2266963e-08 -6.791718e-11 -5.5807144e-11 7.8350756e-11 -1.1250503e-10 -2.729891e-08
1.7995362e-11 2.0763723e-08 8.0269835e-10 1.2706332e-10 -3.6871006e-07 1.0924591e-10 3.261429e-11 -4.140923e-09
-5.055377e-12 5.5430927e-10 2.484235e-11 -1.7818991e-10 1.0855379e-09 -1.0983937e-09 2.2800723e-08 1.6905834e-10
00000000: 8631 ad3b b848 2eb4 2cc4 8eb7 4ea1 463a
00000010: 58b7 bd38 5c2b 29ba 2004 9d36 299a e6b6
00000020: dee7 a3ba 0456 1c35 03d7 3d39 f2ca c3b6
00000030: 628e deb7 8dec 7cb6 bcac 66b7 c467 473b
00000040: adde 7637 0c07 a8b6 dac9 dfbb fcfa 7d37
00000050: b0b1 6636 87a8 0338 f45f a336 6228 d4bb
00000060: ff8f a5b6 0dc4 4ab9 acca 6c38 bea8 8a37
00000070: ecc1 e039 3c80 9039 df96 18bc 5d4e 03b9
00000080: bf95 8bab 06b1 ab25 0049 46a7 2845 aa32
00000090: f2fc 1fb7 8a4d 4235 3c2b efb7 fd5e 8e37
000000a0: 58d6 2d2b 0ed7 3da7 12f1 0434 008e 032a
000000b0: 8993 4c29 aaf8 b629 39f2 29b5 e0c3 c52b
000000c0: 9db1 ad35 84a6 6c37 4e68 fa2b faad 0ea8
000000d0: 5787 2d27 1895 fda9 703b 9c27 b179 c02c
000000e0: 88c1 8e28 a4cb b8b6 f5a6 1ca9 725d e1a9
000000f0: f4cb 39ab c639 cbaa 0023 c32c 4c6a 842a
00000100: 973c 7432 9e33 122c 1d50 3aaf eb6c 45b2
00000110: c95b 42b5 0a4e 1332 3e07 72b4 6c50 d6b3
00000120: 12af 9f34 fedf 6e2e 16b1 a0b2 08f4 0db0
00000130: b7ef 53b0 af48 e030 03ad b3b3 401b 25b1
00000140: dc22 d9b5 7421 13b0 c032 02b2 3092 99b0
00000150: fc96 d5af 5c25 3135 824d a3b0 9a03 6733
00000160: c4b1 08af 82b8 44b8 a383 0cb8 9724 8fb0
00000170: 326c f7b2 40ac 77b2 8cad 4cb2 7c70 1c33
00000180: 1e1a af38 4fa7 3cb5 22fd ce35 c86c b4b7
00000190: a169 92b7 b657 7a38 37f0 46b7 952e 77b5
000001a0: a4e9 1d39 100e 4136 b157 b237 e728 4435
000001b0: c0c0 3db5 8809 9635 d20e da34 8cfd 34b7
000001c0: 2275 48b4 8551 15b6 d4ef af37 de72 c3b5
000001d0: b48d 2233 56b4 4e37 a470 b0b7 7341 db37
000001e0: fb02 88b4 dcd6 0439 ca33 01b8 b0f3 c2b5
000001f0: 43b6 82b8 7b82 1ab8 c8c0 0a39 eb2a d636
00000200: b2b7 9636 6561 03b3 660f 8a36 2f37 53b8
00000210: 66cf b7b4 fc69 bcb6 79f1 f334 dcbb 8bb2
00000220: 9275 d137 2c8b af33 1252 a3b7 82e3 b534
00000230: efad 8b35 6ec7 93b8 0420 40b3 2b85 7937
00000240: f46d dd32 13f3 bc33 0e91 a836 a469 69b4
00000250: 7e92 4638 cf70 48b2 3cf3 9bb4 c4c5 acb6
00000260: f012 b436 2048 9532 306b 90b2 4ba3 43b4
00000270: 31c6 abb5 8e92 cdb6 354e 2937 f993 5335
00000280: f57c 4f38 988e 82b3 7e17 a8b7 5db5 87b7
00000290: 58b9 14b5 e763 a637 e6cb a9b6 fc3c b7b2
000002a0: 46b0 9638 ece3 9637 8f2b 0938 923a ad38
000002b0: c7fe 0fb8 267b 3b35 346e 1cb5 2434 85b7
000002c0: ee4d 4f35 b45b 0fb5 37fa 2c38 24be d434
000002d0: 2cd9 0437 40d3 a436 d82a 0c35 7b3e 7437
000002e0: 6cbe 3b35 4266 8b36 927f e9b5 f9e6 32b5
000002f0: ac9c e2b7 87fa bcb7 31c5 1f39 4a2f f535
00000300: fdc3 ab35 c1ad 42b4 0f8c 0b34 145d 81b5
00000310: 2650 3a34 a826 0134 ac52 2633 5c1a e9b1
00000320: f160 3a37 913a 2332 1917 3236 8000 47ae
00000330: dad9 08b3 38a3 be33 7b8c e6b1 f51b 0136
00000340: ce4d 8732 9632 3934 5368 f435 6abc 0732
00000350: 0479 93b6 6083 4832 1e0d 4bb2 b424 54b4
00000360: d126 5a31 94c3 90b3 eeb3 a533 ee35 87b3
00000370: 4c44 9034 529b cab5 04c1 e436 f831 8e33
00000380: 6c76 b732 a88b 76ad fe8a 452f 80d8 8737
00000390: 08e1 69b0 b800 abb0 54e5 caaf 43c5 c3ae
000003a0: f000 a8b0 aa0b 1ab2 acbe 52b2 f959 95ae
000003b0: 4271 75ae 8e4b ac2e b466 f7ae f07e eab2
000003c0: f449 9e2d e95b b232 e0a4 5c30 25b5 0b2f
000003d0: 20f3 c5b4 fb3b f02e 6d70 0f2e f247 8eb1
000003e0: cade b1ac 0c5e 1830 0084 da2d 00ec 43af
000003f0: f831 9530 4bf6 96b0 52db c332 b1e1 392f

bias_ih_l0 f4 [128]
0.028050113 3.71112e-13 -2.5186864e-08 -0.00029121205 -9.443521e-06 -7.3872856e-05 -3.0113283e-06 8.349839e-08
-0.0005287538 -7.694709e-10 -0.0010792977 -2.493359e-07 2.929579e-07 -7.620389e-08 -2.3420078e-08 0.023821829
6.006345e-07 -3.539636e-07 0.08507417 -5.327763e-09 -8.236189e-09 -2.9297553e-07 -1.512644e-07 0.08134587
9.651943e-09 -1.2757557e-05 -1.3795939e-06 -1.8515064e-07 -4.3497348e-05 -3.8305785e-05 0.015109514 4.322162e-07
0.019371899 1.5880896e-11 -1.63831e-07 -0.00019429128 -2.2728695e-05 -0.00010544677 -5.8216947e-06 7.0988634e-08
-0.0027158845 2.1571109e-10 -0.00048151863 3.9801982e-08 -5.913583e-08 -1.02292844e-07 -1.1820753e-07 0.015897132
5.5095904e-07 -2.0510532e-07 0.070718296 -8.243967e-08 -3.2079108e-09 -3.5978405e-07 6.2819055e-08 0.06475493
9.613897e-09 -1.14118775e-05 -4.398756e-06 -1.0882626e-07 -0.00010576006 -6.9875015e-05 0.012660671 -6.866708e-07
-0.011051183 2.3506809e-07 -6.082873e-05 0.0018355199 0.0008013958 -0.0014313736 0.0003766174 -3.5648236e-06
-0.004682323 5.914106e-06 0.0013669244 -4.7981775e-05 -6.7671266e-05 -3.1581556e-05 -2.6395031e-05 0.026061965
1.709926e-05 2.7893338e-05 0.049841564 4.862466e-05 1.27706035e-05 4.0591265e-05 4.136763e-05 0.09402435
-1.9756251e-05 -0.0005822848 0.00025083293 5.217739e-05 0.0016755855 0.0013204267 -0.012268807 -0.00026918805
0.027014943 1.1720789e-13 -3.2597363e-08 -0.00028813886 -1.0676218e-05 -7.333988e-05 -3.1870204e-06 8.431184e-08
-0.00058821257 -8.1723445e-10 -0.0011166638 -2.4991627e-07 2.950041e-07 -8.000818e-08 -2.1472019e-08 0.025470238
6.030098e-07 -3.5103648e-07 0.08988558 -9.029563e-09 -8.296658e-09 -2.8396974e-07 -1.5083886e-07 0.08666659
9.953395e-09 -1.3492405e-05 -1.5166115e-06 -1.9101174e-07 -4.6376234e-05 -4.0328036e-05 0.020438442 3.5757898e-07
00000000: 5ac9 e53c e0ea d02a 805a d8b2 d2ad 98b9
00000010: 9d6f 1eb7 30ec 9ab8 3a16 4ab6 ba4f b333
00000020: 119c 0aba b382 53b0 3977 8dba 77dc 85b4
00000030: d447 9d34 88a5 a3b3 4c2d c9b2 ff25 c33c
00000040: 4a3b 2135 6308 beb4 5e3b ae3d 800f b7b1
00000050: 247f 0db2 404a 9db4 3e6b 22b4 aa98 a63d
00000060: b2d1 2532 4a09 56b7 7c2a b9b5 d2cd 46b4
00000070: ec70 36b8 86aa 20b8 e58d 773c 580b e834
00000080: d1b1 9e3c 99b0 8b2d 86e9 2fb4 abba 4bb9
00000090: 80a9 beb7 4e23 ddb8 fa57 c3b6 6a72 9833
000000a0: fbfc 31bb 462d 6d2f 5674 fcb9 bef2 2a33
000000b0: 88fc 7db3 16ac dbb3 47d9 fdb3 b43a 823c
000000c0: 9ee5 1335 ec3a 5cb4 c1d4 903d b009 b1b3
000000d0: 2a72 5cb1 5828 c1b4 24e7 8633 3c9e 843d
000000e0: 5e2a 2532 a475 3fb7 0799 93b6 deb3 e9b3
000000f0: 80cb ddb8 dd89 92b8 b46e 4f3c a853 38b5
00000100: 0510 35bc 0667 7c34 5a22 7fb8 d495 f03a
00000110: c314 523a ee9c bbba bb74 c539 343b 6fb6
00000120: 2c6e 99bb c971 c636 5f2a b33a 0a40 49b8
00000130: bcea 8db8 7076 04b8 e66a ddb7 e77f d53c
00000140: 6270 8f37 7dfc e937 ab26 4c3d 55f2 4b38
00000150: 5341 5637 8a40 2a38 2882 2d38 d78f c03d
00000160: 3aba a5b7 79a4 18ba 3a82 8339 0cd9 5a38
00000170: 529f db3a 2b12 ad3a 1b03 49bc cf21 8db9
00000180: 714e dd3c e0f6 032a 2e01 0cb3 5811 97b9
00000190: 021e 33b7 0cce 99b8 98e0 55b6 ed0e b533
000001a0: 4732 1aba c3a3 60b0 055d 92ba 3b2c 86b4
000001b0: 0e61 9e34 f6d0 abb3 7871 b8b2 f6a6 d03c
000001c0: 85de 2135 1676 bcb4 ee15 b83d 7020 1bb2
000001d0: 1689 0eb2 8174 98b4 45f6 21b4 417e b13d
000001e0: 7fff 2a32 705d 62b7 608e cbb5 e818 4db4
000001f0: 1a84 42b8 e625 29b8 856e a73c 48f9 bf34

bias_hh_l0 f4 [128]
0.02805012 3.7113064e-13 -2.5186843e-08 -0.000291212 -9.443487e-06 -7.387286e-05 -3.0113315e-06 8.349839e-08
-0.0005287544 -7.694696e-10 -0.0010792975 -2.493358e-07 2.92958e-07 -7.6203946e-08 -2.3420093e-08 0.023821829
6.006347e-07 -3.539637e-07 0.085074164 -5.327749e-09 -8.236184e-09 -2.9297578e-07 -1.5126459e-07 0.081345856
9.651961e-09 -1.2757562e-05 -1.3795936e-06 -1.851507e-07 -4.349729e-05 -3.830572e-05 0.015109519 4.3221894e-07
0.019371903 1.588091e-11 -1.6383103e-07 -0.00019429126 -2.2728706e-05 -0.00010544669 -5.821691e-06 7.098862e-08
-0.002715884 2.1571167e-10 -0.0004815191 3.9801947e-08 -5.9135886e-08 -1.0229289e-07 -1.1820745e-07 0.01589713
5.5095916e-07 -2.0510527e-07 0.07071829 -8.243971e-08 -3.2079053e-09 -3.5978417e-07 6.2818984e-08 0.06475492
9.613879e-09 -1.1411893e-05 -4.398756e-06 -1.0882635e-07 -0.000105760046 -6.987502e-05 0.012660676 -6.8667055e-07
-0.011051187 2.3506817e-07 -6.082865e-05 0.0018355187 0.00080139696 -0.0014313728 0.00037661736 -3.5648095e-06
-0.004682318 5.914103e-06 0.0013669281 -4.7981808e-05 -6.767125e-05 -3.1581534e-05 -2.6394882e-05 0.025659896
1.7099159e-05 2.789342e-05 0.0503572 4.8624617e-05 1.2770585e-05 4.059128e-05 4.1367628e-05 0.09495504
-1.9756262e-05 -0.0005822836 0.00025083238 5.2177336e-05 0.001675587 0.0013204258 -0.01226881 -0.0002691886
0.027014945 1.1719965e-13 -3.2597296e-08 -0.00028813866 -1.0676193e-05 -7.333993e-05 -3.1870231e-06 8.4311836e-08
-0.0005882109 -8.172331e-10 -0.0011166638 -2.4991613e-07 2.9500407e-07 -8.000815e-08 -2.1472044e-08 0.025470244
6.030097e-07 -3.5103653e-07 0.08988556 -9.029527e-09 -8.296659e-09 -2.8396977e-07 -1.5083884e-07 0.086666584
9.9533946e-09 -1.3492401e-05 -1.5166131e-06 -1.9101168e-07 -4.637624e-05 -4.0327985e-05 0.020438453 3.5758376e-07
00000000: 5ec9 e53c 90ed d02a 745a d8b2 d0ad 98b9
00000010: 786f 1eb7 31ec 9ab8 4816 4ab6 ba4f b333
00000020: 1b9c 0aba 9c82 53b0 3777 8dba 74dc 85b4
00000030: d747 9d34 90a5 a3b3 542d c9b2 ff25 c33c
00000040: 4d3b 2135 6708 beb4 5d3b ae3d 600f b7b1
00000050: 1f7f 0db2 494a 9db4 4b6b 22b4 a898 a63d
00000060: c6d1 2532 5009 56b7 7a2a b9b5 d6cd 46b4
00000070: dc70 36b8 74aa 20b8 ea8d 773c b80b e834
00000080: d3b1 9e3c a1b0 8b2d 88e9 2fb4 aaba 4bb9
00000090: 86a9 beb7 4323 ddb8 f257 c3b6 6872 9833
000000a0: f9fc 31bb 702d 6d2f 6674 fcb9 b4f2 2a33
000000b0: 98fc 7db3 1cac dbb3 3cd9 fdb3 b33a 823c
000000c0: a0e5 1335 e83a 5cb4 c0d4 903d b609 b1b3
000000d0: 1172 5cb1 5c28 c1b4 1ae7 8633 3a9e 843d
000000e0: 492a 2532 b575 3fb7 0799 93b6 ebb3 e9b3
000000f0: 7ecb ddb8 de89 92b8 b96e 4f3c a453 38b5
00000100: 0a10 35bc 0c67 7c34 4422 7fb8 ca95 f03a
00000110: d714 523a e79c bbba ba74 c539 f63a 6fb6
00000120: 216e 99bb c271 c636 7f2a b33a 1340 49b8
00000130: baea 8db8 6a76 04b8 946a ddb7 b434 d23c
00000140: 2a70 8f37 aafc e937 5a43 4e3d 49f2 4b38
00000150: 3f41 5637 8e40 2a38 2782 2d38 ca77 c23d
00000160: 40ba a5b7 64a4 18ba 2782 8339 fdd8 5a38
00000170: 5f9f db3a 2312 ad3a 1e03 49bc e221 8db9
00000180: 724e dd3c 80f4 032a 1b01 0cb3 5111 97b9
00000190: e61d 33b7 13ce 99b8 a4e0 55b6 ec0e b533
000001a0: 2a32 1aba aba3 60b0 055d 92ba 362c 86b4
000001b0: 0d61 9e34 f2d0 abb3 8671 b8b2 f9a6 d03c
000001c0: 83de 2135 1876 bcb4 ec15 b83d 4820 1bb2
000001d0: 1889 0eb2 8274 98b4 44f6 21b4 407e b13d
000001e0: 7eff 2a32 6c5d 62b7 6e8e cbb5 e418 4db4
000001f0: 1c84 42b8 d825 29b8 8b6e a73c f0f9 bf34

weight_ih_l1 f4 [128, 32]
-4.4475001e-10 -6.144022e-13 1.2221149e-10 -1.1083663e-08 -1.4607224e-07 9.152494e-09 -2.7224913e-05 1.7547359e-07
2.8606031e-08 -2.7235205e-13 3.7351384e-09 3.227188e-10 -4.216777e-10 -7.836829e-05 6.18764e-07 -1.1035486e-08
-1.1676886e-08 -1.7182427e-07 1.9613651e-08 -3.183944e-11 -4.5362308e-12 3.925722e-06 -1.6442644e-11 2.4100353e-09
1.3471451e-06 -5.8731295e-08 3.8368353e-10 -1.0762358e-10 -5.270893e-09 -3.3589886e-09 2.9900683e-08 7.424996e-10
-6.732007e-05 -1.049465e-06 1.6251324e-06 9.956679e-06 -1.2550117e-06 -1.394104e-06 7.4051086e-06 -5.0368897e-08
-3.6779995e-05 -3.9101977e-08 5.0221817e-05 4.169221e-06 1.159607e-05 1.0585082e-07 1.2262419e-06 3.698432e-05
9.4910575e-07 -3.4144818e-05 -5.0465e-05 2.0158616e-07 -1.8211911e-06 -9.728859e-06 1.0235823e-06 -0.0001684817
1.0956817e-05 -2.8295667e-06 -1.0010953e-05 -4.4734293e-07 5.2333326e-06 9.748595e-06 0.00065826706 -7.603987e-07
5.6666213e-11 -1.3237168e-13 2.0928539e-12 1.3368975e-10 8.7295475e-06 -3.441194e-12 5.2097378e-14 -2.1064208e-14
-2.9361675e-09 7.335985e-12 -6.92368e-11 -1.0480556e-11 1.2197925e-13 2.266112e-12 -1.3486472e-11 1.8635267e-12
-1.12379656e-13 3.4604183e-13 -1.3767532e-11 -2.990393e-14 -4.922294e-13 5.934528e-11 -8.064469e-13 2.595141e-11
8.849793e-08 -6.0419136e-09 8.1963475e-07 4.1275428e-11 1.5257494e-05 -9.763937e-08 -1.013295e-11 5.7131877e-12
-0.00015067137 -1.8152687e-05 1.9382546e-06 -7.594345e-05 -1.9975243e-05 5.6320583e-05 -1.7080129e-05 -4.668576e-07
-0.00025543227 -3.3735887e-07 -0.0001249943 2.2687689e-06 1.7355226e-06 -3.6144473e-05 -5.3525564e-06 0.0002208962
5.339173e-07 -1.7339022e-06 0.0004896705 1.9621975e-05 6.768778e-07 -3.4753684e-06 4.605982e-06 -0.00017673578
4.4899832e-07 -2.8318911e-05 -5.921326e-06 3.0245985e-07 -5.4457898e-05 -5.331897e-06 0.00039277988 2.8902982e-06
-8.4801064e-07 -4.0222112e-10 -5.0061626e-06 -2.7748001e-06 -1.2387361e-06 1.4439894e-06 -2.3723797e-07 7.7674e-09
1.6645623e-05 -4.366633e-09 -1.7538844e-06 1.4952518e-06 5.0590465e-08 1.8568043e-08 1.7542832e-06 -2.1823128e-06
-1.7572926e-08 1.31806e-06 4.3687023e-06 -3.986776e-08 -7.466082e-09 -2.3546042e-08 -9.193418e-09 1.6323818e-06
3.1058022e-08 2.813441e-07 -1.3035815e-05 -3.8693425e-08 5.1620764e-06 -1.2789241e-06 7.944706e-06 1.9864245e-07
1.951961e-13 3.4200873e-10 2.4607473e-06 -4.159403e-08 1.461969e-06 -1.2866828e-09 1.7893141e-10 -6.960088e-07
1.8289044e-05 -1.4083014e-08 -2.584189e-08 1.1165244e-05 1.3534541e-15 1.2258021e-09 -3.7995687e-09 9.508244e-14
4.212661e-06 -1.0044249e-16 -4.4365187e-14 1.11390584e-07 -1.11892095e-05 1.6378641e-06 1.37283805e-05 -2.6917468e-13
-3.3125214e-10 4.1921294e-07 3.093851e-07 -9.461276e-11 -2.6697912e-06 9.012924e-09 4.584238e-13 8.376493e-10
1.6533231e-12 -7.613514e-08 -7.1933144e-08 1.17903655e-05 4.375829e-07 -1.683127e-05 -2.6893293e-10 4.607119e-10
-4.854478e-10 -2.7336804e-09 1.4275873e-05 -1.01992214e-07 2.6827001e-06 -1.6185566e-09 -1.8566222e-07 3.4513863e-12
7.661416e-11 2.0730264e-14 -6.606586e-15 -9.1289526e-10 5.2001064e-07 1.3960931e-05 1.990553e-07 1.7226676e-12
5.659011e-08 5.2422e-05 5.771753e-06 2.6471457e-07 1.9859228e-06 -4.934276e-08 -1.8257047e-11 1.1728089e-07
8.2212704e-05 -2.4683899e-05 3.530924e-06 -2.29457e-05 4.3432347e-06 8.009247e-06 -2.0336524e-06 1.4462798e-05
-9.893302e-06 8.883356e-06 -4.878047e-05 -4.950397e-06 -2.0048192e-06 1.4994755e-06 5.5513137e-06 -4.0554303e-05
5.9297877e-06 2.6711074e-05 -0.00010079691 -4.4566514e-05 2.236055e-06 -6.3189134e-07 -7.9778026e-08 2.6382477e-05
-1.1039794e-05 1.1546871e-05 -2.8974646e-06 9.294307e-06 -7.0904807e-06 -1.0624759e-06 0.00024491118 5.116537e-06
00000000: 0081 f4af 58f0 2cab 7a5f 062f 776a 3eb2
00000010: 08d8 1cb4 183d 1d32 0e61 e4b7 d069 3c34
00000020: 54b9 f532 1152 99aa a056 8031 a26a b12f
00000030: dcd1 e7af a859 a4b8 2319 2635 9596 3db2
00000040: 7d9b 48b2 b27e 38b4 e07a a832 0608 0cae
00000050: bc9a 9fac b2b9 8336 8ba1 90ad ca9d 2531
00000060: 8ecf b435 be3f 7cb3 a8ee d22f b0aa ecae
00000070: 441b b5b1 f4d3 66b1 266c 0033 c418 4c30
00000080: 302e 8db8 58db 8cb5 201f da35 9c0b 2737
00000090: e071 a8b5 0c1d bbb5 6679 f836 3055 58b3
000000a0: 3844 1ab8 14f1 27b3 44a5 5238 56e5 8b36
000000b0: be8c 4237 1b50 e333 5a95 a435 9c1f 1b38
000000c0: 0dc6 7e35 b836 0fb8 62aa 53b8 9573 5834
000000d0: a66f f4b5 2239 23b7 0562 8935 76aa 30b9
000000e0: 2cd3 3737 96e3 3db6 b7f4 27b7 582a f0b4
000000f0: fc99 af36 e68d 2337 8e8f 2c3a 331e 4cb5
00000100: 7c38 792e 8a09 15aa 8145 132c 52fe 122f
00000110: 1f75 1237 0a27 72ac 30a0 6a29 c2ba bda8
00000120: 9bc5 49b1 570e 012d da40 98ae 3a60 38ad
00000130: 2056 092a a576 1f2c ac41 6dad 5022 032c
00000140: 760e fda9 e2cd c22a 7433 72ad e2ac 06a9
00000150: de8c 0aab 6c80 822e a0fe 62ab 6145 e42d
00000160: 400c be33 3c99 cfb1 df04 5c35 0088 352e
00000170: 70fa 7f37 d0ad d1b3 c042 32ad d203 c92c
00000180: 8afd 1db9 9946 98b7 f612 0236 d443 9fb8
00000190: 8290 a7b7 c439 6c38 4c47 8fb7 6ca4 fab4
000001a0: 8aeb 85b9 401e b5b4 e710 03b9 2741 1836
000001b0: 1af0 e835 d599 17b8 1c9a b3b6 5fa0 6739
000001c0: 8452 0f35 6db8 e8b5 3b5d 003a df99 a437
000001d0: b0b2 3535 603a 69b6 168d 9a36 2652 39b9
000001e0: dc0d f134 668e edb7 ceaf c6b6 c461 a234
000001f0: b969 64b8 a5e8 b2b6 06ee cd39 f2f6 4136
00000200: d9a2 63b5 971f ddaf 9cfa a7b6 b436 3ab6
00000210: a642 a6b5 19cf c135 7abb 7eb4 6371 0532
00000220: 34a2 8b37 4f09 96b1 0267 ebb5 76b0 c835
00000230: ce48 5933 8f7f 9f32 b674 eb35 d973 12b6
00000240: 46f3 96b2 32e8 b035 de96 9236 113b 2bb3
00000250: 2d44 00b2 4b42 cab2 14f1 1db2 3618 db35
00000260: a864 0533 a30b 9734 66b4 5ab7 df2f 26b3
00000270: e635 ad36 7fa7 abb5 414a 0537 6c4a 5534
00000280: 72c5 5b2a 7305 bc2f 5123 2536 1fa5 32b3
00000290: df38 c435 20d7 b0b0 b7bc 442f 5cd5 3ab5
000002a0: 6c6b 9937 c0f1 71b2 ebfa ddb2 5c52 3b37
000002b0: a50d c326 1479 a830 5c8d 82b1 4b1b d629
000002c0: 7c5a 8d36 c89a e7a4 94cd 47a9 9f35 ef33
000002d0: 4ab9 3bb7 95d4 db35 f252 6637 2988 97aa
000002e0: 981b b6af 3010 e134 9019 a634 400e d0ae
000002f0: aa2a 33b6 42d7 1a32 eb08 012b 5440 6630
00000300: 3eaf e82b bc7f a3b3 aa79 9ab3 3ccf 4537
00000310: f0ec ea34 e130 8db7 f2d8 93af 7047 fd2f
00000320: 5a70 05b0 6adb 3bb1 6882 6f37 d006 dbb3
00000330: 7008 3436 e673 deb0 715a 47b4 a6de 722c
00000340: f079 a82e bcb8 ba28 0007 eea7 4bef 7ab0
00000350: dc96 0b35 be39 6a37 e7bb 5534 a471 f22b
00000360: 7c0d 7333 b2df 5b38 fbaa c136 181e 8e34
00000370: e545 0536 f0ec 53b3 3797 a0ad dadb fb33
00000380: 9c69 ac38 4510 cfb7 d0f4 6c36 847b c0b7
00000390: 1abc 9136 745f 0637 e279 08b6 3fa5 7237
000003a0: 69fb 25b7 b909 1537 a199 4cb8 961b a6b6
000003b0: 888a 06b6 9641 c935 6c45 ba36 da18 2ab8
000003c0: 7df8 c636 9811 e037 ee62 d3b8 eeec 3ab8
000003d0: 220f 1636 3e9f 29b5 6f52 abb3 f04f dd37
000003e0: 8e37 39b7 6fb9 4137 1072 42b6 bfee 1b37
000003f0: c4ea edb6 659a 8eb5 6c67 8039 b8ae ab36

weight_hh_l1 f4 [128, 32]
-3.762778e-07 1.8187172e-09 3.35512e-08 -1.6404824e-09 -9.600281e-10 4.0719517e-10 -1.8681666e-11 5.823324e-10
-3.1423378e-06 1.392473e-08 -9.907078e-07 1.1035052e-08 -2.61908e-10 -6.962485e-06 6.095221e-08 5.5407327e-07
1.794814e-05 -9.381379e-11 -1.1686273e-08 1.0900849e-06 -6.07637e-05 8.850527e-10 -2.2604278e-09 -1.1988206e-08
-4.607159e-10 -1.9754772e-08 7.939616e-07 2.3733328e-05 -3.837863e-12 -7.1660153e-09 4.5874415e-09 -1.2349732e-11
1.3218283e-07 -6.6871307e-06 -5.3324696e-09 -7.5967564e-06 2.7733267e-07 -1.2831533e-05 1.6399843e-08 -0.00013373853
1.0319947e-05 4.0338095e-05 -1.3613979e-07 4.827701e-06 -7.11331e-07 5.578494e-07 1.1136504e-05 -1.0564057e-05
4.452104e-06 -4.5878255e-07 -3.4577954e-09 -2.7015576e-06 -2.1331083e-05 -5.7775637e-06 -4.074376e-05 4.7365033e-06
-3.8348713e-10 1.2806806e-05 -1.817569e-08 6.149078e-05 1.0336075e-08 -5.886698e-06 2.4945475e-06 -1.5309415e-05
6.5296553e-13 -3.2719672e-07 6.843933e-13 -3.5323895e-09 1.3659019e-12 -3.9488324e-13 -5.647915e-06 -4.055437e-08
3.903304e-06 4.7559234e-10 1.910746e-11 -1.4183948e-05 1.4521029e-12 2.0594348e-06 -4.0090396e-11 1.01081435e-10
3.8334022e-13 4.012163e-06 1.5705682e-06 -2.9279486e-06 2.8757647e-08 5.5957315e-08 -3.8803827e-10 1.4079923e-08
-1.23881655e-05 -3.8173947e-11 -1.5760566e-09 1.1111001e-11 3.065249e-06 -3.3501522e-12 -2.8531436e-11 8.539191e-12
-4.2544457e-09 1.2746263e-05 3.1565568e-09 1.3627414e-05 -1.5920396e-05 -7.93333e-05 9.814302e-11 7.3001047e-07
-3.36471e-06 -4.2779197e-05 -1.5296348e-07 2.5071235e-05 3.3754186e-05 1.13941205e-05 -9.079963e-06 6.416992e-07
-9.814974e-08 9.776558e-08 -1.1534249e-09 9.5422465e-06 -4.904815e-06 -2.877381e-05 7.4262575e-06 -3.5349352e-05
2.2358549e-08 -0.00023171357 7.569735e-08 1.5561058e-05 -1.788017e-06 1.2887096e-05 0.00022170121 3.121439e-05
-3.164297e-08 3.792377e-08 -2.6149644e-10 -3.994488e-07 -1.07291186e-07 2.9037345e-11 2.7231044e-09 2.6500487e-07
-2.0417293e-07 3.0805363e-06 -9.631222e-06 -3.15614e-07 3.4106703e-05 -2.4155997e-07 1.1619869e-06 1.9088917e-07
-1.0670215e-05 6.1621406e-09 2.9929402e-06 -8.858491e-07 1.4594593e-07 2.7366815e-08 -5.857578e-07 -6.476835e-05
2.415264e-09 -5.215312e-06 4.3915294e-05 1.8591322e-07 3.1697067e-10 5.3285436e-07 1.0460855e-06 -2.6186598e-07
-2.8119667e-09 4.0300246e-11 -4.6354e-05 -2.985165e-07 -3.9315648e-07 3.5830246e-18 4.7358433e-17 -5.1192923e-14
-1.8168372e-10 3.5092984e-09 -9.23131e-08 1.052949e-08 -3.3067993e-10 2.3881492e-09 3.6103848e-10 1.5394036e-10
2.50626e-09 1.7569793e-05 9.845319e-10 3.039577e-08 -0.00010700544 7.3608226e-09 4.151672e-09 -1.8927595e-08
8.249279e-11 -1.1495285e-13 -3.818418e-06 3.1964844e-13 -6.801137e-06 -3.9446463e-06 1.533854e-14 3.4750217e-11
-3.166588e-06 8.863935e-09 -5.7096365e-08 -9.338049e-12 -9.92887e-09 -7.328725e-12 3.719247e-12 6.0837563e-12
1.140024e-06 -1.8576457e-06 -3.5450292e-09 -6.4049465e-07 -1.9641138e-07 -1.8107139e-07 -2.6034172e-06 1.1696075e-05
2.3387612e-08 -1.0968622e-09 -6.396838e-07 1.9751064e-05 1.5964179e-05 -1.5491363e-08 1.8313465e-05 -3.3177923e-09
2.5318872e-07 2.3035731e-12 2.7228803e-10 7.838657e-05 1.2677082e-09 3.613632e-08 -3.293494e-12 3.523473e-10
1.5678215e-05 -2.0197772e-06 -4.7725948e-09 8.102206e-06 -2.0373804e-07 3.1999958e-10 -8.170021e-08 2.7269616e-06
-7.639627e-07 -2.007093e-06 2.5167424e-07 1.0948355e-05 -1.4572077e-08 -2.2080986e-09 5.5861437e-06 -3.832686e-05
1.3869951e-05 1.1270149e-05 -1.7683526e-05 -3.545212e-05 -4.098082e-06 8.301326e-06 1.7186125e-05 2.3316745e-05
3.0200448e-07 -3.512214e-05 6.389261e-11 -7.435031e-06 1.2688213e-09 -6.393009e-08 3.96587e-05 9.99675e-06
00000000: 3a03 cab4 6cf6 f930 ef19 1033 5877 e1b0
00000010: fcf1 83b0 a0db df2f 5f53 a4ad 0012 2030
00000020: f4e0 52b6 9c39 6f32 76f8 84b5 ac94 3d32
00000030: 46fc 8faf 4a9f e9b6 d5e4 8233 a0bb 1435
00000040: 568f 9637 784c ceae c6c4 48b2 084f 9235
00000050: 87dc 7eb8 0c48 7330 de55 1bb1 b0f4 4db2
00000060: 0048 fdaf 34b1 a9b2 a020 5535 ef16 c737
00000070: 6608 87ac f038 f6b1 909f 9d31 4042 59ad
00000080: 24ee 0d34 0462 e0b6 e638 b7b1 a4e7 feb6
00000090: 50e4 9434 0447 57b7 a3df 8c32 2a3c 0cb9
000000a0: d623 2d37 b330 2938 d22d 12b4 a3fd a136
000000b0: 4bf2 3eb5 1ebf 1535 ecd6 3a37 483c 31b7
000000c0: 4863 9536 984e f6b4 2e9e 6db1 684c 35b6
000000d0: 27f0 b2b7 e5dc c1b6 47e4 2ab8 41ee 9e36
000000e0: 04d3 d2af d0dc 5637 c420 9cb2 9cf4 8038
000000f0: 8a92 3132 5a86 c5b6 0068 2736 b86c 80b7
00000100: 20cb 372b 93a9 afb4 bca3 402b 74be 72b1
00000110: cd3b c02b ac4c deaa 3883 bdb6 002e 2eb3
00000120: 20f9 8236 d6ba 0230 2d12 a82d 98f7 6db7
00000130: 855d cc2b d234 0a36 c651 30ae ca47 de2e
00000140: 26cd d72a 38a0 8636 50cc d235 c67d 44b6
00000150: bc06 f732 b855 7033 8853 d5af 28e4 7132
00000160: c4d6 4fb7 0be4 27ae 909c d8b0 8077 432d
00000170: 94b4 4d36 fabe 6bac 15f7 faad 1939 162d
00000180: 802e 92b1 c8d8 5537 bcea 5831 4ca1 6437
00000190: ca8c 85b7 be5f a6b8 9cd1 d72e f0f5 4335
000001a0: 47cd 61b6 d06d 33b8 483e 24b4 1150 d237
000001b0: 4893 0d38 6029 3f37 2556 18b7 3c41 2c35
000001c0: 64c6 d2b3 32f3 d133 8886 9eb0 a317 2037
000001d0: 0a94 a4b6 495f f1b7 112f f936 1444 14b8
000001e0: f80e c032 23f8 72b9 0f8f a233 1e89 8237
000001f0: ccfb efb5 a835 5837 7778 6839 32ec 0238
00000200: d0e7 07b3 a0e1 2233 5ac2 8faf d373 d6b4
00000210: f467 e6b3 4a6a ff2d 5c21 3b31 fe45 8e34
00000220: a13a 5bb4 36bb 4e36 c995 21b7 a871 a9b4
00000230: cb0d 0f38 c0af 81b4 91f5 9b35 37f7 4c34
00000240: 3904 33b7 c3ba d331 52da 4836 16cb 6db5
00000250: 50b5 1c34 4314 eb32 f83c 1db5 3ed4 87b8
00000260: c6f9 2531 30ff aeb6 b031 3838 709f 4734
00000270: a841 ae2f 7909 0f35 3967 8c35 9696 8cb4
00000280: a43c 41b1 0b3e 312e 3a6c 42b8 cc43 a0b4
00000290: 0413 d3b4 b630 8422 f866 5a24 6c8d 66a9
000002a0: 6cc3 47af 3b28 7131 aa3d c6b3 30e5 3432
000002b0: 10cb b5af c41c 2431 a67b c62f 5c42 292f
000002c0: 983a 2c31 d862 9337 2350 8730 818c 0233
000002d0: 1c68 e0b8 7bea fc31 7ea6 8e31 3996 a2b2
000002e0: 5067 b52e e76c 01aa f61f 80b6 32f2 b32a
000002f0: 5235 e4b6 415c 84b6 4428 8a28 44d5 182e
00000300: 9181 54b6 0048 1832 1e3a 75b3 d646 24ad
00000310: a293 2ab2 a5ed 00ad 00dc 822c 9b0d d62c
00000320: ed02 9935 3854 f9b5 d09c 73b1 75ee 2bb5
00000330: 26e5 52b4 866c 42b4 5eb6 2eb6 423a 4437
00000340: e7e5 c832 68c0 96b0 bcb6 2bb5 16af a537
00000350: d0ea 8537 de11 85b2 de9f 9937 38ff 63b1
00000360: feed 8734 7c19 222c 22b1 952f 7863 a438
00000370: 843b ae30 4e34 1b33 50c2 67ac 79b4 c12f
00000380: b684 8337 828b 07b6 30fc a3b1 b6ee 0737
00000390: 16c3 5ab4 f0eb af2f 2a73 afb3 d800 3736
000003a0: 1e13 4db5 98b1 06b6 d81d 8734 d4ae 3737
000003b0: ac58 7ab2 48bd 17b1 9c70 bb36 27c1 20b8
000003c0: fcb2 6837 ec14 3d37 1557 94b7 6db2 14b8
000003d0: 4282 89b6 ec45 0b37 ec2a 9037 5498 c337
000003e0: 2e23 a234 1c50 13b8 5880 8c2e 6e7a f9b6
000003f0: ae62 ae30 f049 89b3 3457 2638 b7b7 2737

bias_ih_l1 f4 [128]
-7.241199e-08 0.00020482962 1.399203e-10 0.00080099714 -8.094282e-06 1.1142044e-12 4.387747e-12 -0.001280915
-9.44193e-05 -0.000100739744 -1.3201367e-09 -0.0001655962 -5.4835334e-07 -3.4485063e-07 -0.00037181843 -3.3730607e-06
1.31046875e-11 -4.2006157e-08 1.0686917e-11 0.001332514 0.0012413545 0.00019759193 -0.0016519737 0.0005636945
9.527465e-14 0.24918003 2.2149615e-10 -0.0003777785 2.9547795e-11 -0.00035777455 0.2427074 -0.0016664319
-8.439652e-08 0.00014917343 1.1862653e-10 0.0021678966 -8.6538885e-06 9.36859e-13 7.845429e-12 -0.00014666695
-6.5089676e-05 -7.210034e-05 -3.99313e-10 0.0020421997 -2.620811e-07 -3.0959848e-07 0.00022224177 -2.7411838e-06
3.2019984e-11 -7.773869e-08 3.6236027e-12 0.0015051337 -0.000710001 0.0004120275 0.0009173772 0.0012628385
-8.14005e-14 0.1740583 9.7360286e-11 -0.0010125007 2.4073316e-11 -0.00034962973 0.16329844 -0.0015025998
-4.2819305e-05 0.0005566125 2.2514325e-06 0.0023382404 0.00075096084 -1.8657789e-07 1.74421e-07 -0.0021240972
0.0014757372 0.0016964677 -1.1408266e-05 0.0021357965 -8.0844264e-05 8.350254e-05 0.0006002373 -0.00024817334
-2.9073357e-07 -4.0126753e-05 6.5975024e-07 0.0052119116 0.0011276982 2.9464369e-05 0.0038967812 0.0046300455
6.917009e-08 0.05901729 -6.561342e-06 0.0007819396 -2.188698e-07 -0.0034487145 0.03865618 0.0020737087
-3.820053e-08 0.00010660564 1.3777728e-10 0.0014922282 -2.2175964e-06 1.0506499e-12 4.2222293e-12 -0.0015377727
-5.3143776e-05 -6.3483705e-05 -4.3887144e-10 0.0007039393 -2.7601175e-07 -1.904875e-07 -3.733058e-05 -1.9829051e-06
1.39751075e-11 -2.512126e-08 1.4656713e-11 0.0014763699 0.00041684776 0.0005571472 -0.00042775017 0.0011050398
9.834437e-14 0.27609882 2.202749e-10 -0.0008470158 2.848689e-11 -0.0002563632 0.26134685 -0.0018178576
00000000: ea80 9bb3 88c7 5639 10d8 192f 02fa 513a
00000010: adcc 07b7 72cf 9c2b 5061 9a2c 60e4 a7ba
00000020: fa02 c6b8 3d44 d3b8 2e70 b5b0 e4a3 2db9
00000030: 8e32 13b5 e923 b9b4 a0f0 c2b9 be5c 62b6
00000040: 448a 662d 426a 34b3 9801 3c2d c0a7 ae3a
00000050: f2b4 a23a ae30 4f39 0a87 d8ba e6c4 133a
00000060: 198a d629 0d29 7f3e a089 732f 9210 c6b9
00000070: dcf3 012e b093 bbb9 4a88 783e 2d6c daba
00000080: 7a3d b5b3 706b 1c39 666e 022f 4513 0e3b
00000090: 2b30 11b7 e7d9 832b ac04 0a2d 9cca 19b9
000000a0: c180 88b8 9334 97b8 4f86 dbaf 6dd6 053b
000000b0: 27b4 8cb4 e436 a6b4 9209 6939 2ef5 37b6
000000c0: 4cd3 0c2e 4cf1 a6b3 06fd 7e2c e847 c53a
000000d0: 5c1f 3aba 6505 d839 247c 703a d485 a53a
000000e0: 324c b7a9 573c 323e f818 d62e e3b5 84ba
000000f0: 4ac0 d32d 824e b7b9 b537 273e e2f2 c4ba
00000100: e198 33b8 a2e9 113a 5117 1736 2a3d 193b
00000110: 21dc 443a 2456 48b4 7b48 3b34 7034 0bbb
00000120: 866d c13a 035c de3a 2166 3fb7 b8f8 0b3b
00000130: ef8a a9b8 161e af38 3e59 1d3a 431d 82b9
00000140: 1e16 9cb4 c64d 28b8 b119 3135 afc8 aa3b
00000150: 46cf 933a 402a f737 2461 7f3b a3b7 973b
00000160: a98a 9433 1dbc 713d 8029 dcb6 14fb 4c3a
00000170: 7902 6bb4 d403 62bb f155 1e3d 0fe7 073b
00000180: ed11 24b3 7891 df38 db7c 172f df96 c33a
00000190: 04d2 14b6 a7dd 932b 768e 942c 178f c9ba
000001a0: b2e6 5eb8 8e22 85b8 aa45 f1af 9188 383a
000001b0: c42e 94b4 ce88 4cb4 6893 1cb8 0d12 05b6
000001c0: 4ada 752d 3cca d7b2 fceb 802d c182 c13a
000001d0: 5c8c da39 840d 123a a843 e0b9 fcd6 903a
000001e0: ab73 dd29 d35c 8d3e df31 722f 450a 5eba
000001f0: c692 fa2d 7c68 86b9 41cf 853e 2e45 eeba

bias_hh_l1 f4 [128]
-7.2412e-08 0.00020482956 1.3992035e-10 0.0008009994 -8.094282e-06 1.1142044e-12 4.3877523e-12 -0.0012809138
-9.441931e-05 -0.00010073975 -1.3201384e-09 -0.00016559655 -5.4835346e-07 -3.448506e-07 -0.00037181884 -3.3730607e-06
1.3104703e-11 -4.2006164e-08 1.0686915e-11 0.0013325134 0.0012413547 0.00019759304 -0.0016519737 0.00056369463
9.527476e-14 0.24918003 2.21496e-10 -0.00037777948 2.9547777e-11 -0.00035777458 0.24270739 -0.0016664319
-8.439652e-08 0.00014917378 1.1862651e-10 0.002167897 -8.65389e-06 9.368594e-13 7.845431e-12 -0.00014666538
-6.508968e-05 -7.2100374e-05 -3.9931186e-10 0.0020421983 -2.6208087e-07 -3.0959842e-07 0.00022224203 -2.7411836e-06
3.2020015e-11 -7.7738704e-08 3.6236049e-12 0.0015051337 -0.00071000145 0.00041202814 0.00091737905 0.0012628381
-8.140041e-14 0.17405829 9.7360425e-11 -0.0010124998 2.4073316e-11 -0.00034962967 0.16329843 -0.0015026001
-4.2819298e-05 0.0005566108 2.2514303e-06 0.0023382327 0.0007509604 -1.8657786e-07 1.7442032e-07 -0.0021241053
0.0014757361 0.0016964677 -1.14082695e-05 0.002135797 -8.084434e-05 8.350247e-05 0.00060023763 -0.00024817366
-2.9073183e-07 -4.0126783e-05 6.5974973e-07 0.005211915 0.0011277053 2.946044e-05 0.0038967803 0.004630043
6.9170156e-08 0.058995556 -6.5613417e-06 0.0007819515 -2.1886983e-07 -0.003448716 0.038196918 0.0020737073
-3.8200522e-08 0.000106605876 1.3777726e-10 0.0014922298 -2.2175973e-06 1.0506498e-12 4.2222293e-12 -0.0015377731
-5.314376e-05 -6.348369e-05 -4.3887094e-10 0.00070394 -2.7601178e-07 -1.904875e-07 -3.7330377e-05 -1.9829056e-06
1.397512e-11 -2.5121249e-08 1.4656717e-11 0.0014763705 0.00041684823 0.0005571478 -0.00042775273 0.0011050387
9.834428e-14 0.27609885 2.2027466e-10 -0.0008470161 2.8486883e-11 -0.00025636313 0.26134682 -0.0018178568
00000000: eb80 9bb3 84c7 5639 14d8 192f 29fa 513a
00000010: adcc 07b7 72cf 9c2b 5c61 9a2c 56e4 a7ba
00000020: fb02 c6b8 3e44 d3b8 3e70 b5b0 fca3 2db9
00000030: 9032 13b5 e823 b9b4 aef0 c2b9 be5c 62b6
00000040: 568a 662d 446a 34b3 9601 3c2d bba7 ae3a
00000050: f4b4 a23a fa30 4f39 0a87 d8ba e8c4 133a
00000060: 298a d629 0d29 7f3e 9589 732f b410 c6b9
00000070: d7f3 012e b193 bbb9 4988 783e 2d6c daba
00000080: 7a3d b5b3 886b 1c39 656e 022f 4713 0e3b
00000090: 2d30 11b7 ebd9 832b ae04 0a2d 30ca 19b9
000000a0: c280 88b8 9834 97b8 2686 dbaf 67d6 053b
000000b0: 1fb4 8cb4 e236 a6b4 a409 6939 2df5 37b6
000000c0: 55d3 0c2e 4ef1 a6b3 10fd 7e2c e847 c53a
000000d0: 641f 3aba 7b05 d839 447c 703a d185 a53a
000000e0: 244c b7a9 563c 323e 0c19 d62e dbb5 84ba
000000f0: 4ac0 d32d 804e b7b9 b437 273e e5f2 c4ba
00000100: df98 33b8 85e9 113a 4717 1736 093d 193b
00000110: 19dc 443a 2256 48b4 4b48 3b34 9334 0bbb
00000120: 7d6d c13a 035c de3a 2566 3fb7 baf8 0b3b
00000130: f98a a9b8 0c1e af38 4459 1d3a 4e1d 82b9
00000140: e115 9cb4 ce4d 28b8 a819 3135 b6c8 aa3b
00000150: 83cf 933a d021 f737 2061 7f3b 9eb7 973b
00000160: b28a 9433 53a5 713d 7f29 dcb6 e0fb 4c3a
00000170: 7b02 6bb4 da03 62bb 5f74 1c3d 09e7 073b
00000180: eb11 24b3 9891 df38 da7c 172f ec96 c33a
00000190: 08d2 14b6 a6dd 932b 768e 942c 1a8f c9ba
000001a0: aee6 5eb8 8c22 85b8 9845 f1af 9d88 383a
000001b0: c52e 94b4 ce88 4cb4 3093 1cb8 0f12 05b6
000001c0: 58da 752d 36ca d7b2 feeb 802d c682 c13a
000001d0: 6c8c da39 8e0d 123a 0044 e0b9 f2d6 903a
000001e0: 9e73 dd29 d45c 8d3e ce31 722f 4a0a 5eba
000001f0: c292 fa2d 7a68 86b9 40cf 853e 2745 eeba

weight_ih_l2 f4 [128, 32]
-1.13311825e-11 7.376184e-09 7.430848e-10 5.0889557e-06 -1.5280561e-12 5.5263246e-07 -2.5091769e-09 8.561657e-06
-4.8646575e-07 -1.6139526e-13 7.6177245e-11 1.8448202e-06 3.0849854e-09 1.6086253e-07 9.035294e-05 2.386135e-07
-1.0632273e-06 2.523831e-12 -6.0338114e-14 3.2128509e-07 1.2115221e-07 6.370114e-11 -1.3044755e-09 7.3637502e-06
3.9932146e-10 -3.2766373e-05 -9.530235e-11 -2.4588772e-11 4.2420012e-08 -1.4453571e-09 -4.403025e-11 2.5849187e-07
2.6848682e-07 -7.033741e-05 1.5464082e-07 6.5266004e-06 8.35396e-06 6.339269e-10 1.1896611e-07 2.570734e-06
-4.212935e-06 -4.1085036e-06 2.5064033e-08 5.9850125e-05 1.4230031e-06 9.222605e-07 -9.658415e-07 1.0638362e-06
-3.4431583e-08 -2.634542e-06 4.440333e-08 7.2348994e-05 -0.00011687905 -7.0880983e-06 -2.6410093e-05 -1.2643595e-06
-4.6137667e-09 -7.430582e-05 0.00013911314 3.0801912e-06 4.4429687e-09 8.395953e-06 0.0001705094 3.5458048e-05
-4.0649027e-08 1.8083458e-05 -5.3376843e-06 -1.4247553e-06 8.745943e-09 -2.1461544e-09 1.827378e-10 1.1874665e-05
-3.842465e-07 2.786311e-07 -3.358109e-07 3.1264249e-06 -1.7062845e-07 2.8369888e-07 1.4173842e-05 -1.565877e-05
3.555462e-08 1.9997315e-06 -5.483807e-06 -7.056407e-05 4.9411465e-05 5.310185e-06 3.5042306e-06 2.4917006e-06
-3.604303e-07 0.00012662733 -2.6933938e-08 1.436159e-06 3.8056733e-06 -1.4581926e-06 -2.6574597e-05 1.6133081e-06
3.547855e-11 -6.2700725e-05 4.71186e-08 -1.31827336e-11 -5.084328e-10 -2.0402954e-06 -9.757662e-12 5.800374e-06
1.579277e-09 7.079177e-08 1.3089559e-07 -1.490175e-11 -7.8659673e-10 1.4381078e-12 -7.544679e-08 2.2499705e-10
-1.4378879e-05 1.507619e-07 -8.16563e-12 -1.5485047e-07 -2.0983464e-10 -6.2259318e-09 -2.8716576e-07 2.5709485e-10
6.49547e-11 -5.2480516e-11 -7.7176425e-12 -6.4412187e-09 3.1410266e-08 5.0767667e-08 -6.0140365e-11 -6.0774026e-09
5.590273e-09 -6.434939e-11 -1.3639168e-12 5.9757396e-05 7.1341977e-10 1.1806992e-06 -2.1723157e-09 -7.955963e-09
2.3179625e-11 4.4713504e-09 -1.1426398e-07 -7.5031736e-10 -4.3133298e-08 1.1923583e-05 4.4477426e-07 1.6005441e-09
5.9490257e-10 -1.3520144e-06 1.6220322e-12 -4.8197037e-08 -1.1800512e-07 -8.236469e-08 1.3702522e-08 2.4909191e-08
-1.5248897e-06 3.249297e-08 3.2115177e-10 2.7707001e-06 1.6510563e-05 9.604611e-08 -3.2602276e-08 2.0320872e-08
-2.0249255e-11 -0.00014102217 1.860139e-10 -5.7057926e-12 6.684241e-14 -1.8607048e-11 -2.475342e-10 -2.4088422e-12
-2.0702395e-10 7.3807337e-07 7.3766837e-09 -9.109567e-06 -1.5655437e-09 -2.0347316e-05 -4.157447e-12 -9.285018e-05
-1.234513e-05 1.3605458e-12 -2.9328644e-11 -1.4809676e-11 9.916774e-10 1.3194003e-11 -1.4888594e-12 2.8570233e-09
-3.55504e-08 -4.1960858e-12 -7.994873e-12 7.933173e-12 -5.4171387e-09 -2.7012192e-07 3.1084748e-12 -8.4132123e-10
6.723218e-08 3.208836e-06 -2.9234082e-09 -1.1871634e-08 -5.506206e-08 3.9932058e-08 7.742402e-10 -5.638634e-07
-1.1789791e-06 -1.0047979e-06 -5.0667386e-06 1.469067e-07 -4.0927507e-06 5.1160987e-06 -1.4269261e-07 1.9217077e-05
-7.2358275e-10 -1.2311558e-07 1.2051922e-07 -4.7844278e-05 1.4042962e-06 2.1179048e-07 -6.8990557e-06 -6.9777907e-06
-1.2599155e-06 -5.8169913e-05 -1.3218758e-08 4.3670834e-06 -4.0224437e-09 1.0562754e-06 -8.925306e-05 2.6384907e-05
-5.296238e-07 2.2017344e-10 3.618662e-11 -3.859928e-08 0.00011423319 7.9472855e-09 1.5850876e-10 5.0087072e-09
-4.1779917e-09 -3.080863e-05 2.5531358e-07 -2.8984017e-08 3.8700781e-10 -8.547859e-11 -2.6675657e-09 3.4650785e-10
4.60885e-06 -7.3900495e-09 2.5378952e-09 -7.333424e-09 -3.7761733e-08 9.5859605e-09 2.0449127e-09 -1.5191082e-08
-8.9769674e-05 -1.8519441e-07 1.0332584e-11 1.5800707e-08 -1.3938714e-10 -5.2292577e-05 -2.2167528e-07 3.7516603e-09
00000000: 1c57 47ad 9a71 fd31 f241 4c30 ccc1 aa36
00000010: 060e d7ab 9d58 1435 e86d 2cb1 09a4 0f37
00000020: ac95 02b5 04b7 35aa fa83 a72e 8a9b f735
00000030: a3ff 5331 8eb9 2c34 de7b bd38 ca1a 8034
00000040: 36b4 8eb5 4c99 312c 8ede 87a9 167d ac34
00000050: 1116 0234 8e14 8c2e 2749 b3b0 2216 f736
00000060: 8087 db2f a06e 09b8 7492 d1ae fe48 d8ad
00000070: 4c31 3633 fba5 c6b0 a8a5 41ae dac6 8a34
00000080: 8c24 9034 1c82 93b8 580b 2634 12ff da36
00000090: fc27 0c37 a440 2e30 507a ff33 e084 2c36
000000a0: d65c 8db6 c7db 89b6 644c d732 9507 7b38
000000b0: 04fe be35 4291 7735 10a2 81b5 22c9 8e35
000000c0: ede1 13b3 16cd 30b6 fab5 3e33 12ba 9738
000000d0: f61c f5b8 4dd6 edb6 3e8b ddb7 10b3 a9b5
000000e0: 1f87 9eb1 a2d4 9bb8 e6de 1139 48b5 4e36
000000f0: c4a8 9831 58dc 0c37 c5ca 3239 cab8 1438
00000100: 1496 2eb3 eeb1 9737 5c1a b3b6 383a bfb5
00000110: 1041 1632 8c7b 13b1 1eec 482f 4c39 4737
00000120: 704a ceb4 c496 9534 8049 b4b4 92cf 5136
00000130: fe35 37b4 474f 9834 30cc 6d37 f45a 83b7
00000140: b8b4 1833 2033 0636 8b01 b8b6 ccfb 93b8
00000150: 283f 4f38 242e b236 392a 6b36 1737 2736
00000160: 2a81 c1b4 44c7 0439 5b5c e7b2 0cc2 c035
00000170: f864 7f36 1eb7 c3b5 83ec deb7 d888 d835
00000180: 4c09 1c2e 327e 83b8 735f 4a33 c1e9 67ad
00000190: c7c1 0bb0 02ec 08b6 9aa8 2bad d5a0 c236
000001a0: df0d d930 3006 9833 4e8c 0c34 c213 83ad
000001b0: d337 58b0 4b65 ca2b 5005 a2b3 0a63 772f
000001c0: d13c 71b7 1ee1 2134 baa6 0fad f944 26b4
000001d0: 33b7 66af e0eb d5b1 c32b 9ab4 e256 8d2f
000001e0: 3fd6 8e2e cfcf 66ae 2cc5 07ad 8f51 ddb1
000001f0: f4e7 0633 a40b 5a33 0440 84ae 66d1 d0b1
00000200: 9014 c031 7c81 8dae 48f4 bfab 04a4 7a38
00000210: 741a 4430 8478 9e35 c847 15b1 b2ae 08b2
00000220: e0e3 cb2d 6aa2 9931 4a61 f5b3 e43e 4eb0
00000230: 9041 39b3 660b 4837 4fc9 ee34 24fa db30
00000240: 8c86 2330 dc76 b5b5 de47 e42b 3401 4fb3
00000250: 006a fdb3 78e0 b0b3 5468 6b32 e4f7 d532
00000260: d0aa ccb5 668e 0b33 188e b02f 44f0 3936
00000270: 2a80 8a37 e841 ce33 9506 0cb3 128e ae32
00000280: 451d b2ad 5adf 13b9 4286 4c2f 36c1 c8ac
00000290: 0784 9629 59ab a3ad 5715 88af d881 29ac
000002a0: 10a0 63af 0420 4635 ff75 fd31 4bd5 18b7
000002b0: ac2a d7b0 87af aab7 f446 92ac 90b8 c2b8
000002c0: ee1d 4fb7 d47a bf2b 1efd 00ae 6d44 82ad
000002d0: 8c4b 8830 821c 682d d089 d1ab 4955 4431
000002e0: 14b0 18b3 fba2 93ac b5a5 0cad d68f 0b2d
000002f0: a821 bab1 4605 91b4 4ebd 5a2c b842 67b0
00000300: 4861 9033 6257 5736 24e5 48b1 00f4 4bb2
00000310: 607d 6cb3 c381 2b33 50d2 5430 665c 17b5
00000320: 6a3d 9eb5 98dc 86b5 f402 aab6 68bd 1d34
00000330: 7654 89b6 f4aa ab36 0c37 19b4 5c34 a137
00000340: 9ce5 46b0 c131 04b4 1268 0134 67ac 48b8
00000350: 407b bc35 8668 6334 707e e7b6 c422 eab6
00000360: 5e1a a9b5 78fb 73b8 b618 63b2 f688 9236
00000370: ca35 8ab1 59c5 8d35 5f2d bbb8 2855 dd37
00000380: 782b 0eb5 5015 722f 8326 1f2e 5bc8 25b3
00000390: 7a90 ef38 8888 0832 4048 2e2f 0e19 ac31
000003a0: 018e 8fb1 8438 01b8 0812 8934 87f8 f8b2
000003b0: 82c2 d42f 2bf8 bbae 5050 37b1 a57e be2f
000003c0: b8a5 9a36 90eb fdb1 2067 2e31 7bf9 fbb1
000003d0: 772f 22b3 80af 2432 7c86 0c31 8b7d 82b2
000003e0: ba42 bcb8 dad9 46b4 d2c5 352d 1fba 8732
000003f0: fe41 19af ba54 5bb8 a305 6eb4 f4e7 8031
