seq2seq_ATT/Seq2Seq_att_model.pkl (torch, 211601 bytes, 29 tensors)

weight_ih_l0 f4 [128, 6]
000000 8c cc 03 b2 42 bc 04 b1 57 f4 cf 30 89 2d 44 b0
       -7.671712e-09 -1.931554e-09 1.5130678e-09 -7.1369094e-10
000010 32 69 f0 30 96 40 52 b1 68 2d 91 36 1b 7f d3 b5
       1.7492197e-09 -3.0595735e-09 4.3266227e-06 -1.5757718e-06
000020 18 52 a1 33 a7 66 5c b5 fa 71 92 35 f2 ae 43 35
       7.5120795e-08 -8.2105765e-07 1.0911019e-06 7.289774e-07
000030 46 15 4f 3d cf 35 8e 3c 68 89 43 bd 72 ba 10 3e
       0.050557397 0.017359642 -0.047738463 0.14133623
000040 aa d0 b8 3c d2 6b 22 3c a0 11 0c 31 42 6d b2 30
       0.022560436 0.009913402 2.03827e-09 1.2982257e-09
000050 42 0f 07 b0 40 01 d4 b0 26 4f 5b 30 ee 5b 65 af
       -4.9134397e-10 -1.5425385e-09 7.978421e-10 -2.0860089e-10
000060 a2 5c 17 b9 82 78 74 38 ec e1 00 38 f0 e8 e6 b6
       -0.0001443499 5.8286365e-05 3.0727984e-05 -6.8816516e-06
000070 f2 0a de 37 4d 4f be b7 ca 94 08 37 20 26 89 35
       2.6469559e-05 -2.2686692e-05 8.140874e-06 1.0218391e-06
000080 30 8b 0d b6 2e 03 88 35 78 44 36 b3 57 b7 0a 35
       -2.1091655e-06 1.0133715e-06 -4.243745e-08 5.16758e-07
000090 14 4e 1e bd bc 95 eb 3c 1f d8 80 bd 75 91 9d 3d
       -0.03864868 0.028757922 -0.06291222 0.07693759
0000a0 dd ca 39 3a 0b 85 d9 3c ea f0 b2 36 00 28 f6 b6
       0.0007087419 0.026552698 5.3328595e-06 -7.336028e-06
0000b0 b7 d3 69 37 e4 fc 96 b7 18 e2 fd 34 4b 34 88 b6
       1.3937176e-05 -1.7999155e-05 4.7289427e-07 -4.0592035e-06
0000c0 33 51 0a 37 47 ce 15 b6 1b 8c 83 b5 77 ef e7 35
       8.244347e-06 -2.23228e-06 -9.801037e-07 1.7280535e-06
0000d0 18 2b 19 35 70 87 cc 34 64 52 b7 35 6c 05 30 b4
       5.705965e-07 3.8096505e-07 1.3658541e-06 -1.639325e-07
0000e0 fc cc 7c 35 f7 58 cf b5 be e7 3a 34 88 5b b1 b3
       9.4175607e-07 -1.5448594e-06 1.7406907e-07 -8.258854e-08
0000f0 d8 61 1c bb b5 8e 38 bc 94 c3 b8 3a 27 67 55 3c
       -0.002386203 -0.011264493 0.0014096373 0.013025082
000100 df e3 88 3b 35 a4 49 3b bf 00 4c ae a1 dc 02 ae
       0.004177555 0.003076804 -4.6384892e-11 -2.9754536e-11
000110 6b 4a 40 2e 1b 4a 49 ae c4 0d 0c 2d f5 ca d5 2c
       4.3721842e-11 -4.5767928e-11 7.961135e-12 6.076357e-12
000120 18 b4 bd b1 06 5e 73 32 39 2a fc b1 e2 b5 fd 31
       -5.5210982e-09 1.416584e-08 -7.3389654e-09 7.383947e-09
000130 c5 c6 bc 31 a1 bb 27 b1 40 0c 0d 37 8c e3 08 b6
       5.4941176e-09 -2.4408353e-09 8.407107e-06 -2.039803e-06
000140 c7 ff a5 36 eb ee da b6 8c e6 b1 b4 ce bb f1 b5
       4.9471596e-06 -6.52472e-06 -3.3136564e-07 -1.8010558e-06
000150 14 1e 7c bc 06 76 5c 3a ed c2 ab bc 56 8a 24 3d
       -0.015388031 0.0008409921 -0.020966971 0.04017099
000160 95 54 84 3b a0 b0 49 3c 28 db 94 35 cc e0 c8 b3
       0.0040384033 0.012310177 1.1090642e-06 -9.354116e-08
000170 f0 3b e4 34 16 19 6f b5 4b cb 2c 34 d8 87 84 b3
       4.251192e-07 -8.9070943e-07 1.6092706e-07 -6.171439e-08
000180 dc 0b 43 b0 29 d1 96 b1 0c 54 a0 31 2e 4e a2 b1
       -7.095744e-10 -4.3893533e-09 4.666168e-09 -4.7237085e-09
000190 da d1 94 2f 60 6f 1c ae bd 22 31 37 ce ee 81 34
       2.7070152e-10 -3.5569214e-11 1.055811e-05 2.4201876e-07
0001a0 15 ca ca b5 00 76 03 b3 80 ac e8 33 d2 74 2d 34
       -1.5108986e-06 -3.0608135e-08 1.08347194e-07 1.615438e-07
0001b0 03 af 3b 31 14 a4 9c 30 00 58 a9 ab 24 b0 e6 af
       2.7311564e-09 1.1397128e-09 -1.2032597e-12 -4.1961912e-10
0001c0 d3 ea 25 b0 16 62 25 b0 16 2d 19 33 c6 22 27 33
       -6.0360356e-10 -6.016604e-10 3.5664094e-08 3.8914344e-08
0001d0 1b e0 f8 b2 3e 41 05 33 cc cf c1 31 4f 52 cb b2
       -2.8972911e-08 3.1025813e-08 5.640663e-09 -2.366974e-08
0001e0 f2 ed 0f 37 3b a4 2c 36 03 81 a1 b6 e2 64 c8 36
       8.578865e-06 2.5725592e-06 -4.813193e-06 5.972209e-06
0001f0 44 a3 02 35 11 7d 39 36 9e a4 fa 36 0c 17 83 b4
       4.8666357e-07 2.7639946e-06 7.4697446e-06 -2.441742e-07
000200 8e 0f 07 b6 c0 20 42 34 1b 8f f1 b4 a4 68 f4 34
       -2.0125622e-06 1.8079572e-07 -4.499387e-07 4.5524678e-07
000210 85 97 09 34 4b 31 24 32 24 f7 13 b2 10 65 c5 b1
       1.2814242e-07 9.557264e-09 -8.612719e-09 -5.744944e-09
000220 cb b2 a8 32 ee e0 d7 b2 98 3c e1 31 dd bb bb 33
       1.963908e-08 -2.513158e-08 6.5552506e-09 8.742038e-08
000230 f9 81 7d b3 e2 87 87 33 50 2e 0a 33 2e 18 00 b3
       -5.9024362e-08 6.311144e-08 3.217275e-08 -2.9824314e-08
000240 bc 29 82 34 36 54 e4 b2 72 e4 5b b3 a0 84 4e 33
       2.4244753e-07 -2.6580988e-08 -5.119768e-08 4.8083734e-08
000250 06 9e 08 33 e8 47 54 33 fe 74 25 bb 18 3f b8 bb
       3.180869e-08 4.9425495e-08 -0.0025246735 -0.0056227557
000260 60 4d 44 39 05 e9 08 3c 2b 35 38 3b ca b9 17 3b
       0.00018720841 0.008356337 0.0028107862 0.002315151
000270 00 4a 46 36 38 99 45 b4 b8 2e c1 b3 58 23 06 b4
       2.9547373e-06 -1.8402795e-07 -8.995761e-08 -1.249258e-07
000280 d9 41 3f 35 dc 95 dd 34 02 a9 a4 bd da 60 b7 3a
       7.1248866e-07 4.1273495e-07 -0.08040048 0.0013990656
000290 43 00 0f be 2f 20 9a 3e 20 40 21 3d d7 d4 1d 3d
       -0.13964944 0.3010268 0.039367795 0.038533058
0002a0 9e 2d e9 33 84 1c 1d 34 55 1e d3 b3 48 62 db 33
       1.0858206e-07 1.4632138e-07 -9.8309705e-08 1.02158594e-07
0002b0 6c 6b 66 33 fb e3 29 b3 1b 4d c7 bd 8a 76 d5 3c
       5.3648748e-08 -3.9555726e-08 -0.097315036 0.0260575
0002c0 e7 d1 1e be eb dd 8d 3e 8c cd 04 3d d1 d5 34 3d
       -0.15509759 0.27708372 0.032422587 0.044149224
0002d0 d7 47 13 bb e8 58 01 bc 04 b9 2a 38 71 cb 31 3c
       -0.002247324 -0.007894732 4.0703468e-05 0.010851727
0002e0 b7 55 6f 3b 40 12 38 3b f9 f6 95 33 b4 05 34 34
       0.0036519596 0.002808705 6.983277e-08 1.6765881e-07
0002f0 82 dc 11 b4 8b c6 0a 34 60 a5 6d 33 4e 72 c1 b2
       -1.3584398e-07 1.2924481e-07 5.533127e-08 -2.2520137e-08
000300 00 0d e8 ae e0 bc 16 b1 6f ce 9f 31 07 f3 a2 b1
       -1.0552448e-10 -2.1935236e-09 4.650978e-09 -4.7424495e-09
000310 72 a7 7a 30 05 cb 15 31 18 53 de b4 57 d8 c3 b5
       9.1187424e-10 2.1797757e-09 -4.141118e-07 -1.4591595e-06
000320 94 e6 8e 35 69 21 18 b5 bc 39 d9 33 c8 69 08 b4
       1.0646932e-06 -5.667303e-07 1.0115352e-07 -1.270447e-07
000330 27 b8 1b 3d db ba 95 3c 1a f3 a5 bc 53 bb 5d 3d
       0.03801742 0.018277576 -0.020257521 0.054133724
000340 00 8b 61 3c 84 e9 fa 3a 97 f2 74 31 78 3a d0 2e
       0.01376605 0.0019143079 3.564457e-09 9.469131e-11
000350 99 8f c6 b0 fc c8 14 31 d4 c2 0e b0 e8 e8 98 ae
       -1.4447209e-09 2.165108e-09 -5.1936166e-10 -6.953532e-11
000360 be d4 ba 38 99 06 c1 38 95 86 7b b8 87 81 b5 38
       8.9087975e-05 9.204186e-05 -5.9968403e-05 8.654879e-05
000370 56 c8 d1 b7 72 cf 32 b7 ea ab 76 b6 02 74 98 35
       -2.500803e-05 -1.0657926e-05 -3.6756924e-06 1.1358645e-06
000380 79 78 05 b6 ce d1 20 36 a0 88 53 34 fa ac 05 b5
       -1.9888669e-06 2.396398e-06 1.970061e-07 -4.9798075e-07
000390 0a fd df bc c2 5f 94 ba fe 71 07 bd 8a 76 87 3d
       -0.027342338 -0.0011320042 -0.033067696 0.066144064
0003a0 97 5a d6 3a cc 3d 9a 3c 84 84 33 35 f9 03 b5 b6
       0.0016353902 0.018828295 6.687553e-07 -5.394683e-06
0003b0 aa 2e e1 35 87 fc af b5 59 06 da 35 b2 f0 c4 35
       1.6777387e-06 -1.3112011e-06 1.6244113e-06 1.467319e-06
0003c0 64 af 7c b6 e9 e4 0c b5 e5 e1 0c 35 58 64 31 b5
       -3.7653017e-06 -5.248717e-07 5.2482784e-07 -6.608366e-07
0003d0 8a ac 83 34 f6 4e 67 b4 92 16 7d 34 82 50 37 b4
       2.452619e-07 -2.1542277e-07 2.3570672e-07 -1.7072492e-07
0003e0 07 0d 9b b4 ad df c1 34 f2 41 45 33 7b 6a 9f 33
       -2.8880478e-07 3.6111797e-07 4.5927614e-08 7.423383e-08
0003f0 48 70 ea ba 5b 4d 68 bb 68 64 7e 39 9a 3b 6d 3b
       -0.0017886246 -0.0035446498 0.00024260732 0.0036198855

weight_hh_l0 f4 [128, 32]
000000 54 6d c7 a9 f0 5e 89 b4 f8 b2 19 30 46 cb f6 b4
       -8.856341e-14 -2.5587315e-07 5.5915406e-10 -4.5968972e-07
000010 88 11 57 2c 55 3e b2 2c ac e1 68 b0 64 84 44 2d
       3.056307e-12 5.0659845e-12 -8.472181e-10 1.1170707e-11
000020 3e 10 e3 37 10 6e 54 29 ea dd 18 b0 be f1 b5 a7
       2.7068072e-05 4.716892e-14 -5.5612637e-10 -5.049969e-15
000030 bf 81 94 2b 12 42 0c 2d d4 f6 e0 b0 21 ea 02 ac
       1.0552044e-12 7.972749e-12 -1.6368298e-09 -1.8604079e-12
000040 ba 06 c8 a9 60 6e 04 b5 08 86 d5 a9 e1 a0 70 ab
       -8.882951e-14 -4.933445e-07 -9.482351e-14 -8.548839e-13
000050 94 d5 5e b5 94 51 77 b6 d5 d8 db 2c 3a e9 91 ab
       -8.301224e-07 -3.6853353e-06 6.2484276e-12 -1.0367603e-12
000060 e0 fe dd 2a be f9 32 b0 e4 dc 5d 36 5c 30 ce 2f
       3.943434e-13 -6.511093e-10 3.3060142e-06 3.7505543e-10
000070 9e d1 52 2b 5c 28 4a ae 00 b3 4f ac 00 4b 49 29
       7.489789e-13 -4.596533e-11 -2.9515834e-12 4.4696018e-14
000080 14 64 4d 35 f2 eb 76 b1 9a c3 33 b3 82 6c 0d 30
       7.6514084e-07 -3.593183e-09 -4.1854584e-08 5.14497e-10
000090 94 83 0f b5 8c 7b 26 b1 b3 46 51 b5 4c c6 9a 32
       -5.346312e-07 -2.4226408e-09 -7.796145e-07 1.8018135e-08
0000a0 ec e7 a2 b1 36 a0 02 b1 b0 80 c8 b2 80 1f c0 31
       -4.741187e-09 -1.900856e-09 -2.3341585e-08 5.5915166e-09
0000b0 15 44 4a b5 92 b9 bd b1 38 9a 31 b2 b0 25 be b1
       -7.5349936e-07 -5.521721e-09 -1.0337821e-08 -5.5340124e-09
0000c0 ae b1 05 b4 6d 8f 4e b8 08 61 65 b4 9c 4a a1 34
       -1.245123e-07 -4.9247803e-05 -2.1362587e-07 3.0042872e-07
0000d0 18 8f f1 b5 20 c8 78 b1 bc 41 fd 35 b2 29 6e 35
       -1.7997545e-06 -3.6202508e-09 1.88691e-06 8.8722584e-07
0000e0 66 5e b5 b2 80 b6 05 33 2e e2 2c b8 e0 1b d9 33
       -2.11141e-08 3.113246e-08 -4.1218642e-05 1.01099204e-07
0000f0 b7 41 b2 b3 51 65 49 b5 58 fd a0 b2 b8 e7 a3 b6
       -8.3007244e-08 -7.502577e-07 -1.8741659e-08 -4.884754e-06
000100 ee c1 10 b6 bb ee f2 37 06 4d 85 bb 1a 3f 44 b4
       -2.1570554e-06 2.8959816e-05 -0.00406802 -1.8276879e-07
000110 e6 79 38 ba 56 90 8e 38 8b 32 16 bc a5 09 2f 38
       -0.0007037207 6.797972e-05 -0.009167324 4.1732234e-05
000120 f5 b5 e7 37 92 73 3f 37 9a 3c 44 3b 10 fe 0f 34
       2.7622076e-05 1.14113955e-05 0.0029943348 1.341034e-07
000130 12 80 83 36 cd 42 23 38 2d 9f d7 bb 76 74 5d b7
       3.9190136e-06 3.892444e-05 -0.0065802545 -1.3199742e-05
000140 84 bc ad b3 3f e4 7f b8 b8 66 e2 b5 8a 56 01 b7
       -8.090231e-08 -6.100931e-05 -1.6868207e-06 -7.709148e-06
000150 39 fd c6 b8 e8 41 6e 37 e1 05 0b b7 1f a3 37 b7
       -9.488542e-05 1.420125e-05 -8.286414e-06 -1.094563e-05
000160 c5 87 29 37 7b 8b 29 bb e0 3f 54 b8 74 7c d9 3b
       1.0104796e-05 -0.002587049 -5.0604227e-05 0.0066371504
000170 ac 71 74 37 fc 49 0b bc f4 95 3e 3b fa 2f 5e 37
       1.457e-05 -0.008501526 0.0029081078 1.3243402e-05
000180 00 47 d4 36 95 d6 0d ac 10 f5 4b 2e 58 55 48 2b
       6.326358e-06 -2.0156422e-12 4.6374515e-11 7.117271e-13
000190 b5 3e a7 b8 9c 91 37 2d e4 c0 46 b0 5c f3 62 2d
       -7.974861e-05 1.0434677e-11 -7.2306094e-10 1.2900649e-11
0001a0 c6 97 50 2d 32 5c bc ac 98 ff 05 ad 34 c3 89 b2
       1.1857132e-11 -5.353517e-12 -7.616928e-12 -1.6037667e-08
0001b0 4f 30 40 b5 20 11 4b ac 2b 9a 35 30 c0 d9 80 ab
       -7.159587e-07 -2.8857541e-12 6.60665e-10 -9.155385e-13
0001c0 6e 66 1e b4 e0 07 91 2d 6d a7 f5 36 e5 44 a1 b3
       -1.475216e-07 1.6488089e-11 7.32106e-06 -7.5096786e-08
0001d0 26 77 85 35 f0 fa ec 2c 00 e2 31 af 8a 25 c7 33
       9.943949e-07 6.735383e-12 -1.6178348e-10 9.273488e-08
0001e0 3d c5 9c af 2b 33 69 af 83 59 f2 33 84 14 30 af
       -2.851638e-10 -2.1209405e-10 1.1285285e-07 -1.6014395e-10
0001f0 fe 85 86 b7 ee 89 38 b0 39 90 05 2f e8 c6 d4 36
       -1.603644e-05 -6.713482e-10 1.2147518e-10 6.341248e-06
000200 14 5d 2b b3 84 05 1b b8 f4 b3 68 b8 f8 92 94 b5
       -3.9898694e-08 -3.6960017e-05 -5.5480705e-05 -1.1069633e-06
000210 18 b7 2c b6 c6 eb af 36 66 fd 2a b7 8a a9 c5 35
       -2.5736572e-06 5.242854e-06 -1.01917885e-05 1.4726986e-06
000220 22 75 40 b7 bc 4d 13 35 84 83 82 b7 44 04 f7 30
       -1.1471364e-05 5.4874886e-07 -1.555845e-05 1.7972828e-09
000230 ea 24 41 33 1c 02 da 34 ac 7c ab 37 86 9a 01 b5
       4.4969887e-08 4.06072e-07 2.0442843e-05 -4.8281106e-07
000240 08 ac 7a 30 2e 6e 8d b7 47 97 b6 b2 4d 84 0b b4
       9.119394e-10 -1.6859816e-05 -2.1256382e-08 -1.2993515e-07
000250 0e db 65 b6 b1 06 a4 35 f8 f4 c8 b4 81 d7 3e b4
       -3.4251166e-06 1.22209e-06 -3.743114e-07 -1.7773529e-07
000260 08 05 93 b5 8c 03 0a b7 a8 2c 13 b7 c7 7b e4 b7
       -1.0953818e-06 -8.226267e-06 -8.77228e-06 -2.7237356e-05
000270 ea 84 45 34 8c 19 20 b9 52 71 90 b6 82 b5 86 34
       1.8395409e-07 -0.00015268306 -4.3047266e-06 2.509151e-07
000280 02 6a f8 af c9 8a 7f 32 fb 9a 02 b5 00 0e 06 30
       -4.518626e-10 1.487451e-08 -4.86543e-07 4.876881e-10
000290 0e 44 fc b3 5b 55 9a b1 90 75 74 b4 b8 d4 13 37
       -1.17470435e-07 -4.4916937e-09 -2.276704e-07 8.81141e-06
0002a0 d8 37 6b b1 15 69 59 b1 00 5f 1f b2 f8 90 17 31
       -3.4228744e-09 -3.1637388e-09 -9.276619e-09 2.2055797e-09
0002b0 8a ac 80 34 70 20 7b 30 4b 5d e2 34 52 06 3c 31
       2.3967397e-07 9.1359365e-10 4.216366e-07 2.7361193e-09
0002c0 c8 3a 8c 38 e0 f0 a3 b0 f0 c9 16 37 04 20 05 b2
       6.686669e-05 -1.1928272e-09 8.987714e-06 -7.748898e-09
0002d0 fc 48 8f b6 3e 8c e1 b1 0e fc a8 35 f4 62 96 37
       -4.2702286e-06 -6.5643055e-09 1.2590333e-06 1.7927472e-05
0002e0 67 9c 77 34 48 87 86 33 7d c5 01 b3 ac 0f f5 34
       2.3060566e-07 6.264469e-08 -3.0214768e-08 4.564621e-07
0002f0 58 a0 f4 b6 e6 34 5a b5 90 3f 31 b2 89 6d 29 b8
       -7.290433e-06 -8.1288306e-07 -1.0317208e-08 -4.0394752e-05
000300 f9 28 97 b6 92 90 b1 b8 a9 b6 f9 39 57 bd 47 b5
       -4.5049205e-06 -8.466946e-05 0.00047629073 -7.44088e-07
000310 52 78 54 ba 8c 81 72 b8 c7 80 e3 bb 93 be 39 b9
       -0.00081050873 -5.7817946e-05 -0.0069428417 -0.0001771397
000320 b2 53 a4 b8 6b 64 12 b8 4a 54 38 3a 5a a3 e9 34
       -7.835719e-05 -3.4902634e-05 0.0007031603 4.3518486e-07
000330 d4 0d 43 36 54 0d d9 b8 47 74 93 bb b4 82 35 38
       2.9065313e-06 -0.00010349849 -0.0044999453 4.327549e-05
000340 ad c5 44 36 31 69 8c 38 7b 6a 8f b4 0f 9b 9c b5
       2.9321338e-06 6.695314e-05 -2.67133e-07 -1.1668034e-06
000350 6e 2c ca 38 c6 ce 80 b8 1f 17 1b 37 6e 44 da b5
       9.640386e-05 -6.14203e-05 9.244103e-06 -1.6262181e-06
000360 dd 71 8d b7 c5 2d 79 ba 6d 57 4c 38 6f 71 75 3b
       -1.6861532e-05 -0.00095054164 4.871881e-05 0.0037451645
000370 14 c3 f0 34 ae 13 a1 3b 5c 02 5f 3a c0 53 64 b5
       4.4845422e-07 0.004915676 0.00085071265 -8.505849e-07
000380 0c 06 10 b0 15 4a 14 32 2a 8f 89 35 06 c4 06 b0
       -5.239549e-10 8.631578e-09 1.0248962e-06 -4.902748e-10
000390 6c 70 e3 b3 f4 48 88 b2 d8 7a b9 b4 10 ba b5 b1
       -1.05909606e-07 -1.5865659e-08 -3.4548316e-07 -5.288946e-09
0003a0 2a 2b a7 b2 b2 f0 e1 b1 90 e2 37 33 d2 37 31 2e
       -1.9460987e-08 -6.5757257e-09 4.2814065e-08 4.029472e-11
0003b0 2e ef 19 2e 22 3b 31 b2 e1 5f b4 b5 c4 37 be 31
       3.5000607e-11 -1.0316201e-08 -1.343895e-06 5.5360676e-09
0003c0 04 0d 69 2f 36 d3 fb 32 c0 21 44 ae 3a bb 2c b0
       2.119585e-10 2.9316293e-08 -4.4595216e-11 -6.28393e-10
0003d0 0e df 16 b6 ee 2b f0 b2 d2 55 24 b6 90 ef 5c 2f
       -2.2481577e-06 -2.7959654e-08 -2.4487858e-06 2.0093993e-10
0003e0 8b 20 89 b1 5f 83 e0 b4 c3 7c 81 37 ea d6 ae 34
       -3.9909245e-09 -4.1818836e-07 1.5436095e-05 3.2566396e-07
0003f0 51 db 99 b0 76 07 67 b5 f4 e0 1f 34 36 e4 a4 b0
       -1.1194549e-09 -8.6065063e-07 1.4889866e-07 -1.1997432e-09

bias_ih_l0 f4 [128]
000000 00 11 6b ac 50 f6 fc b5 a1 52 09 3d 5e 3d 91 30
       -3.3404945e-12 -1.884715e-06 0.033526067 1.056758e-09
000010 6c 06 3f 37 a8 1a 7d 34 91 9c 97 3c e4 10 b4 b6
       1.1385982e-05 2.3572159e-07 0.018507274 -5.3663844e-06
000020 ce 5e 24 b6 5a 82 0d b4 f5 2d a7 3b a4 79 1e ad
       -2.4493088e-06 -1.317907e-07 0.005101914 -9.00827e-12
000030 8c 78 24 b1 35 8b da b5 b7 69 36 3c f4 51 95 b4
       -2.3933664e-09 -1.628278e-06 0.011133603 -2.7813041e-07
000040 2e 6e ef b0 1c 00 4b b4 95 38 ba 30 e2 6d 89 32
       -1.7420854e-09 -1.8905888e-07 1.3549363e-09 1.5998868e-08
000050 be 39 1b b7 d5 2d 9f 34 46 00 2b b3 ae ca 9d 32
       -9.252164e-06 2.9649405e-07 -3.981429e-08 1.8369374e-08
000060 a8 04 25 b4 de ca 59 3b 54 32 e4 b5 18 33 b2 3d
       -1.5368516e-07 0.003323249 -1.7001971e-06 0.087011516
000070 d8 2d dd b2 0c e3 b4 3d 16 db 96 3b f0 59 83 b3
       -2.5748633e-08 0.08832368 0.004603754 -6.1165224e-08
000080 6b 70 8a b1 ba f2 0b 35 ef 75 83 3c 78 be 31 30
       -4.029109e-09 5.213475e-07 0.016047446 6.46629e-10
000090 4f e1 9e b7 2a bd b5 34 87 de 76 3c 76 75 99 b6
       -1.8939985e-05 3.3851512e-07 0.015067703 -4.5734296e-06
0000a0 03 83 58 35 54 f8 c5 b3 fd 08 4b 3b 74 b5 c4 2c
       8.065692e-07 -9.218698e-08 0.00309807 5.5908004e-12
0000b0 3e f2 a6 b1 1a bc ef b5 00 9a f7 3b 60 17 98 b3
       -4.8587756e-09 -1.7861632e-06 0.0075562 -7.0823035e-08
0000c0 85 b5 0e b0 08 f7 8a 33 e4 b4 32 af 74 9d d7 b2
       -5.1917254e-10 6.4710605e-08 -1.6253271e-10 -2.5100896e-08
0000d0 e0 0c 2b 36 25 f4 c3 34 ca 16 de b2 09 73 3c b3
       2.548848e-06 3.649922e-07 -2.5854565e-08 -4.3876785e-08
0000e0 76 3d 97 33 45 98 08 3b 7c 92 90 34 7f f4 86 3d
       7.042665e-08 0.0020842713 2.6928672e-07 0.06589603
0000f0 b4 7b 69 b3 ca 56 9a 3d d8 e2 1e 3b 69 27 3c b3
       -5.4362047e-08 0.07536085 0.0024244096 -4.3808004e-08
000100 0c a8 34 35 9c 1e 7b 39 6b 82 f7 3c e2 61 09 37
       6.7299766e-07 0.00023948628 0.030213555 8.188626e-06
000110 fb ea a5 ba a6 0d a3 39 e4 02 b8 bb 99 4e f3 39
       -0.0012658531 0.00031099952 -0.005615579 0.00046407132
000120 e2 a1 9d 39 52 d0 2b 39 bb ca f1 3b 9f 88 fe 33
       0.00030065986 0.00016385436 0.0073789037 1.1852648e-07
000130 eb 4d dc 36 0e 63 a7 39 d9 0f c6 bc 46 18 12 b9
       6.5655818e-06 0.00031926524 -0.024177479 -0.00013932688
000140 d8 23 aa b6 d4 58 b1 b9 37 6a bd b6 68 ba b4 b7
       -5.0705676e-06 -0.00033826253 -5.645004e-06 -2.1544474e-05
000150 f7 02 be b9 eb 8d 9d 39 74 0c 13 b8 43 36 f9 b7
       -0.00036241833 0.0003005111 -3.505913e-05 -2.970838e-05
000160 ca bf 59 38 93 65 f8 bb b7 20 4b b9 c7 6f ff bd
       5.191545e-05 -0.007580468 -0.00019371776 -0.12472492
000170 63 fb 2c 38 ec c9 94 3a 76 49 00 3c 0d c2 25 38
       4.1242118e-05 0.0011351681 0.007830014 3.951979e-05
000180 20 ae 3c ae de c5 fb b5 5f a3 06 3d 43 ca 90 30
       -4.2900905e-11 -1.8758544e-06 0.032870647 1.0534865e-09
000190 a4 13 4c 37 ac 3d 83 34 e6 18 d8 3c 67 4c b3 b6
       1.21639205e-05 2.4445524e-07 0.02637906 -5.34351e-06
0001a0 a7 37 24 b6 8c 20 0d b4 22 ef a7 3b c2 2b 1e ad
       -2.4470298e-06 -1.3143489e-07 0.0051249424 -8.990976e-12
0001b0 a2 03 16 b1 de 96 d7 b5 07 da 50 3c 70 c6 93 b4
       -2.1829938e-09 -1.6062656e-06 0.012747294 -2.7525266e-07
0001c0 c4 0e f0 b0 84 6f 3a b4 4a 29 ba 30 14 18 8f 32
       -1.7466495e-09 -1.7363169e-07 1.3545016e-09 1.665834e-08
0001d0 e9 3d 1b b7 75 98 a3 34 3c 43 29 b3 58 06 a8 32
       -9.2531345e-06 3.0472043e-07 -3.9409528e-08 1.9560659e-08
0001e0 03 13 25 b4 85 72 64 3b de 83 e3 b5 79 12 bb 3d
       -1.5373739e-07 0.0034858298 -1.6951196e-06 0.09134383
0001f0 fa 3a c9 b2 cc 95 bc 3d ad 26 9b 3b c8 02 80 b3
       -2.34263e-08 0.09208259 0.004734835 -5.9609704e-08

bias_hh_l0 f4 [128]
000000 80 25 6b ac 49 f6 fc b5 a2 52 09 3d 64 3d 91 30
       -3.3416325e-12 -1.8847142e-06 0.03352607 1.0567587e-09
000010 6c 06 3f 37 04 1b 7d 34 8d 9c 97 3c e7 10 b4 b6
       1.1385982e-05 2.357229e-07 0.018507266 -5.3663857e-06
000020 d1 5e 24 b6 6c 82 0d b4 f4 2d a7 3b a5 79 1e ad
       -2.4493095e-06 -1.3179096e-07 0.0051019136 -9.008271e-12
000030 80 78 24 b1 32 8b da b5 ba 69 36 3c fa 51 95 b4
       -2.3933637e-09 -1.6282777e-06 0.011133606 -2.7813059e-07
000040 2a 6e ef b0 ba 00 4b b4 8f 38 ba 30 f8 6d 89 32
       -1.7420849e-09 -1.8906113e-07 1.3549356e-09 1.5998907e-08
000050 b9 39 1b b7 d7 2d 9f 34 46 00 2b b3 9c ca 9d 32
       -9.2521595e-06 2.964941e-07 -3.981429e-08 1.8369342e-08
000060 aa 04 25 b4 da ca 59 3b 51 32 e4 b5 18 33 b2 3d
       -1.5368519e-07 0.0033232481 -1.7001968e-06 0.087011516
000070 04 2e dd b2 0c e3 b4 3d 17 db 96 3b f6 59 83 b3
       -2.5748712e-08 0.08832368 0.0046037543 -6.116527e-08
000080 6c 70 8a b1 be f2 0b 35 f4 75 83 3c 7c be 31 30
       -4.0291095e-09 5.213477e-07 0.016047455 6.466292e-10
000090 4c e1 9e b7 6a bd b5 34 82 de 76 3c 76 75 99 b6
       -1.893998e-05 3.3851694e-07 0.015067698 -4.5734296e-06
0000a0 fa 82 58 35 4e f8 c5 b3 fe 08 4b 3b 83 b5 c4 2c
       8.0656866e-07 -9.218694e-08 0.0030980702 5.590807e-12
0000b0 4a f2 a6 b1 1a bc ef b5 00 9a f7 3b 5a 17 98 b3
       -4.858781e-09 -1.7861632e-06 0.0075562 -7.082299e-08
0000c0 83 b5 0e b0 58 f8 8a 33 a0 b4 32 af 75 9d d7 b2
       -5.191724e-10 6.471299e-08 -1.6253177e-10 -2.5100897e-08
0000d0 ca 0c 2b 36 2a f4 c3 34 cd 16 de b2 02 73 3c b3
       2.548843e-06 3.6499233e-07 -2.585457e-08 -4.387676e-08
0000e0 73 3d 97 33 46 98 08 3b 7a 92 90 34 82 f4 86 3d
       7.042663e-08 0.0020842715 2.6928666e-07 0.06589605
0000f0 a6 7b 69 b3 cb 56 9a 3d d7 e2 1e 3b 70 27 3c b3
       -5.4361998e-08 0.07536086 0.0024244094 -4.380803e-08
000100 29 a9 34 35 a2 1e 7b 39 67 82 f7 3c e0 61 09 37
       6.7301386e-07 0.00023948637 0.030213548 8.188625e-06
000110 ee ea a5 ba a4 0d a3 39 d3 02 b8 bb 96 4e f3 39
       -0.0012658515 0.00031099946 -0.005615571 0.00046407123
000120 f0 a1 9d 39 53 d0 2b 39 bc ca f1 3b af 88 fe 33
       0.00030066026 0.00016385438 0.007378904 1.1852659e-07
000130 fc 4d dc 36 09 63 a7 39 d8 0f c6 bc 3e 18 12 b9
       6.5655895e-06 0.0003192651 -0.024177477 -0.00013932676
000140 e2 23 aa b6 da 58 b1 b9 33 6a bd b6 7a ba b4 b7
       -5.070572e-06 -0.0003382627 -5.645002e-06 -2.1544507e-05
000150 f3 02 be b9 f1 8d 9d 39 74 0c 13 b8 4a 36 f9 b7
       -0.0003624182 0.00030051128 -3.505913e-05 -2.9708393e-05
000160 c5 bf 59 38 9d 65 f8 bb b3 20 4b b9 de 9a 01 be
       5.191543e-05 -0.0075804726 -0.0001937177 -0.12656733
000170 59 fb 2c 38 ed 20 d7 3a 73 49 00 3c 00 c2 25 38
       4.124208e-05 0.0016413011 0.007830012 3.9519742e-05
000180 88 af 3c ae dc c5 fb b5 5e a3 06 3d 44 ca 90 30
       -4.2902154e-11 -1.8758542e-06 0.032870643 1.0534866e-09
000190 a0 13 4c 37 4a 3d 83 34 e6 18 d8 3c 6b 4c b3 b6
       1.2163917e-05 2.4445245e-07 0.02637906 -5.343512e-06
0001a0 ad 37 24 b6 95 20 0d b4 24 ef a7 3b cc 2b 1e ad
       -2.4470312e-06 -1.3143502e-07 0.0051249433 -8.990985e-12
0001b0 a6 03 16 b1 db 96 d7 b5 04 da 50 3c 6c c6 93 b4
       -2.1829947e-09 -1.6062653e-06 0.0127472915 -2.7525255e-07
0001c0 c0 0e f0 b0 a8 6f 3a b4 4a 29 ba 30 06 18 8f 32
       -1.746649e-09 -1.736322e-07 1.3545016e-09 1.6658316e-08
0001d0 e7 3d 1b b7 a0 98 a3 34 33 43 29 b3 5c 06 a8 32
       -9.253133e-06 3.0472165e-07 -3.9409496e-08 1.9560666e-08
0001e0 00 13 25 b4 80 72 64 3b de 83 e3 b5 7a 12 bb 3d
       -1.5373735e-07 0.0034858286 -1.6951196e-06 0.091343835
0001f0 3a 3b c9 b2 cd 95 bc 3d ac 26 9b 3b c2 02 80 b3
       -2.3426413e-08 0.0920826 0.0047348347 -5.960966e-08

weight_ih_l1 f4 [128, 32]
000000 d5 ad 17 37 86 c0 dd 38 d0 65 21 bd c0 1e b1 35
       9.040775e-06 0.000105739615 -0.039403737 1.3196477e-06
000010 b9 c7 52 3a ee 9b 2b 38 1a b9 af bd 06 94 69 39
       0.0008040625 4.0914798e-05 -0.08580227 0.00022275755
000020 38 56 e3 38 77 6b 69 38 eb 56 b1 3c f4 43 1e b5
       0.00010840263 5.5651613e-05 0.021647891 -5.895847e-07
000030 83 ce 00 b7 85 86 04 39 17 93 7a bd 91 32 71 b8
       -7.677477e-06 0.00012638613 -0.061175432 -5.750597e-05
000040 ed 1d b8 b6 cd 06 bd b8 b0 1d 4e 35 01 bc f0 36
       -5.487111e-06 -9.013489e-05 7.678418e-07 7.174444e-06
000050 08 ac be b8 86 c0 b9 38 77 aa 4d b7 37 69 53 37
       -9.091949e-05 8.857348e-05 -1.2258642e-05 1.2601077e-05
000060 6a fd b6 37 9e 53 93 bc a4 5d 3c b8 9d 7c b8 3c
       2.1814096e-05 -0.017984208 -4.4909902e-05 0.022520358
000070 32 0f f7 b6 b4 5e 76 bb 3e 12 a8 3c d5 9a 0c b7
       -7.3629426e-06 -0.0037593069 0.020516511 -8.3807e-06
000080 e0 12 53 22 28 c6 32 b2 73 46 7e a4 68 22 dc b5
       2.8605825e-18 -1.0406019e-08 -5.5137143e-17 -1.6401291e-06
000090 ab 76 9b af 64 a5 65 35 46 cd c0 24 14 bb 32 32
       -2.8278654e-10 8.5549823e-07 8.3614474e-17 1.04035e-08
0000a0 6e ee 00 32 7f b4 29 2f 40 b2 e4 23 ba 7f 92 34
       7.504793e-09 1.5434586e-10 2.4795301e-17 2.7287552e-07
0000b0 04 d6 9b 22 86 8f e4 a6 c0 ec 2d a5 c0 bb 3a 33
       4.223943e-18 -1.585958e-15 -1.5085572e-16 4.3477257e-08
0000c0 2b 63 ef a2 c2 4e c8 b7 70 81 65 b8 84 9f 03 22
       -6.488608e-18 -2.3878532e-05 -5.4718403e-05 1.7838257e-18
0000d0 db 67 0a 29 fe 77 ad b6 59 4c ad 22 d8 07 f6 a1
       3.0732236e-14 -5.1697707e-06 4.697258e-18 -1.6671685e-18
0000e0 a4 c1 5d a2 4e 5e 4d a4 36 ea 8a b2 9c 8a 1c a3
       -3.0053598e-18 -4.4532168e-17 -1.6171821e-08 -8.486129e-18
0000f0 bc f6 0d a3 06 f6 76 a4 42 2e 71 24 64 e6 b6 a2
       -7.695873e-18 -5.3551137e-17 5.2297727e-17 -4.9575134e-18
000100 0c 70 11 b0 bc 0d fd 2a 8c 60 13 ac 72 fb 8a 28
       -5.290992e-10 4.4951358e-13 -2.094355e-12 1.5430125e-14
000110 8e 53 03 32 8b 03 ec 2b 35 ba 8d 2d ec b3 9e ac
       7.644202e-09 1.6769792e-12 1.6112537e-11 -4.5106054e-12
000120 c4 eb be b4 d1 6c 41 b0 13 91 05 b0 6b cd 9e b4
       -3.55618e-07 -7.036763e-10 -4.859128e-10 -2.9579255e-07
000130 73 a9 78 2e 4e c8 2b ab 28 5e 84 2d 4c 23 f6 b0
       5.6539173e-11 -6.102938e-13 1.5048476e-11 -1.7908888e-09
000140 ab 3a 0e 2f 60 06 e4 b1 35 f0 82 2c 41 0a 0b b3
       1.2935668e-10 -6.636398e-09 3.7214906e-12 -3.2372785e-08
000150 6d e3 28 31 76 5a c3 32 f4 7a a9 b5 9c 40 df 33
       2.4576494e-09 2.2742125e-08 -1.2627265e-06 1.0395999e-07
000160 ac a3 ca ad 48 22 74 b6 c4 60 0e af 6c f5 7a 2d
       -2.3037426e-11 -3.6378788e-06 -1.2949203e-10 1.4265349e-11
000170 5f ea 9f 37 fe df e8 ad 0a e2 a7 ac 60 71 05 b1
       1.9063415e-05 -2.6474819e-11 -4.771521e-12 -1.9418493e-09
000180 62 64 84 36 1c b1 1e b2 d0 02 02 ad 4a a7 99 b5
       3.9455927e-06 -9.23708e-09 -7.390269e-12 -1.1448076e-06
000190 96 be 0d af f0 fd 6b b5 66 25 08 2d 25 1d 1c b8
       -1.2891585e-10 -8.791385e-07 7.739009e-12 -3.722044e-05
0001a0 77 55 20 37 70 11 50 37 84 bb dd ac 67 a8 99 2f
       9.556642e-06 1.2401826e-05 -6.302016e-12 2.7950195e-10
0001b0 e0 f5 f7 b3 38 89 ec b3 db 8a c7 ac 30 41 6e b4
       -1.1546558e-07 -1.1014566e-07 -5.6713362e-12 -2.2189192e-07
0001c0 4e 86 00 b4 02 ee 03 34 d4 d8 31 35 62 c0 ae 31
       -1.1969789e-07 1.2286912e-07 6.6253165e-07 5.085938e-09
0001d0 ae 70 07 b5 6e cd 34 33 54 d4 6f b1 b2 8e 18 34
       -5.045539e-07 4.2096353e-08 -3.4899772e-09 1.4208015e-07
0001e0 dc 27 80 35 dc f4 68 2c 8d 29 b9 b3 a7 aa ca 2c
       9.548344e-07 3.3105107e-12 -8.622292e-08 5.7601315e-12
0001f0 20 d0 dd b0 b4 bc 85 2c f8 27 6c 2b d4 b3 b6 33
       -1.6139019e-09 3.8010376e-12 8.389951e-13 8.507746e-08
000200 56 af 5c 37 53 aa 07 31 08 82 cb 30 08 fb 26 2e
       1.3153845e-05 1.9741904e-09 1.4807151e-09 3.796699e-11
000210 5a 13 37 b5 78 b7 b3 b2 6a cd 35 32 00 5e be b0
       -6.820097e-07 -2.0921775e-08 1.0582292e-08 -1.3851036e-09
000220 4d 88 4b b0 50 d4 85 b8 ac 8b 71 31 b4 f0 31 2e
       -7.4044665e-10 -6.3814805e-05 3.514951e-09 4.0458928e-11
000230 ef fc 41 af 4e a6 8a 30 b9 66 ca b1 90 94 68 ac
       -1.7643108e-10 1.0088088e-09 -5.890652e-09 -3.3051652e-12
000240 64 44 14 b3 ed c2 1d 30 d2 06 79 37 8a fd 26 2f
       -3.4521136e-08 5.7393273e-10 1.48431445e-05 1.5187687e-10
000250 34 05 35 ae 2a 36 65 30 98 cc 46 ad 7c 6f 57 35
       -4.1159257e-11 8.3386686e-10 -1.1300426e-11 8.025597e-07
000260 80 28 2d 32 a0 02 99 2f 58 92 5d 2f 22 18 33 31
       1.0079134e-08 2.7832403e-10 2.0151825e-10 2.6061646e-09
000270 ef 3a d6 32 79 11 18 b1 98 0c 57 31 4e da 0a 30
       2.4939679e-08 -2.2128843e-09 3.1293776e-09 5.0514337e-10
000280 81 c0 aa a7 48 e7 51 ab 16 be e5 2d 4e a0 38 31
       -4.739319e-15 -7.4572683e-13 2.6118701e-11 2.6866647e-09
000290 a1 55 17 ad 10 17 bc b1 39 ec db ae 11 b3 db 2a
       -8.60237e-12 -5.474142e-09 -1.00009286e-10 3.9026467e-13
0002a0 6f 0d e2 37 72 c9 39 2a 69 98 de 2d 5d 21 3a 27
       2.6947555e-05 1.6501191e-13 2.5306162e-11 2.5830772e-15
0002b0 15 ce 7c a8 fa 81 16 aa 2f a4 a0 ae 28 49 df a8
       -1.4033497e-14 -1.3367771e-13 -7.3051225e-11 -2.47897e-14
0002c0 fc c8 5b 27 20 0b 07 34 0e 50 7c a7 5e 97 c2 a6
       3.050131e-15 1.2576902e-07 -3.5015423e-15 -1.3502482e-15
0002d0 3e d7 87 33 2a 9a 40 ab 04 13 a2 29 6d 10 68 28
       6.32558e-08 -6.842605e-13 7.197544e-14 1.2882149e-14
0002e0 f8 40 3d 36 b2 64 ee 2d d1 45 ca 2c fc 8b ab ac
       2.8201011e-06 2.7102185e-11 5.7489365e-12 -4.8756537e-12
0002f0 ee 16 b2 28 e2 a0 4a 2d 1e 34 3a ae 94 cb 27 29
       1.9771914e-14 1.1518094e-11 -4.2337793e-11 3.7258025e-14
000300 71 8b 76 38 b3 52 fb ae 98 e2 60 2e e3 59 b1 b5
       5.8780835e-05 -1.1428849e-10 5.113296e-11 -1.3213688e-06
000310 ce d1 82 32 98 48 4e 35 1a 44 ab 2e 74 2e a6 2e
       1.52294e-08 7.684662e-07 7.788277e-11 7.557058e-11
000320 ac 21 f4 b3 ac 7e 27 b1 cc ad b9 b4 18 9d eb 31
       -1.136826e-07 -2.4373703e-09 -3.458539e-07 6.8572596e-09
000330 fc 76 7f ad 54 55 43 af f8 7a cb 2e d0 3e 4a 30
       -1.4521492e-11 -1.7765461e-10 9.253215e-11 7.3576434e-10
000340 64 cc 5a ad b8 57 f2 32 36 1e 01 b0 e2 ef a7 b6
       -1.2437249e-11 2.8212398e-08 -4.697286e-10 -5.004914e-06
000350 94 9b 32 32 c2 e9 b6 32 dc 11 82 36 5b 03 9f ad
       1.0396338e-08 2.129389e-08 3.876381e-06 -1.8077697e-11
000360 88 35 01 35 fa 37 a1 2d 87 c8 10 30 80 4b 39 2e
       4.8134143e-07 1.832844e-11 5.267186e-10 4.2131187e-11
000370 c9 e7 b4 b7 a4 7e 8c ae 68 b3 1c 31 2c 82 81 32
       -2.1565605e-05 -6.388959e-11 2.2802968e-09 1.5076772e-08
000380 38 d9 77 32 8e be b6 af 59 df 10 a8 42 fa 3a b0
       1.4426682e-08 -3.3241004e-10 -8.042037e-15 -6.8022044e-10
000390 ee c2 b2 37 00 8f a2 ac 96 27 28 27 f5 43 1a b1
       2.1310025e-05 -4.620193e-12 2.3336143e-15 -2.2448579e-09
0003a0 1b 49 fc ac 48 9c 70 33 17 31 46 a8 30 f0 a4 30
       -7.170387e-12 5.602149e-08 -1.1001853e-14 1.2000836e-09
0003b0 f9 8e 46 33 42 42 5e 2b 82 1f c6 27 96 70 41 ae
       4.62305e-08 7.8962195e-13 5.49902e-15 -4.3983116e-11
0003c0 b4 11 2d 2e e0 73 a0 b1 21 3f e4 2d 4f a2 80 2c
       3.935137e-11 -4.6697863e-09 2.5948634e-11 3.6559987e-12
0003d0 ad 70 29 b7 76 ec ca b8 e4 cb 74 2b 80 44 11 34
       -1.0099419e-05 -9.676155e-05 8.696917e-13 1.3529097e-07
0003e0 7b d7 a1 b5 36 31 49 27 2a fe 68 ac 24 b2 af a6
       -1.2058148e-06 2.792103e-15 -3.3110272e-12 -1.2191349e-15
0003f0 12 1d 8d 38 17 ab 19 a8 2a 54 b7 a7 9c 2a 0b b1
       6.728819e-05 -8.530305e-15 -5.0883954e-15 -2.0251383e-09

weight_hh_l1 f4 [128, 32]
000000 67 6c d8 b8 80 6b a3 2e fa 14 00 35 e0 75 bf b1
       -0.00010319874 7.431478e-11 4.771424e-07 -5.5722325e-09
000010 24 30 0e 36 ef a6 ac 34 63 8f 86 b5 58 aa 25 32
       2.118767e-06 3.2158957e-07 -1.0025509e-06 9.642996e-09
000020 10 82 bb 30 a4 b8 f6 af 26 e5 cd b4 42 23 b9 b1
       1.3643007e-09 -4.4878334e-10 -3.8350953e-07 -5.388217e-09
000030 ff 3f 06 b3 ff bd 56 30 23 bf ce b0 38 07 6e af
       -3.125751e-08 7.8122747e-10 -1.5042797e-09 -2.1648539e-10
000040 1d 27 87 3b f4 b3 d0 32 e5 5f a9 35 17 f9 c6 b5
       0.0041245357 2.429622e-08 1.261939e-06 -1.4824644e-06
000050 ad 30 99 b3 3f 36 91 36 d2 34 17 38 3b e4 f8 b1
       -7.133472e-08 4.327652e-06 3.60504e-05 -7.2436968e-09
000060 76 c8 15 35 ac ca cf b4 95 5a 4f 32 14 86 e4 b0
       5.5798535e-07 -3.8704218e-07 1.2069582e-08 -1.6627291e-09
000070 f2 cf e7 31 73 37 6b 30 2f 1f 27 32 bc 33 d5 b4
       6.7466255e-09 8.55713e-10 9.72777e-09 -3.9711983e-07
000080 35 b3 b4 a4 10 37 09 a1 f6 07 31 ad 98 72 b7 b6
       -7.8366145e-17 -4.649028e-19 -1.0063053e-11 -5.4671655e-06
000090 52 a9 a5 b3 d2 68 36 b0 d0 b7 c8 33 9f 37 a1 32
       -7.7142104e-08 -6.6360173e-10 9.346661e-08 1.876816e-08
0000a0 be ac 6b 33 36 e8 85 36 78 06 db af 4b 52 5a 33
       5.487231e-08 3.990742e-06 -3.9840464e-10 5.0831925e-08
0000b0 bb 15 f6 ac f4 ba 68 2d a8 5c 37 ab d8 f0 49 33
       -6.994153e-12 1.3229185e-11 -6.5143247e-13 4.7018005e-08
0000c0 60 7e 14 22 bc 61 7e 31 b2 81 79 b4 dc 53 eb 30
       2.0124643e-18 3.701742e-09 -2.3237115e-07 1.7122335e-09
0000d0 4c 11 02 31 c6 f4 d2 2e 24 83 96 b5 b0 8c 2b 2f
       1.8927322e-09 9.593175e-11 -1.1214038e-06 1.5602342e-10
0000e0 56 a9 8d ad dd 44 1a af 36 9e 42 33 92 5e 0a 38
       -1.6105044e-11 -1.4030684e-10 4.5313037e-08 3.298984e-05
0000f0 5b 35 c3 31 62 a8 9d 2b f2 47 04 b8 de 27 b8 b1
       5.6813128e-09 1.1202257e-12 -3.1538257e-05 -5.359637e-09
000100 51 17 0c ad 64 70 94 33 b8 9f 0a 35 b4 bd 23 37
       -7.963256e-12 6.912231e-08 5.164143e-07 9.759726e-06
000110 ba 5b 4d 29 66 4d 63 ad b2 cd 38 b6 89 b6 be 31
       4.5598704e-14 -1.2920642e-11 -2.7537867e-06 5.5504796e-09
000120 00 7b 35 31 40 cc 34 35 56 5e 8d 29 08 d6 73 b8
       2.6408884e-09 6.735245e-07 6.2780225e-14 -5.8135047e-05
000130 72 02 c2 33 c8 0b e2 32 55 c3 69 2f eb b4 ef 2f
       9.034274e-08 2.631522e-08 2.1260622e-10 4.3602397e-10
000140 4c 2d c7 2e b3 e1 c8 32 14 67 4a ad b8 9b 92 aa
       9.0575186e-11 2.33857e-08 -1.15052586e-11 -2.6042861e-13
000150 a1 19 ce 28 4e ea ba aa 90 18 07 b0 d6 ae d5 ac
       2.2881709e-14 -3.320282e-13 -4.914762e-10 -6.073235e-12
000160 68 6e ce a7 38 28 6d ad 11 fd 33 2c 40 b0 88 31
       -5.729619e-15 -1.3480821e-11 2.557791e-12 3.9781582e-09
000170 40 ef 34 b3 62 f9 92 ae 5f 58 13 2c 95 c5 2f 2c
       -4.2127112e-08 -6.6836106e-11 2.0939012e-12 2.4978676e-12
000180 0f 9e 00 ad 82 c7 8c 34 b8 26 19 b1 8e 23 8e 36
       -7.311054e-12 2.6222193e-07 -2.228644e-09 4.236069e-06
000190 44 43 2c b4 3f 49 29 31 34 bc d6 ad 00 f4 1d b3
       -1.604322e-07 2.4634372e-09 -2.4412562e-11 -3.6776328e-08
0001a0 74 3f a4 ae 32 41 bc 37 b3 19 88 b7 7a 73 d8 30
       -7.469128e-11 2.2441705e-05 -1.622443e-05 1.5748889e-09
0001b0 09 bc f4 33 7a 6b ff b1 fd 2c fd b1 5a 9e af 2d
       1.1396339e-07 -7.4336954e-09 -7.3683837e-09 1.9965519e-11
0001c0 18 7d 99 ac 40 17 05 b4 2a e2 1b b0 7c e8 74 38
       -4.3624097e-12 -1.2395049e-07 -5.671007e-10 5.839065e-05
0001d0 8f f2 23 b4 cd 7e ca 30 f8 2e f7 b0 60 8d 3b ad
       -1.52688e-07 1.4733473e-09 -1.7984965e-09 -1.0661111e-11
0001e0 fb a7 bc b3 36 04 c0 b0 ac 07 49 b6 ba 17 38 2d
       -8.784988e-08 -1.3971035e-09 -2.99558e-06 1.0464457e-11
0001f0 b8 ad ca 33 06 11 44 33 d4 16 d2 b3 2c aa c9 b6
       9.437957e-08 4.565029e-08 -9.7830394e-08 -6.0100774e-06
000200 e1 39 00 b1 c7 3b 06 35 ec ff b2 ac dc de c4 30
       -1.8659352e-09 5.000588e-07 -5.0874773e-12 1.4324217e-09
000210 9c e5 a7 2f ff f4 2f 32 11 cd f5 32 7c 7b e0 b2
       3.054027e-10 1.0242046e-08 2.8615007e-08 -2.6133186e-08
000220 bc 23 02 b1 af a9 6e b2 c2 3f bb 38 e8 f0 2b b2
       -1.8937802e-09 -1.3892005e-08 8.928731e-05 -1.0008286e-08
000230 75 92 85 30 d2 48 39 2f e3 5b 42 33 44 6c 31 33
       9.718649e-10 1.6851523e-10 4.5252715e-08 4.130949e-08
000240 f1 98 c3 31 a8 39 0f b2 b8 2e 30 b0 a6 9b 49 b1
       5.6926344e-09 -8.336805e-09 -6.409482e-10 -2.9337826e-09
000250 58 a0 b5 a9 0a cf 0c 2d 7b 33 0a b7 fc ad 91 b0
       -8.06583e-14 8.0040505e-12 -8.237427e-06 -1.0599588e-09
000260 b8 80 59 35 20 b9 35 2f e8 d1 54 30 e2 85 42 33
       8.102611e-07 1.6527624e-10 7.7423445e-10 4.529091e-08
000270 63 c3 36 32 fa 4e 45 b3 c3 74 bd af ae 95 71 38
       1.063822e-08 -4.5939466e-08 -3.4461864e-10 5.7598278e-05
000280 00 39 fe ab 88 04 85 b6 0c d8 8a 2e db 6a 2b 35
       -1.8063606e-12 -3.9642364e-06 6.313891e-11 6.385796e-07
000290 aa f4 89 36 78 e6 32 b7 b6 1c 81 b3 aa 12 95 b0
       4.111401e-06 -1.0663287e-05 -6.012253e-08 -1.0846481e-09
0002a0 30 a4 aa 2a ce ab 05 31 96 f5 08 ae bc de fd af
       3.0311994e-13 1.9451707e-09 -3.1140944e-11 -4.6178694e-10
0002b0 e4 c1 8b 36 a4 2b de b0 08 46 ed ab c0 b8 ee b0
       4.1650947e-06 -1.6165029e-09 -1.68593e-12 -1.7369288e-09
0002c0 c1 a8 11 36 00 54 b7 2f 28 e6 f5 28 56 51 1d ac
       2.1704911e-06 3.3347192e-10 2.7300278e-14 -2.2356192e-12
0002d0 30 0b 77 2c 28 52 f2 ab 4b f2 fa af a1 92 cb 33
       3.5107021e-12 -1.7217937e-12 -4.5646895e-10 9.479596e-08
0002e0 98 99 95 32 58 70 74 ae da 87 ef b0 b2 f8 21 2a
       1.741573e-08 -5.5578958e-11 -1.742815e-09 1.4385956e-13
0002f0 12 ed e5 2c e4 00 22 34 2e 5f 16 ab d0 a1 15 b5
       6.5348916e-12 1.508775e-07 -5.3422794e-13 -5.5742294e-07
000300 a7 79 46 ae d2 9b 0e 2c 3c 6e 5a 2b 3f 83 1e ad
       -4.5128037e-11 2.0265911e-12 7.760214e-13 -9.010403e-12
000310 fa c5 e4 b4 fa 15 ba b0 1e 73 0f b4 7c 82 c6 2d
       -4.2612356e-07 -1.3539527e-09 -1.3359792e-07 2.256794e-11
000320 e9 31 a2 ad c2 f2 19 ae 50 d2 4e 33 54 45 e0 2c
       -1.8439432e-11 -3.5003785e-11 4.815439e-08 6.37416e-12
000330 71 cd c4 b5 0a 65 74 38 63 e5 ed af e8 ff 44 ac
       -1.4662929e-06 5.8268233e-05 -4.3273038e-10 -2.7995332e-12
000340 56 0a 13 2d 62 c2 a5 aa e0 34 48 b2 bc 7e 92 2c
       8.358278e-12 -2.9444768e-13 -1.1653555e-08 4.16364e-12
000350 c8 4b 22 2e 74 dc 6b b1 eb 35 33 35 20 0e 9f 34
       3.6901843e-11 -3.4322314e-09 6.676116e-07 2.9626335e-07
000360 0e c5 eb 33 7c 69 47 b1 db 69 56 2e 1e 18 07 35
       1.0978884e-07 -2.9018272e-09 4.8751985e-11 5.0326514e-07
000370 9a 19 39 b5 54 2d 47 b0 78 c0 ea b6 8b 0c 38 31
       -6.8955126e-07 -7.2460193e-10 -6.9961498e-06 2.6782654e-09
000380 90 dc e6 a7 d8 90 3c 2e 76 fb 10 38 9e 9a 7d 2c
       -6.407696e-15 4.2874898e-11 3.4566467e-05 3.6039292e-12
000390 cb a5 88 ac 10 f9 3b ab fa 66 c1 2b 46 5d 4e 2e
       -3.883759e-12 -6.678139e-13 1.3742057e-12 4.692182e-11
0003a0 16 0b 26 32 0c f0 9f 2d 18 29 1b 2e 54 42 f5 38
       9.664992e-09 1.818281e-11 3.527942e-11 0.00011694865
0003b0 69 30 4f ab 60 14 b2 33 b3 46 20 b8 e2 9f 5c 36
       -7.3608356e-13 8.292477e-08 -3.8212816e-05 3.2875619e-06
0003c0 96 f9 64 36 5c 47 16 34 1d 32 17 35 3a bc f9 aa
       3.4119926e-06 1.3995799e-07 5.632481e-07 -4.4361894e-13
0003d0 dc 26 98 34 e0 5b 46 2c 52 e4 15 b2 f9 b2 88 2c
       2.834048e-07 2.8188493e-12 -8.7248555e-09 3.8852224e-12
0003e0 44 d1 0b 30 54 b1 0c 2b ca 9c 0b ac 1a 18 f4 b6
       5.086529e-10 4.9984084e-13 -1.9840123e-12 -7.2745725e-06
0003f0 c3 5a a5 ae 4c eb c4 2e 7a c5 fa b6 69 f0 c2 2d
       -7.519454e-11 8.954845e-11 -7.47357e-06 2.216201e-11

bias_ih_l1 f4 [128]
000000 18 24 86 3e 06 f6 8c 25 8e 25 92 ad 7f 5a 58 2e
       0.26199412 2.445284e-16 -1.6614956e-11 4.919309e-11
000010 cc 44 88 32 e0 38 44 2d 97 d2 c7 ae c8 bf 47 28
       1.5863769e-08 1.1153939e-11 -9.0868806e-11 1.1088305e-14
000020 8d c1 f0 a6 4c d8 8d a4 f9 1c 80 af 3e de 04 2b
       -1.6705807e-15 -6.1515424e-17 -2.330365e-10 4.7204244e-13
000030 a0 57 ef a7 e8 30 e1 a4 80 f8 e0 a5 ea 17 69 a4
       -6.643083e-15 -9.7661046e-17 -3.9026196e-16 -5.0544077e-17
000040 0f c2 84 3e 20 34 4d 28 c8 85 b8 b0 7b 80 96 30
       0.25929305 1.1391089e-14 -1.3425785e-09 1.0950453e-09
000050 eb 57 91 aa bc d2 a1 31 d5 35 1a b3 22 52 52 29
       -2.581818e-13 4.7096744e-09 -3.590488e-08 4.6700606e-14
000060 f0 bb e2 30 1b 28 f0 31 ec ea f0 29 9a 6b b3 a4
       1.6497079e-09 6.9894788e-09 1.06988935e-13 -7.781116e-17
000070 59 51 0c a7 2f e8 ea 24 c8 e9 85 2a 05 1c 01 31
       -1.9473002e-15 1.0187466e-16 2.3787764e-13 1.8787898e-09
000080 a8 ac 22 3e 33 13 a5 a5 27 ed 85 ad 70 46 bc 2d
       0.15886176 -2.8635947e-16 -1.5225666e-11 2.1404406e-11
000090 5a ec 8e b1 ae 5e d1 2e f2 db 30 ae 87 86 90 27
       -4.159614e-09 9.521038e-11 -4.0213118e-11 4.0113884e-15
0000a0 7e 1c 8e 26 cd 29 49 a4 2b 0f 18 af 20 03 be 2a
       9.860952e-16 -4.3620334e-17 -1.3829708e-10 3.3752948e-13
0000b0 f8 45 f1 a7 75 cb e7 24 00 2e 64 27 23 5c dd a3
       -6.6966798e-15 1.0052495e-16 3.1666293e-15 -2.399989e-17
0000c0 01 12 16 3e f0 16 1d a7 3c be e4 b1 a6 53 12 30
       0.14655305 -2.1800561e-15 -6.6573005e-09 5.323336e-10
0000d0 4a e1 dc aa 43 90 44 31 ee da 63 b3 8d 02 66 27
       -3.9236176e-13 2.8603757e-09 -5.305167e-08 3.1920295e-15
0000e0 c7 f4 69 b1 bf 7e df b1 38 96 3f a9 38 26 d7 25
       -3.4045102e-09 -6.5045636e-09 -4.2540814e-14 3.7322453e-16
0000f0 66 7a 27 a7 d2 41 85 25 fe 14 84 28 6c 0f 22 30
       -2.3242258e-15 2.3116424e-16 1.4664048e-14 5.895717e-10
000100 70 e6 00 3d 11 65 b4 b0 83 cd 8d 35 42 1d 1e b5
       0.031469762 -1.3125449e-09 1.056513e-06 -5.890216e-07
000110 40 47 f6 35 03 27 0e 36 2a bf b8 b5 19 89 ee 32
       1.8349165e-06 2.1182357e-06 -1.3764704e-06 2.7769191e-08
000120 05 40 e2 31 82 3e 0f 31 30 51 ab b5 f1 08 f4 b3
       6.584744e-09 2.084477e-09 -1.2764121e-06 -1.1363762e-07
000130 bc 26 b5 b3 62 34 04 31 a5 f8 95 b1 fa 86 ad b0
       -8.435515e-08 1.9238304e-09 -4.3647383e-09 -1.2625769e-09
000140 0a d8 83 3d 00 9a 78 33 48 5e 53 35 35 c8 be b6
       0.064376906 5.7882062e-08 7.874082e-07 -5.6857484e-06
000150 f6 2f 4a b4 72 93 46 b6 9f 41 cb 38 c8 6f dc b2
       -1.8830164e-07 -2.9590124e-06 9.692017e-05 -2.5662203e-08
000160 77 1a 12 36 b8 35 cc b3 58 71 8c 33 da 79 0e 31
       2.17711e-06 -9.509262e-08 6.539875e-08 2.0732984e-09
000170 4a 47 6f 32 9e 45 c0 b0 57 1c 12 33 b9 57 88 36
       1.392784e-08 -1.3989625e-09 3.401905e-08 4.063328e-06
000180 79 03 96 3e 45 df 9c 25 0e b1 90 ad ba 21 58 2e
       0.29299524 2.721298e-16 -1.6449533e-11 4.914267e-11
000190 2f 94 80 32 b8 11 44 2d b0 f7 c7 ae a2 76 45 28
       1.4968547e-08 1.11452444e-11 -9.0934704e-11 1.0961421e-14
0001a0 e0 b9 27 a4 c4 e5 39 a4 21 71 80 af 7c 2c 06 2b
       -3.6369795e-17 -4.03101e-17 -2.3363447e-10 4.76681e-13
0001b0 a8 40 5b a8 11 a8 77 a5 c0 35 d4 a4 64 d8 7f a3
       -1.2170962e-14 -2.1480778e-16 -9.20314e-17 -1.38694e-17
0001c0 46 f1 96 3e 4b 15 43 28 bc 27 84 b0 9e 6c 96 30
       0.29480952 1.0829292e-14 -9.615557e-10 1.0944807e-09
0001d0 e9 d1 84 aa b6 81 a1 31 86 44 1a b3 08 f7 52 29
       -2.3593565e-13 4.700463e-09 -3.591824e-08 4.6843632e-14
0001e0 ec 2a dd 30 cf 35 ef 31 ca 76 f0 29 16 2f 33 a4
       1.6092065e-09 6.961933e-09 1.06787477e-13 -3.885432e-17
0001f0 9f 65 01 a7 29 6d a4 24 4c aa 88 2a 60 94 02 31
       -1.7957435e-15 7.130859e-17 2.427662e-13 1.9001831e-09

bias_hh_l1 f4 [128]
000000 19 24 86 3e b0 f5 8c 25 8c 25 92 ad 7e 5a 58 2e
       0.26199415 2.4452613e-16 -1.6614952e-11 4.9193087e-11
000010 9f 44 88 32 c8 38 44 2d c1 d2 c7 ae a0 bf 47 28
       1.5863689e-08 1.1153918e-11 -9.08691e-11 1.1088271e-14
000020 8e c1 f0 a6 54 d8 8d a4 04 1d 80 af 38 de 04 2b
       -1.6705808e-15 -6.1515477e-17 -2.330368e-10 4.720421e-13
000030 84 57 ef a7 01 33 e1 a4 50 f8 e0 a5 e8 17 69 a4
       -6.643071e-15 -9.76646e-17 -3.902607e-16 -5.054407e-17
000040 0f c2 84 3e 17 34 4d 28 6c 87 b8 b0 80 80 96 30
       0.25929305 1.1391081e-14 -1.3426251e-09 1.0950458e-09
000050 f0 57 91 aa b2 d2 a1 31 d3 35 1a b3 f8 51 52 29
       -2.5818193e-13 4.70967e-09 -3.5904872e-08 4.6700464e-14
000060 f0 bb e2 30 23 28 f0 31 e3 ea f0 29 9b 6b b3 a4
       1.6497079e-09 6.9894823e-09 1.06988874e-13 -7.7811166e-17
000070 5d 51 0c a7 42 e8 ea 24 fa e9 85 2a 53 1c 01 31
       -1.947301e-15 1.01874783e-16 2.37879e-13 1.878807e-09
000080 a7 ac 22 3e 92 12 a5 a5 20 ed 85 ad 78 46 bc 2d
       0.15886174 -2.863552e-16 -1.5225654e-11 2.140442e-11
000090 78 ec 8e b1 b4 5e d1 2e e9 db 30 ae b8 85 90 27
       -4.1596273e-09 9.521042e-11 -4.0213086e-11 4.0113007e-15
0000a0 7f 1c 8e 26 91 29 49 a4 ae 0e 18 af ef 02 be 2a
       9.860953e-16 -4.3620135e-17 -1.3829535e-10 3.3752816e-13
0000b0 d4 45 f1 a7 d6 cb e7 24 0d 2e 64 27 d4 5b dd a3
       -6.6966645e-15 1.0052559e-16 3.166632e-15 -2.3999759e-17
0000c0 02 12 16 3e 9c 16 1d a7 0c be e4 b1 ba 53 12 30
       0.14655307 -2.1800383e-15 -6.657279e-09 5.3233473e-10
0000d0 4b e1 dc aa 1e 90 44 31 e8 da 63 b3 d0 02 66 27
       -3.923618e-13 2.8603675e-09 -5.305165e-08 3.1920437e-15
0000e0 c5 f4 69 b1 da 7e df b1 36 96 3f a9 50 26 d7 25
       -3.4045098e-09 -6.5045755e-09 -4.2540807e-14 3.7322516e-16
0000f0 66 7a 27 a7 c6 41 85 25 3c 12 84 28 7a 0f 22 30
       -2.3242258e-15 2.3116392e-16 1.4662852e-14 5.895725e-10
000100 63 ea 00 3d 1c 65 b4 b0 80 cd 8d 35 3c 1d 1e b5
       0.03147353 -1.3125461e-09 1.0565127e-06 -5.890213e-07
000110 59 47 f6 35 11 27 0e 36 46 bf b8 b5 1c 89 ee 32
       1.8349193e-06 2.1182389e-06 -1.3764736e-06 2.7769197e-08
000120 e7 3f e2 31 7e 3e 0f 31 52 51 ab b5 f1 08 f4 b3
       6.5847305e-09 2.0844761e-09 -1.276416e-06 -1.1363762e-07
000130 b7 26 b5 b3 63 34 04 31 a3 f8 95 b1 f4 86 ad b0
       -8.4355115e-08 1.9238307e-09 -4.3647375e-09 -1.2625763e-09
000140 f9 de 83 3d f7 99 78 33 b8 5d 53 35 2a c8 be b6
       0.06439013 5.788203e-08 7.8740004e-07 -5.6857434e-06
000150 f0 2f 4a b4 b6 93 46 b6 9e 41 cb 38 b8 6f dc b2
       -1.8830156e-07 -2.9590278e-06 9.6920165e-05 -2.5662175e-08
000160 68 1a 12 36 02 35 cc b3 5e 71 8c 33 d5 79 0e 31
       2.1771066e-06 -9.509132e-08 6.5398794e-08 2.0732973e-09
000170 4d 47 6f 32 76 45 c0 b0 4a 1c 12 33 be 57 88 36
       1.3927843e-08 -1.3989581e-09 3.4019003e-08 4.0633304e-06
000180 7a 03 96 3e d8 df 9c 25 14 b1 90 ad 94 21 58 2e
       0.29299527 2.7213369e-16 -1.6449543e-11 4.9142537e-11
000190 ea 93 80 32 68 11 44 2d 88 f7 c7 ae a3 76 45 28
       1.4968425e-08 1.1145175e-11 -9.093443e-11 1.0961422e-14
0001a0 20 b9 27 a4 7e e5 39 a4 0f 71 80 af 7a 2c 06 2b
       -3.636916e-17 -4.0309868e-17 -2.3363397e-10 4.7668087e-13
0001b0 b8 40 5b a8 8c a8 77 a5 c0 35 d4 a4 44 d8 7f a3
       -1.2170976e-14 -2.1480941e-16 -9.20314e-17 -1.3869374e-17
0001c0 46 f1 96 3e 5a 15 43 28 78 27 84 b0 97 6c 96 30
       0.29480952 1.0829304e-14 -9.615482e-10 1.09448e-09
0001d0 e8 d1 84 aa bd 81 a1 31 8b 44 1a b3 21 f7 52 29
       -2.3593562e-13 4.7004662e-09 -3.591826e-08 4.6843717e-14
0001e0 54 2b dd 30 c9 35 ef 31 d1 76 f0 29 f3 2e 33 a4
       1.6092181e-09 6.96193e-09 1.06787524e-13 -3.8854205e-17
0001f0 9e 65 01 a7 18 6d a4 24 53 aa 88 2a 99 94 02 31
       -1.7957433e-15 7.1308475e-17 2.427664e-13 1.9001958e-09
