Compare/model.pt (torch, 750455 bytes, 20 tensors)

weight_ih_l0 f4 [300, 6]
000000 b7 16 4b bd 7f 06 46 bd c4 10 6b 3b 70 71 25 3d
       -0.04958221 -0.04834604 0.0035868147 0.040391386
000010 05 96 e6 bb ab 62 1d 3b da 28 d6 37 23 09 11 b8
       -0.0070369267 0.002401511 2.5529811e-05 -3.4579203e-05
000020 f8 16 eb b6 58 9e fb 35 90 8f 0e 37 50 e9 dd 35
       -7.0062197e-06 1.8747041e-06 8.497285e-06 1.6533686e-06
000030 6e 5a ac 36 42 1e c1 36 a8 84 57 b5 a5 50 d4 b6
       5.136527e-06 5.7553707e-06 -8.028678e-07 -6.3274806e-06
000040 e4 b7 ea b4 5f 98 6e 35 d6 10 33 37 15 e7 59 37
       -4.3719695e-07 8.888364e-07 1.0673151e-05 1.2988011e-05
000050 24 10 84 b5 dc b8 98 b7 74 4c a1 35 cc b7 b1 34
       -9.839464e-07 -1.8205894e-05 1.2017686e-06 3.310255e-07
000060 00 62 d6 34 c0 3c 06 38 88 1d c3 b6 2d 83 10 37
       3.993191e-07 3.2004667e-05 -5.8148908e-06 8.613611e-06
000070 f2 61 8a 35 f8 de 40 b6 50 1a 6d 30 2a 2d f8 b2
       1.0310307e-06 -2.8740014e-06 8.625749e-10 -2.8891538e-08
000080 4e f4 56 33 f0 ab ac b3 de 17 14 b3 e9 a6 63 32
       5.004795e-08 -8.0406494e-08 -3.4480642e-08 1.325109e-08
000090 3c c6 29 38 1d d6 c1 b8 80 66 79 35 f8 f8 06 b9
       4.047736e-05 -9.242839e-05 9.2908886e-07 -0.00012871984
0000a0 52 92 c3 37 0c 0c e0 37 2a 3a d8 af aa 61 8d b0
       2.3313947e-05 2.670849e-05 -3.93315e-10 -1.0286858e-09
0000b0 4d a1 ac 30 fe ac ca 30 c0 11 65 2e cc ae d0 2f
       1.2560492e-09 1.4746602e-09 5.2084337e-11 3.795918e-10
0000c0 01 8b 7e 3a 1e a1 9b b9 54 f8 ec 39 ca ea 9d b9
       0.0009710044 -0.00029683945 0.00045198447 -0.00030120305
0000d0 ba f6 cf 3a cd ef 87 ba 80 c4 90 34 16 ff 7c b6
       0.0015866377 -0.0010371149 2.6965063e-07 -3.7699406e-06
0000e0 8d 67 d9 b6 d3 56 56 b6 6b 87 37 35 b6 c7 bc 35
       -6.479159e-06 -3.1939023e-06 6.836987e-07 1.4065215e-06
0000f0 59 45 81 b7 65 ba 54 37 c0 1c 54 37 b2 23 e7 36
       -1.541029e-05 1.2679583e-05 1.2642879e-05 6.888492e-06
000100 b1 db 04 37 7c 3e b0 b6 f6 85 83 b8 3d 72 10 39
       7.918964e-06 -5.252483e-06 -6.271519e-05 0.00013775467
000110 0c 79 97 b9 f0 49 f5 37 6d 74 1f b8 ac 37 03 b8
       -0.0002889115 2.9240706e-05 -3.8016984e-05 -3.1284682e-05
000120 c0 5f a0 32 f8 38 9e 31 8a 85 37 32 7b e0 db 32
       1.8669994e-08 4.604882e-09 1.0682365e-08 2.5597037e-08
000130 a7 3c 80 b1 65 ae 9d b1 56 b4 08 b6 72 e8 2a 37
       -3.7321857e-09 -4.5891277e-09 -2.0370549e-06 1.018691e-05
000140 c8 10 14 b7 54 c3 4e 37 6f 5a 7d 36 fb 79 00 b7
       -8.825395e-06 1.2324035e-05 3.7752577e-06 -7.657795e-06
000150 51 1f 8b b9 46 e3 d6 b9 14 a8 15 39 d0 1d a3 39
       -0.00026535479 -0.00040986593 0.00014272361 0.00031111995
000160 ec 9a 0b 39 08 3e 39 37 30 99 4d 38 08 ac 92 b8
       0.00013313786 1.1041302e-05 4.9018476e-05 -6.993866e-05
000170 b0 4e 95 39 b2 45 23 ba ae cd 95 38 50 c2 0f 39
       0.0002847812 -0.0006228342 7.1431845e-05 0.0001370993
000180 a0 76 e9 b2 f0 be 5c 34 ba 73 80 33 8f 4c 1a b5
       -2.7178714e-08 2.055856e-07 5.981515e-08 -5.748088e-07
000190 91 58 27 33 13 a6 c1 33 ac 01 95 bc 00 34 56 bc
       3.8963268e-08 9.0174716e-08 -0.018189274 -0.013073921
0001a0 d1 50 80 39 23 fd 1b 3c c6 ff f0 ba f4 d6 8e bb
       0.00024474275 0.009520802 -0.0018386773 -0.0043591205
0001b0 3a d6 aa 35 d5 1f 2d b6 00 53 c5 32 e8 26 eb 33
       1.2728335e-06 -2.5797538e-06 2.2971562e-08 1.0950117e-07
0001c0 d0 fc 4f 33 98 af 89 b5 9e fe f5 2f 68 75 84 b1
       4.8425875e-08 -1.02584e-06 4.4746157e-10 -3.855053e-09
0001d0 f2 42 c5 b1 84 b6 24 31 c4 17 98 30 4c c6 cf b0
       -5.7410654e-09 2.396889e-09 1.106621e-09 -1.5117592e-09
0001e0 63 a0 d0 b9 fe c8 59 b9 e0 82 4c 38 07 15 e5 39
       -0.0003979235 -0.00020769608 4.8759277e-05 0.0004369395
0001f0 94 9f 28 b8 38 32 69 37 fd 8f 40 36 50 31 70 b6
       -4.020294e-05 1.3899575e-05 2.8694042e-06 -3.579149e-06
000200 f2 aa 90 b5 e7 0a c6 b5 49 2c 57 b3 e3 9f bc 35
       -1.0778588e-06 -1.4755323e-06 -5.0098866e-08 1.4053625e-06
000210 92 69 23 b7 9e e8 fa 37 6c d8 55 b7 62 2d b2 38
       -9.740137e-06 2.9910643e-05 -1.2746179e-05 8.4961546e-05
000220 48 a3 f1 37 f0 19 71 b7 54 bd e0 36 35 de ee b7
       2.8805473e-05 -1.4370758e-05 6.697761e-06 -2.8475284e-05
000230 c1 4c 99 b6 20 54 d5 b5 68 03 91 36 78 d9 09 36
       -4.5686907e-06 -1.589422e-06 4.3217333e-06 2.0541174e-06
000240 a0 d6 2a 37 7c e7 09 b7 49 f3 c7 b5 c3 f8 c6 37
       1.0182761e-05 -8.219733e-06 -1.4897461e-06 2.3719278e-05
000250 5c 98 05 37 32 d8 f7 36 e6 d0 02 3a c0 6a 53 3a
       7.962892e-06 7.386342e-06 0.0004990235 0.0008064918
000260 06 ad 0a ba 56 02 ed b9 12 39 28 3b d8 54 84 bb
       -0.0005290065 -0.00045205903 0.0025668782 -0.0040384345
000270 b8 a7 26 39 d2 4b 42 b8 3e c3 a6 b9 03 0f 56 3a
       0.00015893474 -4.6323818e-05 -0.00031807454 0.0008165689
000280 30 97 48 39 80 fa 20 39 ea 0a 3f bd 49 a7 35 bd
       0.00019129808 0.00015352108 -0.046641268 -0.04434899
000290 3f 4f bf 3a 80 0b 22 3d 7b 07 e7 bb 15 73 fd 3a
       0.0014595761 0.03956175 -0.0070504523 0.0019336665
0002a0 15 ba 00 37 12 83 b3 37 a8 0c 82 36 b8 2e 2c 36
       7.67272e-06 2.1399497e-05 3.8757753e-06 2.5657191e-06
0002b0 af 0e c1 b6 2c 19 06 b5 3b 5d 09 39 41 fa 88 39
       -5.7535576e-06 -4.995552e-07 0.00013100069 0.00026126395
0002c0 bd 11 85 b9 7a 6f 70 39 90 ae 0e b6 10 e5 14 38
       -0.00025380953 0.00022929712 -2.1261258e-06 3.549928e-05
0002d0 34 2a 2f b9 37 70 38 3a 84 31 45 ba fc f0 02 3a
       -0.00016705022 0.0007035764 -0.0007522332 0.0004995016
0002e0 72 fd e1 b8 0d 30 37 b8 40 92 27 39 1c c7 ec b9
       -0.00010776044 -4.367535e-05 0.00015980843 -0.00045161776
0002f0 26 c3 e8 b9 b4 62 52 3a 28 8d 27 38 f7 ce f2 b8
       -0.00044395885 0.0008025572 3.9947365e-05 -0.000115780094
000300 27 d0 b1 34 62 ef a8 34 f1 bf 04 b5 de 8a 45 34
       3.312027e-07 3.1466612e-07 -4.9453143e-07 1.8397574e-07
000310 5b c5 01 b5 b5 19 81 b4 ed 33 cb 36 22 51 db 35
       -4.8343435e-07 -2.4046827e-07 6.0559164e-06 1.6340384e-06
000320 a8 a0 82 34 10 f9 8d b6 4a db 20 36 04 e6 4a 35
       2.433128e-07 -4.231122e-06 2.39695e-06 7.558558e-07
000330 60 f0 bd b4 40 52 33 b6 8e 74 1a b8 70 26 a9 38
       -3.537889e-07 -2.6720954e-06 -3.682501e-05 8.0657075e-05
000340 ca e7 af b6 c2 89 07 b7 28 20 1c b9 c4 c0 bb b7
       -5.24239e-06 -8.078701e-06 -0.00014889298 -2.23819e-05
000350 15 6f 29 39 d9 77 ae b9 f6 88 f9 b7 b7 17 0e 38
       0.00016158477 -0.0003327716 -2.974689e-05 3.3877524e-05
000360 4a c6 10 39 d6 29 85 b9 5e 0a 6f 38 96 a9 87 3a
       0.00013806779 -0.00025398907 5.6991696e-05 0.0010350223
000370 de 4c d2 39 a8 52 cb 39 04 25 e8 38 8c af 61 b8
       0.00040111592 0.0003878076 0.00011069517 -5.380767e-05
000380 36 d9 89 39 88 89 b3 38 d0 0b 5d 38 7e 54 29 39
       0.0002629251 8.561002e-05 5.2701507e-05 0.00016148572
000390 a0 ce 47 b4 d0 49 12 b6 a3 d1 11 36 af d0 0f 36
       -1.8608489e-07 -2.179866e-06 2.1728708e-06 2.143013e-06
0003a0 6a 7f 31 35 69 77 8a 35 78 79 c4 37 e0 d7 98 b6
       6.612305e-07 1.0316554e-06 2.3421584e-05 -4.555084e-06
0003b0 b9 17 71 b9 96 b1 2a 3a 26 bb 94 38 0f cf 68 39
       -0.00022992388 0.0006511448 7.092049e-05 0.0002220238
0003c0 68 72 d0 37 88 9c da b8 a8 b5 05 38 44 39 a6 39
       2.4848807e-05 -0.00010424206 3.187885e-05 0.00031704654
0003d0 d6 af 67 b9 2e 51 03 b9 f2 dc 8f 37 48 7c 75 b7
       -0.0002209538 -0.00012523375 1.7149814e-05 -1.4632074e-05
0003e0 d8 8e 94 37 9a 15 1f b8 f3 b5 3c 37 66 71 81 37
       1.7709492e-05 -3.7928672e-05 1.1248037e-05 1.5430804e-05
0003f0 c8 2f 64 b5 4a d7 dc b7 b5 79 58 37 28 70 bb b5
       -8.500615e-07 -2.6326295e-05 1.290294e-05 -1.3965227e-06

weight_hh_l0 f4 [300, 100]
000000 1b e7 ba 39 68 97 1d b8 4c c4 09 b9 e5 14 00 b9
       0.00035648872 -3.7572725e-05 -0.00013138464 -0.00012214815
000010 4e 98 f1 38 e7 a5 cb b6 6b 29 1e b9 ae 06 c5 b5
       0.000115201445 -6.069185e-06 -0.00015083484 -1.4679588e-06
000020 b1 f5 b3 ba 74 31 90 37 26 c8 ea b8 05 bc de 38
       -0.0013729838 1.7189166e-05 -0.0001119527 0.00010620806
000030 fd 3f 6a b5 40 87 81 35 0d d8 8a bb 62 6d 24 ba
       -8.726491e-07 9.650612e-07 -0.004237181 -0.0006272403
000040 15 b3 ae b7 c5 eb d2 3a b0 f7 62 b6 d4 86 7e b6
       -2.0825808e-05 0.0016091993 -3.3820797e-06 -3.792743e-06
000050 a3 ff 1b 3b cc 67 09 b9 02 ff 53 39 5c e7 92 b7
       0.0023803494 -0.00013104005 0.00020217526 -1.7512291e-05
000060 20 9e e0 b8 9a 9a 04 3b 12 8d 5e ba 6b 88 6f 39
       -0.000107106054 0.0020233751 -0.0008489649 0.00022843636
000070 90 84 c5 b7 4c 65 39 bb a6 50 2a 3b a0 4d a8 b9
       -2.354596e-05 -0.0028289137 0.0025988012 -0.00032101292
000080 d4 56 d6 b7 5c 17 06 b9 7f 60 c7 b8 86 24 5c bb
       -2.555122e-05 -0.00012787938 -9.507033e-05 -0.0033591106
000090 a4 c8 b1 b9 b0 23 ea 38 6c 5e 83 b8 bb be 6e 3b
       -0.0003390956 0.00011164637 -6.264154e-05 0.0036429602
0000a0 51 48 23 ba 57 89 33 b9 da 2a 0d b9 b2 b3 52 37
       -0.00062287325 -0.00017121933 -0.00013462771 1.2558814e-05
0000b0 4c d8 78 3b d2 6b 0c 3b df f9 64 38 e6 94 9f 35
       0.003797072 0.002142657 5.4592147e-05 1.1889758e-06
0000c0 4c 9b 3a b9 99 a5 51 3b 8c db 40 bb 6c 84 0c b6
       -0.00017796195 0.0031989573 -0.0029427735 -2.0938705e-06
0000d0 20 16 57 bb 56 63 1e 3b f5 f9 ac 39 b4 51 1f b7
       -0.0032819584 0.0024168096 0.0003299263 -9.4961615e-06
0000e0 ed 5b 1a b9 34 13 16 3a 2b 38 1b bb ca 32 ac b9
       -0.0001472083 0.00057249074 -0.0023684602 -0.00032844237
0000f0 18 b5 00 3b b4 b0 b6 38 af 2f bf 38 42 f8 3e b9
       0.001963919 8.71135e-05 9.1164715e-05 -0.00018212295
000100 e0 ee 6c 38 64 35 48 b7 74 38 21 b9 9c 55 99 b8
       5.6489254e-05 -1.193336e-05 -0.00015375187 -7.3115545e-05
000110 23 32 70 3b 70 62 83 b5 d2 99 2a bb 99 3b 65 bb
       0.0036650978 -9.78891e-07 -0.0026031625 -0.003497815
000120 2f 0b a2 38 60 2e 92 39 6a 41 ae 39 83 21 03 b7
       7.726845e-05 0.00027881842 0.00033236603 -7.816011e-06
000130 a8 11 7a b9 20 d8 77 37 7f 4e f2 b8 3c 91 c8 b8
       -0.00023848435 1.4772668e-05 -0.0001155408 -9.563795e-05
000140 13 ca 1d 38 4e 5d 57 3a e8 1e 33 b8 08 c1 24 38
       3.7619913e-05 0.00082155026 -4.270571e-05 3.928042e-05
000150 e0 96 ef 3a 95 0c bc b9 7e 91 5b b8 51 e7 30 38
       0.0018279217 -0.0003586753 -5.234917e-05 4.21771e-05
000160 fc 7e 24 b9 fb 1d ed 3a ab 42 56 3b d0 15 77 39
       -0.00015687564 0.00180906 0.0032693546 0.00023563881
000170 97 31 e6 ba 8b 6b 62 3b 30 1a 8e 33 94 ae 38 38
       -0.0017562386 0.0034548964 6.617154e-08 4.4031607e-05
000180 fc 4e f2 b9 22 c5 45 ba 6c e5 84 b6 6c d5 a0 b9
       -0.00046216685 -0.00075443287 -3.960615e-06 -0.0003067659
000190 08 9b 7f b3 8c 92 99 35 0e aa a8 34 54 28 31 b2
       -5.9512814e-08 1.1442039e-06 3.141617e-07 -1.03119255e-08
0001a0 65 1f 45 34 9a 65 10 33 b8 9a 97 33 90 1e 74 30
       1.8358476e-07 3.362002e-08 7.0596286e-08 8.8810115e-10
0001b0 f0 01 80 36 c2 9f a1 33 30 8e 0c b5 f8 61 aa b4
       3.814923e-06 7.5262065e-08 -5.2360974e-07 -3.173625e-07
0001c0 1f 74 2d 34 86 d9 b5 b4 e8 9b b0 35 c0 d6 f8 b5
       1.6154125e-07 -3.3872146e-07 1.3158397e-06 -1.853994e-06
0001d0 ca 8b 82 34 f8 a8 88 b6 3a e8 9c 34 58 3b f9 31
       2.4316097e-07 -4.0727864e-06 2.922623e-07 7.2536004e-09
0001e0 50 8f 20 b6 64 86 bc 34 30 31 fe b4 b9 a5 16 35
       -2.3925277e-06 3.511551e-07 -4.7346975e-07 5.612051e-07
0001f0 6b 0f 84 35 8f 4b 00 b7 a0 4c 26 33 47 ae 91 b6
       9.839254e-07 -7.646987e-06 3.8719577e-08 -4.3416253e-06
000200 e2 c1 9d b3 90 0b 98 36 91 d5 86 36 c4 c1 31 b6
       -7.346149e-08 4.531299e-06 4.0183736e-06 -2.6487842e-06
000210 8b c4 07 b7 08 f6 07 35 e5 b5 77 35 6c 56 21 35
       -8.092388e-06 5.064944e-07 9.227936e-07 6.0102934e-07
000220 82 7b 12 36 18 6f 14 34 5e 47 07 34 f8 96 f3 36
       2.1827586e-06 1.382399e-07 1.2598818e-07 7.2595394e-06
000230 c1 a8 da b5 24 9f c7 b4 3f 19 58 35 10 7e 21 34
       -1.629138e-06 -3.7182429e-07 8.050301e-07 1.5040155e-07
000240 e8 2f db b5 d0 32 18 b6 f0 3f 49 33 b0 09 26 32
       -1.6330714e-06 -2.2679342e-06 4.685711e-08 9.664674e-09
000250 a0 03 53 35 3e f9 a2 36 bd 77 b0 36 e3 95 e4 32
       7.86089e-07 4.856992e-06 5.259148e-06 2.6610854e-08
000260 c4 93 f3 b5 2c 3f 99 b5 cc 54 67 b6 e9 c2 f5 34
       -1.8147916e-06 -1.1417774e-06 -3.447104e-06 4.5776622e-07
000270 f5 63 d7 35 cc be 68 35 00 8f c1 b6 c4 df 0f b5
       1.604784e-06 8.670438e-07 -5.7684956e-06 -5.3597273e-07
000280 46 d8 34 b6 bc 88 85 b4 94 ab 13 34 04 5a 95 b4
       -2.6947978e-06 -2.4872668e-07 1.3752862e-07 -2.7818908e-07
000290 2c 05 c7 b5 fa 97 53 34 b0 93 20 35 de a8 8a b5
       -1.4828161e-06 1.9706195e-07 5.981956e-07 -1.0330948e-06
0002a0 ac 2e 5c b6 56 7f 2c b3 56 ec 98 36 c8 6b 52 b6
       -3.2809721e-06 -4.0162682e-08 4.557466e-06 -3.1355175e-06
0002b0 82 e6 15 b5 14 31 34 35 cc 1a 0a 37 53 92 2d 33
       -5.584226e-07 6.7126643e-07 8.23168e-06 4.0412782e-08
0002c0 88 bb 32 b5 60 f4 8a b4 80 6a 59 35 bb a1 34 b5
       -6.658306e-07 -2.588231e-07 8.099378e-07 -6.7290574e-07
0002d0 60 42 b2 b4 12 72 6f b6 06 06 44 35 36 1c 43 b5
       -3.3203378e-07 -3.5680173e-06 7.3024455e-07 -7.2684213e-07
0002e0 1f 83 8c b6 d1 24 d8 34 d8 f1 74 33 27 3c 4f b5
       -4.1875896e-06 4.0259923e-07 5.7030633e-08 -7.720104e-07
0002f0 c0 f7 26 34 e4 1d 91 b6 78 91 1a b5 48 d9 14 b5
       1.5550086e-07 -4.3248165e-06 -5.7581155e-07 -5.545048e-07
000300 ae 05 75 36 00 25 46 b4 b0 4e 62 b5 ce 7a 2e 33
       3.651115e-06 -1.8453647e-07 -8.4306066e-07 4.0624222e-08
000310 b1 69 0d b6 e0 e5 8b 35 d7 c2 31 34 9c 1f b7 35
       -2.1072158e-06 1.042321e-06 1.6555292e-07 1.3643762e-06
000320 a0 24 0c b5 40 52 86 35 0f 62 fb b2 d6 70 cf 35
       -5.220736e-07 1.0007716e-06 -2.9264838e-08 1.5455541e-06
000330 a3 72 12 b5 57 e6 6c b2 aa b8 56 35 ce 79 a1 b3
       -5.4556057e-07 -1.3789381e-08 7.9989934e-07 -7.519303e-08
000340 92 2b 1a 35 75 77 ad 33 d9 9d a8 35 51 7c 03 34
       5.7432874e-07 8.0776694e-08 1.2562915e-06 1.2245552e-07
000350 c4 0f 02 b5 e8 6c 2e b4 85 f9 c4 b4 47 6f ae 33
       -4.8451716e-07 -1.6244633e-07 -3.6689394e-07 8.1227476e-08
000360 d6 e6 3c 34 a8 85 bb b3 64 09 83 b3 f8 33 00 33
       1.7592842e-07 -8.732178e-08 -6.101871e-08 2.9849588e-08
000370 b8 2b d0 35 78 e9 40 b2 74 1b be 33 e2 02 10 b7
       1.5509931e-06 -1.12289555e-08 8.852558e-08 -8.58374e-06
000380 05 ad 57 38 c9 d7 15 b5 2c 6b 37 b6 40 05 14 34
       5.142113e-05 -5.5820834e-07 -2.7331507e-06 1.3785484e-07
000390 74 96 96 b5 a8 13 72 b5 22 7e cd 34 f4 ef 66 b8
       -1.1219659e-06 -9.018063e-07 3.8276e-07 -5.5059747e-05
0003a0 c6 0b 40 32 3a 77 a5 35 53 5b f1 33 12 57 0f b6
       1.1178548e-08 1.2328157e-06 1.1239049e-07 -2.1359342e-06
0003b0 c8 41 71 b6 ac 82 f7 34 5c 2b 37 b2 5a b6 0f 35
       -3.5950088e-06 4.6102411e-07 -1.0661861e-08 5.353701e-07
0003c0 3e 56 86 b5 ec ae 52 b6 fa 62 46 38 ca 38 0d 36
       -1.0008878e-06 -3.1394256e-06 4.7299058e-05 2.1043693e-06
0003d0 c2 06 fd 34 1d cb 64 b5 0e 1a d0 34 ec e6 6b b6
       4.712984e-07 -8.523219e-07 3.8761976e-07 -3.5152143e-06
0003e0 cc d7 9c b2 de 3e 10 35 33 7b 09 b6 65 29 39 b1
       -1.8258923e-08 5.3735664e-07 -2.0486302e-06 -2.6944573e-09
0003f0 93 86 08 b5 4a a7 d7 35 dc 2a 23 b8 78 f8 73 33
       -5.085978e-07 1.6067436e-06 -3.8902144e-05 5.6803827e-08

bias_ih_l0 f4 [300]
000000 8f f4 65 3c 8a 65 79 37 96 b4 14 35 6b 20 24 b6
       0.014035358 1.4865198e-05 5.5397084e-07 -2.4456774e-06
000010 3e 2a 18 37 80 c1 82 33 af 52 80 38 57 76 be b0
       9.069741e-06 6.088794e-08 6.118917e-05 -1.3857954e-09
000020 0d 40 d9 39 78 df 4d 36 7f fb 0b 37 d6 e0 e2 b8
       0.00041437187 3.0677456e-06 8.343602e-06 -0.00010818399
000030 ac 1a 6d 31 c8 70 46 b6 b0 19 f6 38 36 59 b8 38
       3.45032e-09 -2.9569946e-06 0.00011734979 8.7904205e-05
000040 10 9d b7 32 30 7c b7 3b 90 1a c5 33 2c 50 54 b0
       2.1375428e-08 0.005599521 9.178359e-08 -7.723908e-10
000050 f1 97 3d 39 e2 b7 06 b6 6c 0c 43 b7 f2 96 93 b6
       0.00018081047 -2.007459e-06 -1.1625798e-05 -4.3985137e-06
000060 50 8a 92 b6 b2 28 90 3a da a7 90 b9 92 8e 58 3c
       -4.3672408e-06 0.0010998456 -0.0002759088 0.013217585
000070 e7 b8 0b b7 88 19 0d b9 90 19 54 b9 4d 4c f1 b9
       -8.328097e-06 -0.00013456319 -0.00020227418 -0.0004602395
000080 8e 7a fe 33 b0 0d 81 b3 46 e1 ac 36 1f 8c 76 38
       1.1850089e-07 -6.00952e-08 5.1522247e-06 5.878147e-05
000090 9b 6c e8 b9 80 26 f3 b7 ee 9a 02 b6 16 de 85 38
       -0.00044331406 -2.8985785e-05 -1.946169e-06 6.383301e-05
0000a0 50 fa 88 b6 6c ff 2f 37 6c 98 82 35 85 cd 02 b3
       -4.082256e-06 1.0490283e-05 9.730115e-07 -3.0454903e-08
0000b0 b0 e0 c1 b7 b1 ce 3d 3b 77 85 55 3c 20 48 5d 30
       -2.3112021e-05 0.002896231 0.013032309 8.050183e-10
0000c0 77 5b bc 36 ac 5a 0c 38 70 fb 73 39 10 f4 21 b2
       5.6134845e-06 3.3463046e-05 0.00023267954 -9.426927e-09
0000d0 aa 43 25 b9 02 23 87 b8 94 17 9b b9 bf 9f 59 35
       -0.00015760833 -6.443822e-05 -0.0002958147 8.107126e-07
0000e0 01 b4 c4 36 ea 64 f2 b6 de 9f 5e ba 22 3b 7a 38
       5.8622104e-06 -7.22391e-06 -0.000849245 5.9659716e-05
0000f0 90 83 13 3b 80 6b c1 b4 2d 89 f2 b7 78 b3 a4 b6
       0.0022508837 -3.6027268e-07 -2.8912526e-05 -4.908474e-06
000100 fa a6 d8 b8 1e 01 64 37 26 0f 27 37 4c 00 75 b8
       -0.000103307844 1.3590119e-05 9.957503e-06 -5.841283e-05
000110 59 47 3e b9 c9 b8 c1 b1 d1 84 cc 38 34 65 09 b9
       -0.00018146391 -5.638047e-09 9.752217e-05 -0.00013103039
000120 11 b4 92 35 fd 33 f1 b6 1e ac 18 37 b0 cb 49 b2
       1.0930254e-06 -7.188412e-06 9.09998e-06 -1.1746053e-08
000130 3a 55 84 b8 06 b8 b7 b8 38 c8 34 b7 7e d2 9e b7
       -6.310125e-05 -8.760397e-05 -1.0775453e-05 -1.8933086e-05
000140 cb f7 99 b8 af 3e ba 3b 58 95 c1 34 c9 c6 9d b6
       -7.3417636e-05 0.005683742 3.6057713e-07 -4.7021063e-06
000150 aa ce 06 3a 88 16 40 37 da dc 04 b8 d4 07 03 b8
       0.00051424897 1.1449338e-05 -3.1676936e-05 -3.1240124e-05
000160 52 15 1e 37 02 07 2c 3a bc 0a 71 b8 9a 94 41 3c
       9.422498e-06 0.00065623235 -5.7468875e-05 0.0118152145
000170 16 94 fb 39 d5 85 d8 b8 6a 63 65 31 4c 57 c7 b4
       0.00047984783 -0.00010324611 3.3380396e-09 -3.7130155e-07
000180 b0 9d 5c b9 40 02 18 39 10 dd 70 b6 a5 d5 d6 38
       -0.00021039578 0.00014496688 -3.5891462e-06 0.000102441096
000190 0b be 64 bd 42 ea 7e b7 2f ad 8f 36 d4 48 85 36
       -0.0558453 -1.5194122e-05 4.2818933e-06 3.972187e-06
0001a0 ca 54 ab b7 e0 1d d8 30 cb d5 01 39 b3 a9 7d b1
       -2.0424271e-05 1.5724559e-09 0.00012382043 -3.6912808e-09
0001b0 cf 9e f2 bc f2 f4 cc 36 ca 30 8e 37 08 bf eb 38
       -0.029616741 6.108189e-06 1.6950438e-05 0.000112412556
0001c0 21 53 28 b3 de e6 df 37 4e 7c 85 bb 33 5a 58 3a
       -3.9191153e-08 2.6691177e-05 -0.004073656 0.0008253187
0001d0 f8 c6 d3 34 87 cd 25 bd 74 66 d6 36 54 4e d6 2f
       3.9446581e-07 -0.04047921 6.389624e-06 3.898203e-10
0001e0 b9 a9 89 bb 6e d9 26 37 88 24 aa b8 7c ce 2f 37
       -0.0042011407 9.944995e-06 -8.113036e-05 1.0478889e-05
0001f0 c0 06 e1 b7 fe 80 1a bd 08 28 06 ba 13 6f 5d bd
       -2.6825233e-05 -0.037720673 -0.00051176595 -0.054061007
000200 10 45 f3 37 80 38 11 bb 10 0b 22 bb bb 72 39 ba
       2.9000017e-05 -0.002215892 -0.0024725832 -0.0007074286
000210 b2 28 95 35 e4 97 f6 36 4c d9 1c 37 89 0b 8f bb
       1.1113209e-06 7.3490537e-06 9.348918e-06 -0.004365389
000220 ce 5b d3 ba bc ce 9d 39 14 9e 48 36 ba af 92 bb
       -0.0016125382 0.00030099403 2.9894336e-06 -0.0044765146
000230 cd a7 09 ba be 14 7c b7 36 71 d1 36 cd 49 21 b4
       -0.00052511395 -1.50252e-05 6.241865e-06 -1.5021142e-07
000240 56 0b 90 bb 39 75 07 bd c3 e4 49 bd 8a 95 61 33
       -0.0043958826 -0.033070777 -0.04929043 5.25229e-08
000250 60 92 1f b7 6b 0a 4d bb 20 c5 fc ba 68 61 9f 31
       -9.511219e-06 -0.0031286727 -0.0019284822 4.638583e-09
000260 67 b6 8e bb 01 6e 1b bb 2d d0 33 ba 7a 05 3d b6
       -0.00435524 -0.002371669 -0.0006859329 -2.8166382e-06
000270 58 a8 56 36 5a fb 9f 38 f4 11 4a 39 c7 cb 80 b9
       3.1986474e-06 7.628529e-05 0.00019270909 -0.00024565888
000280 83 b7 1e bd 17 7e 1b 36 f4 f9 4a b8 2f ed 9c b8
       -0.03874923 2.3170194e-06 -4.839334e-05 -7.4828386e-05
000290 9c 2c 01 b9 9c 40 69 38 b5 0c c4 b7 3f d6 d0 b9
       -0.00012319017 5.56117e-05 -2.3370938e-05 -0.00039832477
0002a0 60 49 7c bb 4b fa a3 32 4b 07 80 bb 61 d8 a8 bb
       -0.0038495883 1.9089518e-08 -0.0039071194 -0.0051527475
0002b0 23 c3 8e b6 b4 87 96 b7 4c 64 7a 39 56 05 1b 32
       -4.2546467e-06 -1.7944585e-05 0.00023879221 9.023401e-09
0002c0 c0 4c 3b b8 05 6b b0 b9 4c 3f 01 37 64 c6 b0 b5
       -4.4655753e-05 -0.00033649072 7.703737e-06 -1.3170761e-06
0002d0 02 fa c0 b8 e0 bd 2a bd 98 fd a8 36 3d 4e 89 b6
       -9.201841e-05 -0.041684985 5.0363124e-06 -4.0920263e-06
0002e0 88 c1 0d bd 79 75 f1 38 8e 1d 97 b8 da 76 0c 38
       -0.034608394 0.000115136565 -7.205746e-05 3.348929e-05
0002f0 93 53 e8 b6 73 0b 09 bd 53 fe 79 bb 26 ec 41 bd
       -6.923868e-06 -0.033458184 -0.0038145974 -0.04734435
000300 31 50 04 bd fb 47 53 bb 33 63 46 b2 bc 62 a9 b4
       -0.03230304 -0.0032238949 -1.1547672e-08 -3.1550542e-07
000310 72 d8 18 b9 e4 ec 43 b9 db 1f 35 37 0c a3 cb b6
       -0.00014576482 -0.00018684898 1.0795858e-05 -6.0688526e-06
000320 57 9a 25 3e da 7d f5 ba 11 96 99 b8 ac a9 0c b9
       0.16172157 -0.0018729523 -7.3235606e-05 -0.00013414648
000330 fa b4 85 b9 fc 64 73 b8 a1 82 c2 ba 2a 2a 92 37
       -0.00025502575 -5.8029764e-05 -0.0014839956 1.742419e-05
000340 ff b6 21 3d 57 8b 13 39 b5 42 25 b9 2b d7 09 bb
       0.03948116 0.0001407092 -0.00015760477 -0.002103279
000350 05 1c 05 38 7f f6 be 39 f1 fa 69 3b b5 fc 23 bb
       3.1735766e-05 0.00036423278 0.0035702551 -0.0025022451
000360 22 84 a7 b8 c3 4c 13 be a9 d9 6f b9 c5 79 03 37
       -7.987792e-05 -0.14384751 -0.00022873901 7.83656e-06
000370 61 8b 44 bb 59 0f dd 39 bd 54 1f ba fe c8 e0 3a
       -0.0029990303 0.0004216384 -0.00060779956 0.0017149744
000380 d0 ee dc 39 80 da af bd b0 87 04 3a 16 4b 24 3e
       0.000421396 -0.085865974 0.00050556194 0.16044268
000390 e7 2e 37 3a e3 93 6c 3b 16 af 88 bb fc 0a 9a b9
       0.0006987885 0.003609889 -0.0041712625 -0.00029381353
0003a0 86 db 18 38 00 e6 37 b9 59 05 b1 b9 99 e7 05 3b
       3.644407e-05 -0.00017537922 -0.00033764055 0.0020432232
0003b0 7f 09 5a 3b eb 1c b0 3a b3 a1 d9 3a 84 8f 32 bb
       0.003326982 0.0013436353 0.0016603976 -0.0027246187
0003c0 6f 2b 1f 3b e8 82 d5 ba a2 74 58 b8 86 f4 8c 37
       0.0024287363 -0.0016289623 -5.1607036e-05 1.6803166e-05
0003d0 17 f0 a7 bb a5 03 fb bd 15 71 21 be e2 1b 15 38
       -0.0051250565 -0.122565545 -0.15765794 3.5550336e-05
0003e0 24 7f 35 39 e4 fa 14 b9 89 62 c1 3a 95 bd d9 37
       0.00017308869 -0.00014207844 0.0014754097 2.5956697e-05
0003f0 90 f6 94 3b ff 7b bc ba 59 17 3e bb 2c dd b8 3a
       0.004545994 -0.0014380215 -0.0029005616 0.0014104

bias_hh_l0 f4 [300]
000000 89 f4 65 3c 85 65 79 37 96 b4 14 35 63 20 24 b6
       0.0140353525 1.4865193e-05 5.5397084e-07 -2.4456756e-06
000010 3b 2a 18 37 81 c1 82 33 af 52 80 38 87 76 be b0
       9.069739e-06 6.088795e-08 6.118917e-05 -1.3858007e-09
000020 e6 3f d9 39 6c df 4d 36 7e fb 0b 37 ec e0 e2 b8
       0.00041437073 3.067743e-06 8.343601e-06 -0.00010818415
000030 b8 1a 6d 31 b2 70 46 b6 b0 19 f6 38 4a 59 b8 38
       3.4503227e-09 -2.9569896e-06 0.00011734979 8.790435e-05
000040 90 9c b7 32 26 7c b7 3b 10 19 c5 33 1b 50 54 b0
       2.13752e-08 0.0055995164 9.178086e-08 -7.723899e-10
000050 f7 97 3d 39 e7 b7 06 b6 58 0c 43 b7 34 97 93 b6
       0.00018081056 -2.0074601e-06 -1.162578e-05 -4.3985438e-06
000060 35 8a 92 b6 ca 28 90 3a d2 a7 90 b9 97 8e 58 3c
       -4.3672285e-06 0.0010998484 -0.00027590856 0.01321759
000070 ea b8 0b b7 8c 19 0d b9 95 19 54 b9 4e 4c f1 b9
       -8.328099e-06 -0.00013456325 -0.00020227426 -0.00046023953
000080 88 7a fe 33 20 0d 81 b3 02 e2 ac 36 0d 8c 76 38
       1.1850085e-07 -6.009418e-08 5.15231e-06 5.8781403e-05
000090 98 6c e8 b9 cd 26 f3 b7 ed 9a 02 b6 1c de 85 38
       -0.00044331397 -2.8985925e-05 -1.9461688e-06 6.383305e-05
0000a0 c0 f9 88 b6 66 ff 2f 37 48 98 82 35 b8 cd 02 b3
       -4.0821906e-06 1.0490277e-05 9.730074e-07 -3.0455084e-08
0000b0 92 e0 c1 b7 be ce 3d 3b 78 85 55 3c 00 49 5d 30
       -2.3111967e-05 0.002896234 0.01303231 8.050307e-10
0000c0 7c 5b bc 36 ab 5a 0c 38 6e fb 73 39 01 f4 21 b2
       5.613487e-06 3.3463042e-05 0.00023267951 -9.4269135e-09
0000d0 ab 43 25 b9 fe 22 87 b8 91 17 9b b9 5b 9f 59 35
       -0.00015760835 -6.4438194e-05 -0.00029581462 8.107069e-07
0000e0 00 b4 c4 36 0a 65 f2 b6 da 9f 5e ba 09 3b 7a 38
       5.86221e-06 -7.2239245e-06 -0.00084924477 5.9659626e-05
0000f0 82 83 13 3b 00 6c c1 b4 2a 89 f2 b7 60 b3 a4 b6
       0.0022508805 -3.6027632e-07 -2.891252e-05 -4.908463e-06
000100 fe a6 d8 b8 24 01 64 37 f0 0e 27 37 64 00 75 b8
       -0.00010330787 1.3590125e-05 9.957454e-06 -5.8412916e-05
000110 60 47 3e b9 ca b8 c1 b1 d1 84 cc 38 36 65 09 b9
       -0.00018146401 -5.6380474e-09 9.752217e-05 -0.00013103042
000120 0f b4 92 35 06 34 f1 b6 04 ac 18 37 b2 cb 49 b2
       1.0930252e-06 -7.188416e-06 9.0999565e-06 -1.1746055e-08
000130 3f 55 84 b8 0f b8 b7 b8 e8 c9 34 b7 6a d2 9e b7
       -6.310129e-05 -8.7604036e-05 -1.0775846e-05 -1.893305e-05
000140 d0 f7 99 b8 ae 3e ba 3b 56 95 c1 34 c7 c6 9d b6
       -7.341767e-05 0.0056837415 3.6057708e-07 -4.7021053e-06
000150 a4 ce 06 3a ac 16 40 37 d8 dc 04 b8 cf 07 03 b8
       0.0005142486 1.14493705e-05 -3.167693e-05 -3.1240106e-05
000160 66 15 1e 37 02 07 2c 3a ba 0a 71 b8 9d 94 41 3c
       9.422516e-06 0.00065623235 -5.7468867e-05 0.011815217
000170 0f 94 fb 39 c8 85 d8 b8 66 63 65 31 4a 57 c7 b4
       0.00047984763 -0.00010324601 3.3380387e-09 -3.713015e-07
000180 c1 9d 5c b9 3a 02 18 39 90 dd 70 b6 a2 d5 d6 38
       -0.00021039603 0.00014496679 -3.5891753e-06 0.000102441074
000190 0c be 64 bd f0 ea 7e b7 39 ad 8f 36 d9 48 85 36
       -0.055845305 -1.519428e-05 4.281898e-06 3.9721895e-06
0001a0 c6 54 ab b7 20 1c d8 30 c9 d5 01 39 aa a9 7d b1
       -2.0424264e-05 1.5724062e-09 0.0001238204 -3.6912788e-09
0001b0 d1 9e f2 bc ff f4 cc 36 c2 30 8e 37 0c bf eb 38
       -0.029616745 6.108195e-06 1.6950424e-05 0.000112412585
0001c0 1e 53 28 b3 e4 e6 df 37 4e 7c 85 bb 31 5a 58 3a
       -3.9191143e-08 2.6691188e-05 -0.004073656 0.00082531857
0001d0 ee c6 d3 34 88 cd 25 bd 7b 66 d6 36 84 4d d6 2f
       3.9446553e-07 -0.040479213 6.3896273e-06 3.8981451e-10
0001e0 ba a9 89 bb 68 d9 26 37 8c 24 aa b8 9f ce 2f 37
       -0.004201141 9.94499e-06 -8.113039e-05 1.0478921e-05
0001f0 c8 06 e1 b7 fe 80 1a bd 0c 28 06 ba 11 6f 5d bd
       -2.6825248e-05 -0.037720673 -0.0005117662 -0.054061
000200 29 45 f3 37 81 38 11 bb 06 0b 22 bb bc 72 39 ba
       2.9000063e-05 -0.0022158923 -0.0024725809 -0.00070742867
000210 aa 28 95 35 c6 97 f6 36 64 d9 1c 37 8a 0b 8f bb
       1.11132e-06 7.34904e-06 9.34894e-06 -0.0043653892
000220 cc 5b d3 ba b0 ce 9d 39 1b 9e 48 36 bf af 92 bb
       -0.001612538 0.00030099368 2.9894352e-06 -0.004476517
000230 d2 a7 09 ba f2 14 7c b7 1d 71 d1 36 e9 49 21 b4
       -0.00052511424 -1.5025247e-05 6.2418535e-06 -1.5021182e-07
000240 53 0b 90 bb 38 75 07 bd c5 e4 49 bd 89 95 61 33
       -0.004395881 -0.033070773 -0.049290437 5.2522896e-08
000250 55 92 1f b7 68 0a 4d bb 18 c5 fc ba 70 61 9f 31
       -9.511209e-06 -0.003128672 -0.0019284813 4.6385864e-09
000260 67 b6 8e bb 02 6e 1b bb 37 d0 33 ba 76 05 3d b6
       -0.00435524 -0.0023716693 -0.00068593345 -2.8166373e-06
000270 60 a8 56 36 5a fb 9f 38 d7 11 4a 39 c9 cb 80 b9
       3.1986492e-06 7.628529e-05 0.00019270867 -0.00024565894
000280 80 b7 1e bd 14 7e 1b 36 f6 f9 4a b8 32 ed 9c b8
       -0.038749218 2.3170187e-06 -4.8393347e-05 -7.482841e-05
000290 a8 2c 01 b9 96 40 69 38 b2 0c c4 b7 39 d6 d0 b9
       -0.00012319034 5.561168e-05 -2.3370932e-05 -0.0003983246
0002a0 60 49 7c bb 50 fa a3 32 49 07 80 bb 5e d8 a8 bb
       -0.0038495883 1.9089526e-08 -0.0039071185 -0.005152746
0002b0 1d c3 8e b6 b3 87 96 b7 46 64 7a 39 08 05 1b 32
       -4.254644e-06 -1.7944583e-05 0.00023879213 9.023331e-09
0002c0 d3 4c 3b b8 03 6b b0 b9 4c 3e 01 37 b0 c6 b0 b5
       -4.4655822e-05 -0.00033649066 7.703504e-06 -1.3170848e-06
0002d0 09 fa c0 b8 dd bd 2a bd 95 fd a8 36 3f 4e 89 b6
       -9.201846e-05 -0.041684974 5.036311e-06 -4.092027e-06
0002e0 89 c1 0d bd 6c 75 f1 38 b4 1d 97 b8 c2 76 0c 38
       -0.034608398 0.00011513647 -7.205774e-05 3.3489203e-05
0002f0 97 52 e8 b6 75 0b 09 bd 52 fe 79 bb 23 ec 41 bd
       -6.9237535e-06 -0.033458192 -0.0038145971 -0.04734434
000300 32 50 04 bd f5 47 53 bb 35 63 46 b2 da 62 a9 b4
       -0.032303043 -0.0032238935 -1.1547674e-08 -3.1550627e-07
000310 63 d8 18 b9 ff ec 43 b9 2d 20 35 37 94 9f cb b6
       -0.0001457646 -0.00018684937 1.0795932e-05 -6.068449e-06
000320 ff 8d a1 3d 93 14 5d ba 1d cf e9 b8 40 9f 3b b9
       0.07888412 -0.0008433547 -0.00011148884 -0.00017893035
000330 23 63 80 b9 b9 ad fe b7 be 1b a6 ba ca 55 1c 37
       -0.00024487925 -3.0360055e-05 -0.0012673063 9.318299e-06
000340 c7 bc a2 3c 7f d0 e1 38 93 dc b1 38 75 69 b8 ba
       0.019865407 0.000107676715 8.481103e-05 -0.0014069515
000350 eb 9d be 37 97 e4 42 b9 00 ce ae 3a ff 1b 23 bb
       2.2723301e-05 -0.00018586438 0.0013336539 -0.0024888513
000360 ea 2f 9f b8 5e e8 8e bd 3b 68 f1 b8 ad fb 2b b6
       -7.5906355e-05 -0.06977914 -0.0001151119 -2.562748e-06
000370 4f a1 07 bb 61 bb f3 b9 18 3c 95 b9 77 16 80 3a
       -0.0020695513 -0.0004648818 -0.00028464268 0.000977232
000380 c6 58 18 3a 7b 74 2f bd 06 19 9e 39 ca aa 9e 3d
       0.0005811568 -0.042835694 0.00030154752 0.07747419
000390 ce 9e 1a 39 5b f5 48 3a e0 eb 48 bb a4 36 98 b8
       0.00014745744 0.00076659553 -0.003065817 -7.2581024e-05
0003a0 61 88 f3 37 a6 53 53 b9 34 d0 03 b8 17 e4 5e 3a
       2.9031364e-05 -0.0002015369 -3.1426738e-05 0.0008502616
0003b0 79 58 3a 3b 6c b6 d1 3a 2b 70 b0 39 3e 97 77 ba
       0.0028434081 0.00159998 0.00033652908 -0.0009444839
0003c0 fe 61 00 3b 7b f5 3e ba 71 86 ab b8 c5 7c 03 38
       0.0019589658 -0.0007284504 -8.178957e-05 3.1349035e-05
0003d0 16 aa 21 bb 4b 5d 70 bd 2c 77 9f bd 72 1b ac 37
       -0.002466803 -0.05868272 -0.07786402 2.0516778e-05
0003e0 91 86 0d 39 17 da 5e 3a 06 0d d8 39 1a f7 65 37
       0.00013496938 0.0008501126 0.00041208434 1.37069965e-05
0003f0 85 6a 2f 3b 1c c8 3b 3a d2 0e 27 bb b4 e6 cb 39
       0.0026766371 0.00071633025 -0.0025491011 0.00038891064

weight_ih_l1 f4 [300, 100]
000000 73 d6 13 b9 70 82 8c 36 00 e5 b5 b7 55 6e 78 b7
       -0.00014098901 4.18751e-06 -2.1683518e-05 -1.4807641e-05
000010 16 9c 48 38 90 51 15 b3 77 d8 a2 38 d3 05 47 b5
       4.7829082e-05 -3.4765947e-08 7.765082e-05 -7.414175e-07
000020 e0 ba 95 39 7c a3 e0 b7 78 a3 92 b8 a8 a5 55 b8
       0.00028558727 -2.677901e-05 -6.992271e-05 -5.0937437e-05
000030 18 d1 3d b6 59 70 1c 37 cf 67 55 ba 2e ce 1e 39
       -2.8284903e-06 9.324483e-06 -0.0008140774 0.00015144862
000040 22 ae bd 36 58 52 06 39 7c 9c c6 37 dc cf a4 b4
       5.6529107e-06 0.00012809911 2.3676308e-05 -3.0698618e-07
000050 08 8e 30 3a d0 f7 e2 36 3e 7f c1 38 18 74 5f 38
       0.00067350315 6.764174e-06 9.226658e-05 5.3275464e-05
000060 32 3b a8 b8 49 fb 1c b9 d0 a4 37 b9 88 16 0b b9
       -8.02189e-05 -0.0001497093 -0.00017513637 -0.00013264467
000070 53 25 0a 38 a9 32 15 ba bd f3 13 3a f4 71 6b b8
       3.2936525e-05 -0.0005691448 0.0005643925 -5.6134493e-05
000080 3e ac ad b7 a2 49 85 b7 17 0f 92 b7 f7 66 35 ba
       -2.0703414e-05 -1.5889123e-05 -1.7411583e-05 -0.0006919945
000090 c7 73 82 b9 9a 70 4a b9 04 a2 b2 35 c6 eb 47 3a
       -0.00024881793 -0.00019306169 1.3309186e-06 0.00076263805
0000a0 7e 5e c4 b9 34 a7 ac b8 ee 3a de b7 d8 df 8e 35
       -0.00037454435 -8.232743e-05 -2.6491904e-05 1.0644972e-06
0000b0 ea 00 5b 3a c8 7d 33 38 86 fc 23 39 3d bf 2f b6
       0.0008354323 4.279407e-05 0.00015638964 -2.6188347e-06
0000c0 cc 5a 4c b8 c3 90 28 3a 44 0a 0f ba c3 ef d8 b5
       -4.872195e-05 0.00064302626 -0.0005456547 -1.6163034e-06
0000d0 71 60 2b ba 1d ad 1f 3a 69 d7 93 39 72 2a ee 36
       -0.0006537503 0.00060911645 0.00028198518 7.097894e-06
0000e0 e3 aa fa b7 ec be 14 38 0e a3 2a 38 cd ed 09 b9
       -2.9881898e-05 3.546376e-05 4.0683015e-05 -0.00013153926
0000f0 a0 e8 a2 b7 7c 86 4f 37 c9 5a 90 38 46 16 05 b9
       -1.942023e-05 1.2369474e-05 6.883365e-05 -0.00012692166
000100 70 74 ff b8 8a 3d b8 37 3c fd b8 37 8c fc 83 b9
       -0.00012181036 2.1963166e-05 2.205243e-05 -0.0002517443
000110 fa 42 3b 3a 3c 86 ed 35 2e 35 17 ba 2f 05 3e ba
       0.0007143464 1.7696943e-06 -0.0005768117 -0.0007248697
000120 3e 2e e8 37 4c 16 85 38 ef 24 00 b9 cc 8c 77 b4
       2.7678088e-05 6.346087e-05 -0.0001222079 -2.3054889e-07
000130 a6 ba 9e b8 a6 20 2e b9 a5 25 3d b8 4e fc 5e 37
       -7.568793e-05 -0.00016606096 -4.509617e-05 1.3290975e-05
000140 db 7d b2 b8 6a ef 6e b8 24 9e 13 b5 38 ac 99 37
       -8.511144e-05 -5.6966594e-05 -5.499189e-07 1.8319217e-05
000150 41 7c 85 b9 e8 74 2a b6 aa b6 ec 38 4e ea 0f b8
       -0.00025460313 -2.5400022e-06 0.00011287381 -3.431207e-05
000160 7a 5f 17 b9 1a f6 0c b9 89 f2 2f 3a 84 e3 b5 38
       -0.0001443605 -0.0001344312 0.0006711861 8.673131e-05
000170 e9 7b 6b 39 80 1c 43 3a c8 d7 73 32 bd 10 7b 37
       0.00022457507 0.00074429065 1.4193525e-08 1.4964663e-05
000180 1d 4c e1 38 a4 c3 84 b9 cd c7 24 b8 7e b6 16 b9
       0.00010743013 -0.00025322766 -3.9286726e-05 -0.00014373098
000190 ea aa 8c 38 49 ed ee 38 f8 82 84 b7 77 f9 2d b7
       6.7075554e-05 0.00011392922 -1.5796613e-05 -1.0369687e-05
0001a0 5f 61 b5 37 d9 3d 2b 35 62 af fa b7 68 28 89 b3
       2.1622223e-05 6.3792464e-07 -2.9883991e-05 -6.3869095e-08
0001b0 0e b8 31 36 00 59 bf b6 41 bf 22 b8 a7 a6 9c b7
       2.648219e-06 -5.7026045e-06 -3.880193e-05 -1.8674253e-05
0001c0 7a 9d 8e b5 28 dd 1e b8 eb 0c 46 ba d8 9d 6b b8
       -1.0625656e-06 -3.7876103e-05 -0.00075550255 -5.617537e-05
0001d0 54 f3 a8 b4 89 33 02 ba 14 49 38 b7 ee 64 31 34
       -3.1469483e-07 -0.0004966786 -1.09842695e-05 1.6521128e-07
0001e0 19 82 0c 3a b0 92 c1 36 d6 05 0d 38 70 9f e8 36
       0.0005359962 5.768925e-06 3.3622455e-05 6.9326998e-06
0001f0 da 5a 2d b7 6c 86 3d b9 2b 99 1a 38 fe c3 5d 38
       -1.0332757e-05 -0.0001807452 3.685911e-05 5.2873038e-05
000200 58 1f 62 37 11 25 45 ba 84 07 c2 39 50 bf 95 b6
       1.34779475e-05 -0.0007520477 0.00037008163 -4.4628177e-06
000210 2d a3 8f 36 86 05 d6 37 6c bc 91 37 4e a6 46 ba
       4.2807283e-06 2.551336e-05 1.7373088e-05 -0.0007577882
000220 cd ec 1b b9 da d1 e5 38 d4 d7 db 36 a0 a6 31 3a
       -0.00014870167 0.00010958659 6.5518343e-06 0.0006776843
000230 5e ad 0b b9 3c e3 26 b8 4e fd b2 b7 96 c1 c6 b5
       -0.00013320657 -3.9789113e-05 -2.1337208e-05 -1.480849e-06
000240 10 2a 36 3a 08 bc df b9 80 b8 4b b9 cb 69 24 b6
       0.0006949017 -0.0004267397 -0.0001942832 -2.4499484e-06
000250 8a 77 e7 b6 98 f9 19 3a 19 48 07 ba 98 3a 3c 34
       -6.8982526e-06 0.0005873679 -0.00051605847 1.753018e-07
000260 1a 9d 33 ba 48 9b eb 39 c8 e5 9e 38 0c 59 df 36
       -0.0006851718 0.00044938386 7.576827e-05 6.6562843e-06
000270 f9 5a 30 38 06 69 a2 38 f6 b9 ac 37 15 25 70 b8
       4.2046395e-05 7.744324e-05 2.0590593e-05 -5.7254994e-05
000280 0c f7 d5 b9 9f 53 1a 37 fa 8b 0b b7 36 01 12 b8
       -0.0004081059 9.198585e-06 -8.3176365e-06 -3.481024e-05
000290 26 6b b1 36 04 64 1e 38 90 f7 39 b7 2d a3 93 b8
       5.287485e-06 3.7763282e-05 -1.1084499e-05 -7.0399e-05
0002a0 76 73 03 3a 98 46 21 34 ca 1c fc b9 90 b2 77 ba
       0.00050144584 1.5019975e-07 -0.00048086635 -0.000944891
0002b0 18 7c 27 37 08 2e ff 38 af ea a4 b7 48 a6 fc b4
       9.9828685e-06 0.000121679215 -1.9659607e-05 -4.7059643e-07
0002c0 10 5c 76 b7 22 8f 69 b8 20 b4 9a b6 00 7c 54 b5
       -1.4684178e-05 -5.568483e-05 -4.610527e-06 -7.91566e-07
0002d0 46 1a 3d b8 61 56 33 b8 14 43 58 37 ce 65 9d 36
       -4.508558e-05 -4.2757372e-05 1.2890221e-05 4.6908162e-06
0002e0 98 8e 9f b8 70 20 1e 37 7c 39 bc 37 bd 9b 37 38
       -7.608271e-05 9.425086e-06 2.2438115e-05 4.3775643e-05
0002f0 c0 c1 c8 37 9f 56 f6 b8 b9 e1 16 3a 2b 51 8e b9
       2.393208e-05 -0.000117463285 0.0005755681 -0.00027144825
000300 10 9c 28 38 da 19 0c 3a 3e cf d0 b3 d0 9e 7e 33
       4.0199666e-05 0.00053444284 -9.723452e-08 5.9283423e-08
000310 a8 dc c6 38 38 35 11 b9 1f b6 23 36 00 94 f7 35
       9.482476e-05 -0.00013848103 2.4394901e-06 1.8446008e-06
000320 44 72 0b 38 88 4b ae b7 7e 06 b3 b7 36 46 3e b7
       3.32466e-05 -2.0777588e-05 -2.1341486e-05 -1.134123e-05
000330 26 02 47 38 e4 14 f6 34 0e 36 af 38 a9 e9 54 b5
       4.7447298e-05 4.583627e-07 8.354719e-05 -7.9316175e-07
000340 8a 90 b2 39 ac 72 23 b8 16 cb 24 b8 28 2b 3e b8
       0.00034058496 -3.8969025e-05 -3.9289785e-05 -4.5339722e-05
000350 2c a6 3a b6 38 a8 c4 b6 b6 4f 96 ba a4 e7 53 38
       -2.7812885e-06 -5.8608384e-06 -0.0011467848 5.0522052e-05
000360 14 fd a7 36 18 f6 48 38 5a c6 12 37 9a 0d ff b3
       5.00645e-06 4.791291e-05 8.7484605e-06 -1.1876837e-07
000370 0c c4 65 3a 9a aa 2e 38 d0 0c dc 38 31 fc fb 37
       0.000876487 4.1643718e-05 0.00010492804 3.0038967e-05
000380 07 dc 94 b8 8a 72 7f b9 7c 9e 82 b9 fe d6 3f b8
       -7.098173e-05 -0.00024361364 -0.00024913612 -4.5738176e-05
000390 80 1e 75 38 44 49 6e ba d2 00 51 3a 78 72 25 b9
       5.8440957e-05 -0.0009089897 0.00079728395 -0.00015778269
0003a0 dd 2e a9 b7 2c 72 d5 b7 f0 47 96 36 99 7f 80 ba
       -2.0168192e-05 -2.5444744e-05 4.478723e-06 -0.0009803652
0003b0 ce 89 ae b9 a1 eb 22 b9 fc 1a 13 36 18 cf 92 3a
       -0.0003329054 -0.00015537303 2.1920414e-06 0.0011200635
0003c0 38 4e e5 b9 f2 d8 10 b9 f5 18 79 b7 93 e9 00 b6
       -0.0004373656 -0.00013813729 -1.4847367e-05 -1.9209444e-06
0003d0 8b 83 9b 3a ce b4 d6 38 13 45 a8 38 2e 4f 02 b6
       0.0011864764 0.00010237993 8.02373e-05 -1.9417598e-06
0003e0 4a c3 39 b8 5f 72 82 3a 25 66 4c ba 06 f9 c2 b5
       -4.4289314e-05 0.0009952298 -0.0007797203 -1.4526602e-06
0003f0 e3 c7 80 ba 47 02 56 3a ea 2c aa 39 58 c0 8c 36
       -0.0009825196 0.00081637915 0.0003245839 4.194717e-06

weight_hh_l1 f4 [300, 100]
000000 d2 6a c8 38 ac e8 bd b8 6c 20 c6 b8 50 9f 71 37
       9.55664e-05 -9.055561e-05 -9.447415e-05 1.4401812e-05
000010 a7 a8 e4 b8 af c0 0e 39 bb b0 49 b7 66 3b 08 b9
       -0.00010903301 0.00013613956 -1.2021682e-05 -0.00012992098
000020 9a 12 a0 b7 e0 6f 44 38 67 1b 1a 37 3a 09 bd 37
       -1.9082148e-05 4.6834233e-05 9.185495e-06 2.2534852e-05
000030 c7 77 19 39 a6 90 1e 32 42 95 eb 37 93 bd 14 b8
       0.00014635838 9.2297e-09 2.8083687e-05 -3.5462504e-05
000040 b6 d4 0c b9 a4 72 92 b7 f1 a1 b3 38 ec df 0a b8
       -0.00013430681 -1.745794e-05 8.565549e-05 -3.3110307e-05
000050 a6 7e d9 b8 54 9f 81 b7 2e 78 b5 b8 5c 4c c8 38
       -0.000103709564 -1.5452191e-05 -8.653138e-05 9.550966e-05
000060 53 a6 d4 38 10 d3 f8 36 39 cd 99 b8 da b7 99 37
       0.00010139928 7.415547e-06 -7.333834e-05 1.8324634e-05
000070 7a 91 8e b7 70 c5 1e b8 32 bc d9 38 c6 6c d8 b8
       -1.6995462e-05 -3.7854013e-05 0.000103824204 -0.00010319943
000080 cd 5b 37 b9 fa ba a6 37 7c dd 59 b7 88 8d 6a b8
       -0.00017486438 1.987581e-05 -1.2985776e-05 -5.592176e-05
000090 38 da 78 37 4c 95 09 b9 4e 64 9a 37 74 92 49 b7
       1.483276e-05 -0.00013120956 1.8404939e-05 -1.2014632e-05
0000a0 68 a9 97 36 c0 2a f1 b0 f4 ba 37 b8 98 d3 9a b3
       4.519872e-06 -1.7547208e-09 -4.3804714e-05 -7.2096725e-08
0000b0 5c 80 07 b8 7c ce a5 38 66 f9 0f 39 de 22 8e 38
       -3.2306052e-05 7.906274e-05 0.00013730451 6.777582e-05
0000c0 1a 34 00 b9 c4 f6 00 b8 f5 bc f8 b8 28 65 ed 38
       -0.0001222644 -3.0747397e-05 -0.000118607575 0.000113198825
0000d0 20 72 08 b8 a0 a9 07 39 9c c4 61 38 55 62 96 38
       -3.2531214e-05 0.00012937794 5.3827287e-05 7.170873e-05
0000e0 c8 95 9d b8 15 27 49 38 9e c9 a2 32 ac 12 31 38
       -7.514242e-05 4.7958532e-05 1.8950967e-08 4.2217478e-05
0000f0 9b 9f 10 39 4a ea 00 39 97 3d 48 b7 19 93 33 36
       0.00013792368 0.0001229431 -1.1935269e-05 2.67587e-06
000100 c0 59 7f 37 39 ea 79 b5 8b 05 a4 38 24 ea 1f b6
       1.5220081e-05 -9.310057e-07 7.821162e-05 -2.3829134e-06
000110 68 58 14 37 f0 29 28 38 c0 59 7b b7 f0 36 20 39
       8.842071e-06 4.009338e-05 -1.4981662e-05 0.00015279255
000120 48 87 1b b7 4d ce e6 b8 3b 42 d9 38 f7 0a bb b8
       -9.270218e-06 -0.00011005681 0.00010359703 -8.918897e-05
000130 78 fa f1 38 76 7a 16 34 dc 8f ca b7 72 df 64 b7
       0.00011538429 1.401439e-07 -2.4147266e-05 -1.3641884e-05
000140 da 94 41 30 1a 09 2f 39 ad c0 b1 38 be 66 78 b7
       7.042452e-10 0.00016692691 8.475906e-05 -1.4805873e-05
000150 ec ad 3d b8 6c d2 e4 b8 36 c5 01 39 3b 09 62 30
       -4.522309e-05 -0.00010911081 0.00012375865 8.223144e-10
000160 06 30 de 38 c8 06 1f b9 9b f4 00 39 8e bc 3a 37
       0.0001059473 -0.00015165948 0.00012298154 1.1130365e-05
000170 f2 7e 3a b9 62 e6 94 b6 74 70 f6 38 b0 41 96 b8
       -0.00017785633 -4.437564e-06 0.0001175114 -7.1647926e-05
000180 b4 ac 7b 37 64 a3 99 b7 b6 63 a3 b5 c9 23 b3 b7
       1.5000976e-05 -1.8315106e-05 -1.2173466e-06 -2.1355127e-05
000190 16 e1 3a 37 bf 09 91 38 fe 6a a5 b7 e4 e9 91 38
       1.1138871e-05 6.915954e-05 -1.9719355e-05 6.957704e-05
0001a0 fc dc 09 b7 a0 29 26 b6 34 73 0e b7 2e 30 89 b7
       -8.217288e-06 -2.4760157e-06 -8.490682e-06 -1.6354108e-05
0001b0 1d 93 95 38 e6 99 ca b8 e8 8d 9c 38 3c c7 ec b8
       7.132276e-05 -9.6607764e-05 7.465092e-05 -0.00011290467
0001c0 ec 29 1c 37 6c 69 87 33 55 9d 3b 38 8b d9 e8 38
       9.308085e-06 6.3056035e-08 4.47308e-05 0.000111031426
0001d0 f0 30 b2 b5 b6 e7 06 b8 7f 1e 87 37 1d fe 86 b8
       -1.3276276e-06 -3.2163887e-05 1.6107455e-05 -6.43695e-05
0001e0 44 97 a3 b7 12 7d 92 37 c8 e6 95 38 66 ef 9c b7
       -1.9501553e-05 1.7462797e-05 7.14786e-05 -1.8708128e-05
0001f0 14 92 ec 36 15 a3 8c b8 42 42 8a 38 20 ba 7b b7
       7.050354e-06 -6.7060966e-05 6.592694e-05 -1.5004101e-05
000200 d3 ec ef 38 40 a4 3d b6 78 dc 93 b6 f5 5e 29 b8
       0.0001144052 -2.82588e-06 -4.4066073e-06 -4.0381175e-05
000210 2b 10 20 b8 9e a3 8f 37 49 aa 84 b8 03 26 96 b8
       -3.816203e-05 1.7123119e-05 -6.3259686e-05 -7.1596376e-05
000220 68 30 14 b7 b0 e9 ad b7 50 19 ad b6 0a 5b d7 37
       -8.832758e-06 -2.0732026e-05 -5.1587485e-06 2.567239e-05
000230 88 07 bb 37 5e 89 9e b6 c8 e6 49 38 34 6d 6c 33
       2.2295644e-05 -4.7247586e-06 4.8137066e-05 5.504735e-08
000240 90 4a 8d 38 2e 97 20 38 16 38 31 37 f0 6e 43 38
       6.737292e-05 3.828777e-05 1.0563081e-05 4.659494e-05
000250 68 f6 70 37 38 c9 99 38 18 7b 4a b6 10 36 70 37
       1.4362486e-05 7.3330884e-05 -3.0171996e-06 1.4317702e-05
000260 28 68 47 38 ca 8c e2 37 80 cc 83 37 67 60 6a b8
       4.75423e-05 2.700686e-05 1.5711645e-05 -5.587973e-05
000270 66 62 72 b7 24 3f 41 38 be 21 30 33 51 16 91 38
       -1.4447234e-05 4.607359e-05 4.100888e-08 6.9182955e-05
000280 c4 63 48 37 c5 92 8d 37 3e 54 77 38 96 ae 00 b6
       1.1944157e-05 1.6876855e-05 5.8967846e-05 -1.9175109e-06
000290 18 bb 73 b7 80 bb 1e b5 9c dc de 36 62 88 07 36
       -1.452749e-05 -5.9132435e-07 6.641798e-06 2.0195953e-06
0002a0 68 d3 52 37 6b d9 1e b8 0b 7d 67 38 00 8d f3 35
       1.2566197e-05 -3.787262e-05 5.5191147e-05 1.8145947e-06
0002b0 d0 7c c0 36 00 92 c5 b7 70 76 a1 34 78 16 9e b7
       5.736576e-06 -2.3552217e-05 3.0074762e-07 -1.884553e-05
0002c0 44 19 24 b7 32 6c 0d b4 4e 40 92 38 44 1c b7 b8
       -9.781044e-06 -1.317101e-07 6.9738e-05 -8.731385e-05
0002d0 c3 ef ce 2f c2 45 e6 36 0b d0 ac 37 00 c3 d9 34
       3.7641543e-10 6.862655e-06 2.0600875e-05 4.056128e-07
0002e0 a3 55 4c 38 e8 99 c6 37 64 69 05 37 a8 16 a0 b0
       4.8717146e-05 2.3675108e-05 7.951956e-06 -1.1647971e-09
0002f0 06 97 c2 37 84 2b 91 b7 31 79 9c 37 cc f9 d7 37
       2.3196928e-05 -1.730561e-05 1.8653083e-05 2.5746318e-05
000300 33 1d e6 b7 38 ce 69 b5 4a 29 9e 37 c1 25 f6 38
       -2.7431734e-05 -8.709935e-07 1.8854294e-05 0.00011737226
000310 3a 97 d7 b8 00 bc 23 b6 8e 48 23 36 50 b3 91 b7
       -0.00010280167 -2.4398323e-06 2.4331125e-06 -1.7368846e-05
000320 37 bb 0c 39 60 c3 3c b9 e2 0f 2e b9 2c 5a 08 38
       0.00013421183 -0.0001800186 -0.0001659985 3.2508906e-05
000330 c8 14 06 b9 5e 2e 2e 39 01 51 9c b7 a4 2e 37 b9
       -0.00012786977 0.00016611206 -1.863437e-05 -0.00017469615
000340 bc d2 6c 38 bb 5a ba 38 00 30 00 38 00 8b 34 36
       5.6463046e-05 8.886071e-05 3.056228e-05 2.6902999e-06
000350 18 e4 28 39 b6 84 60 b3 1a 09 90 b8 10 b3 5c 37
       0.000161067 -5.2274764e-08 -6.8681504e-05 1.3154713e-05
000360 a4 07 32 b9 1c 6d 61 38 c5 09 2d 39 72 2b 21 39
       -0.00016978249 5.3745796e-05 0.00016502205 0.00015370341
000370 b1 46 2e b9 b4 c4 63 38 7a 74 34 b9 14 21 cf 38
       -0.00016620268 5.430421e-05 -0.00017209529 9.8766905e-05
000380 de a6 f9 38 c0 39 e6 36 69 2c 27 b9 53 b4 ec b8
       0.00011904327 6.861257e-06 -0.00015942905 -0.00011286945
000390 e8 87 01 38 41 86 af b8 a2 a1 97 38 b3 b0 13 b9
       3.088257e-05 -8.369657e-05 7.2303475e-05 -0.00014084838
0003a0 3c 2c ca b8 db cc 94 38 e0 c8 b0 b6 f6 18 f1 38
       -9.64035e-05 7.095347e-05 -5.2685937e-06 0.00011496425
0003b0 46 f4 d4 38 a0 22 34 b9 b1 a9 a7 38 d8 dc 1a 37
       0.00010154447 -0.00017179037 7.994788e-05 9.2305345e-06
0003c0 df d1 a4 b8 e8 28 87 34 e1 10 ee b8 20 7e bc 33
       -7.859221e-05 2.5175473e-07 -0.00011351868 8.777374e-08
0003d0 be 8a 48 b8 e5 37 3a 38 39 d6 16 39 c8 13 27 b8
       -4.781293e-05 4.439791e-05 0.00014384919 -3.9834325e-05
0003e0 08 a6 d6 b8 1c 35 90 b8 3a 5d 24 b9 d5 88 17 39
       -0.00010235241 -6.8763475e-05 -0.00015674988 0.00014451456
0003f0 cf 92 1f b9 59 a0 1c 39 58 31 cd b8 2a bd 29 39
       -0.00015218112 0.00014937053 -9.784353e-05 0.00016187565
